program(1.0)
[buildInfo = dict<tensor<string, []>, tensor<string, []>>({{"coremlc-component-MIL", "3520.4.1"}, {"coremlc-version", "3520.5.1"}, {"coremltools-component-torch", "2.11.0"}, {"coremltools-source-dialect", "TorchScript"}, {"coremltools-version", "9.0"}})]
{
    func main<ios16>(tensor<fp32, [1, 3, 960, 960]> x) {
            tensor<fp32, [1]> initializers_onnx_initializer_135 = const()[name = tensor<string, []>("initializers_onnx_initializer_135"), val = tensor<fp32, [1]>([0x1.49c002p+0])];
            tensor<fp32, [1]> initializers_onnx_initializer_134 = const()[name = tensor<string, []>("initializers_onnx_initializer_134"), val = tensor<fp32, [1]>([0x1.226776p+2])];
            tensor<fp32, [1]> initializers_onnx_initializer_130 = const()[name = tensor<string, []>("initializers_onnx_initializer_130"), val = tensor<fp32, [1]>([-0x1.05361cp-14])];
            tensor<fp32, [1]> initializers_onnx_initializer_129 = const()[name = tensor<string, []>("initializers_onnx_initializer_129"), val = tensor<fp32, [1]>([0x1.5b302cp-3])];
            tensor<fp32, [1]> initializers_onnx_initializer_125 = const()[name = tensor<string, []>("initializers_onnx_initializer_125"), val = tensor<fp32, [1]>([0x1.53c3d6p-3])];
            tensor<fp32, [1]> initializers_onnx_initializer_124 = const()[name = tensor<string, []>("initializers_onnx_initializer_124"), val = tensor<fp32, [1]>([0x1.df336ep-1])];
            tensor<fp32, [1]> initializers_onnx_initializer_120 = const()[name = tensor<string, []>("initializers_onnx_initializer_120"), val = tensor<fp32, [1]>([-0x1.be6a2cp-14])];
            tensor<fp32, [1]> initializers_onnx_initializer_119 = const()[name = tensor<string, []>("initializers_onnx_initializer_119"), val = tensor<fp32, [1]>([0x1.2b5732p-3])];
            tensor<fp32, [1]> initializers_onnx_initializer_115 = const()[name = tensor<string, []>("initializers_onnx_initializer_115"), val = tensor<fp32, [1]>([0x1.086c74p-2])];
            tensor<fp32, [1]> initializers_onnx_initializer_114 = const()[name = tensor<string, []>("initializers_onnx_initializer_114"), val = tensor<fp32, [1]>([0x1.d6bc62p-1])];
            tensor<fp32, [1]> initializers_onnx_initializer_108 = const()[name = tensor<string, []>("initializers_onnx_initializer_108"), val = tensor<fp32, [1]>([-0x1.08ff8p+0])];
            tensor<fp32, [1]> initializers_onnx_initializer_107 = const()[name = tensor<string, []>("initializers_onnx_initializer_107"), val = tensor<fp32, [1]>([0x1.40e6dcp+0])];
            tensor<fp32, [1]> initializers_onnx_initializer_103 = const()[name = tensor<string, []>("initializers_onnx_initializer_103"), val = tensor<fp32, [1]>([0x1.1a9c0cp-3])];
            tensor<fp32, [1]> initializers_onnx_initializer_102 = const()[name = tensor<string, []>("initializers_onnx_initializer_102"), val = tensor<fp32, [1]>([0x1.ef98fep-1])];
            tensor<fp32, [1]> initializers_onnx_initializer_93 = const()[name = tensor<string, []>("initializers_onnx_initializer_93"), val = tensor<fp32, [1]>([0x1.753f7ap-3])];
            tensor<fp32, [1]> initializers_onnx_initializer_92 = const()[name = tensor<string, []>("initializers_onnx_initializer_92"), val = tensor<fp32, [1]>([0x1.5c828ap+0])];
            tensor<fp32, [1]> initializers_onnx_initializer_88 = const()[name = tensor<string, []>("initializers_onnx_initializer_88"), val = tensor<fp32, [1]>([0x1.e964eep-11])];
            tensor<fp32, [1]> initializers_onnx_initializer_87 = const()[name = tensor<string, []>("initializers_onnx_initializer_87"), val = tensor<fp32, [1]>([0x1.0367a2p-7])];
            tensor<fp32, [1]> initializers_onnx_initializer_83 = const()[name = tensor<string, []>("initializers_onnx_initializer_83"), val = tensor<fp32, [1]>([0x1.6b8e3ep-3])];
            tensor<fp32, [1]> initializers_onnx_initializer_82 = const()[name = tensor<string, []>("initializers_onnx_initializer_82"), val = tensor<fp32, [1]>([0x1.a4af12p-1])];
            tensor<fp32, [1]> initializers_onnx_initializer_78 = const()[name = tensor<string, []>("initializers_onnx_initializer_78"), val = tensor<fp32, [1]>([0x1.fae4e2p-11])];
            tensor<fp32, [1]> initializers_onnx_initializer_77 = const()[name = tensor<string, []>("initializers_onnx_initializer_77"), val = tensor<fp32, [1]>([0x1.4b45ap-8])];
            tensor<fp32, [1]> initializers_onnx_initializer_73 = const()[name = tensor<string, []>("initializers_onnx_initializer_73"), val = tensor<fp32, [1]>([0x1.8e104ep-5])];
            tensor<fp32, [1]> initializers_onnx_initializer_72 = const()[name = tensor<string, []>("initializers_onnx_initializer_72"), val = tensor<fp32, [1]>([0x1.75a3a2p-1])];
            tensor<fp32, [1]> initializers_onnx_initializer_68 = const()[name = tensor<string, []>("initializers_onnx_initializer_68"), val = tensor<fp32, [1]>([-0x1.1e3264p-12])];
            tensor<fp32, [1]> initializers_onnx_initializer_67 = const()[name = tensor<string, []>("initializers_onnx_initializer_67"), val = tensor<fp32, [1]>([0x1.b91dp-6])];
            tensor<fp32, [1]> initializers_onnx_initializer_63 = const()[name = tensor<string, []>("initializers_onnx_initializer_63"), val = tensor<fp32, [1]>([-0x1.cfe104p-4])];
            tensor<fp32, [1]> initializers_onnx_initializer_62 = const()[name = tensor<string, []>("initializers_onnx_initializer_62"), val = tensor<fp32, [1]>([0x1.94b6c8p-1])];
            tensor<fp32, [1]> initializers_onnx_initializer_58 = const()[name = tensor<string, []>("initializers_onnx_initializer_58"), val = tensor<fp32, [1]>([0x1.70ce3p-11])];
            tensor<fp32, [1]> initializers_onnx_initializer_57 = const()[name = tensor<string, []>("initializers_onnx_initializer_57"), val = tensor<fp32, [1]>([0x1.2f0226p-8])];
            tensor<fp32, [1]> initializers_onnx_initializer_53 = const()[name = tensor<string, []>("initializers_onnx_initializer_53"), val = tensor<fp32, [1]>([-0x1.a182ccp-1])];
            tensor<fp32, [1]> initializers_onnx_initializer_52 = const()[name = tensor<string, []>("initializers_onnx_initializer_52"), val = tensor<fp32, [1]>([0x1.4ec99cp-1])];
            tensor<fp32, [1]> initializers_onnx_initializer_45 = const()[name = tensor<string, []>("initializers_onnx_initializer_45"), val = tensor<fp32, [1]>([-0x1.d6e89p-5])];
            tensor<fp32, [1]> initializers_onnx_initializer_44 = const()[name = tensor<string, []>("initializers_onnx_initializer_44"), val = tensor<fp32, [1]>([0x1.8aaeecp+0])];
            tensor<fp32, [1]> initializers_onnx_initializer_40 = const()[name = tensor<string, []>("initializers_onnx_initializer_40"), val = tensor<fp32, [1]>([0x1.a026b8p-16])];
            tensor<fp32, [1]> initializers_onnx_initializer_39 = const()[name = tensor<string, []>("initializers_onnx_initializer_39"), val = tensor<fp32, [1]>([0x1.8c6c6ep-4])];
            tensor<fp32, [1]> initializers_onnx_initializer_35 = const()[name = tensor<string, []>("initializers_onnx_initializer_35"), val = tensor<fp32, [1]>([-0x1.e6ec1ep-1])];
            tensor<fp32, [1]> initializers_onnx_initializer_34 = const()[name = tensor<string, []>("initializers_onnx_initializer_34"), val = tensor<fp32, [1]>([0x1.1de53p-1])];
            tensor<fp32, [1]> initializers_onnx_initializer_27 = const()[name = tensor<string, []>("initializers_onnx_initializer_27"), val = tensor<fp32, [1]>([-0x1.1c2bbp-1])];
            tensor<fp32, [1]> initializers_onnx_initializer_26 = const()[name = tensor<string, []>("initializers_onnx_initializer_26"), val = tensor<fp32, [1]>([0x1.7fb94cp+0])];
            tensor<fp32, [1]> initializers_onnx_initializer_22 = const()[name = tensor<string, []>("initializers_onnx_initializer_22"), val = tensor<fp32, [1]>([-0x1.02461cp-15])];
            tensor<fp32, [1]> initializers_onnx_initializer_21 = const()[name = tensor<string, []>("initializers_onnx_initializer_21"), val = tensor<fp32, [1]>([0x1.82cfb4p-8])];
            tensor<fp32, [1]> initializers_onnx_initializer_17 = const()[name = tensor<string, []>("initializers_onnx_initializer_17"), val = tensor<fp32, [1]>([-0x1.be05d8p-1])];
            tensor<fp32, [1]> initializers_onnx_initializer_16 = const()[name = tensor<string, []>("initializers_onnx_initializer_16"), val = tensor<fp32, [1]>([0x1.7889bep-2])];
            tensor<fp32, [1]> initializers_onnx_initializer_9 = const()[name = tensor<string, []>("initializers_onnx_initializer_9"), val = tensor<fp32, [1]>([-0x1.d54bap-3])];
            tensor<fp32, [1]> initializers_onnx_initializer_8 = const()[name = tensor<string, []>("initializers_onnx_initializer_8"), val = tensor<fp32, [1]>([0x1.5ae306p-1])];
            tensor<fp32, [1]> initializers_onnx_initializer_4 = const()[name = tensor<string, []>("initializers_onnx_initializer_4"), val = tensor<fp32, [1]>([0x1.f19e0ep-13])];
            tensor<fp32, [1]> initializers_onnx_initializer_3 = const()[name = tensor<string, []>("initializers_onnx_initializer_3"), val = tensor<fp32, [1]>([0x1.570ff6p-8])];
            tensor<fp32, [48, 192, 1, 1]> Conv_22_weight = const()[name = tensor<string, []>("Conv_22_weight"), val = tensor<fp32, [48, 192, 1, 1]>(BLOBFILE(path = tensor<string, []>("@model_path/weights/weight.bin"), offset = tensor<uint64, []>(64)))];
            tensor<fp32, [96, 384, 1, 1]> Conv_26_weight = const()[name = tensor<string, []>("Conv_26_weight"), val = tensor<fp32, [96, 384, 1, 1]>(BLOBFILE(path = tensor<string, []>("@model_path/weights/weight.bin"), offset = tensor<uint64, []>(36992)))];
            tensor<fp32, [12, 48, 1, 1]> Conv_33_weight = const()[name = tensor<string, []>("Conv_33_weight"), val = tensor<fp32, [12, 48, 1, 1]>(BLOBFILE(path = tensor<string, []>("@model_path/weights/weight.bin"), offset = tensor<uint64, []>(184512)))];
            tensor<fp32, [18, 96, 1, 1]> Conv_34_weight = const()[name = tensor<string, []>("Conv_34_weight"), val = tensor<fp32, [18, 96, 1, 1]>(BLOBFILE(path = tensor<string, []>("@model_path/weights/weight.bin"), offset = tensor<uint64, []>(186880)))];
            tensor<fp32, [42, 192, 1, 1]> Conv_35_weight = const()[name = tensor<string, []>("Conv_35_weight"), val = tensor<fp32, [42, 192, 1, 1]>(BLOBFILE(path = tensor<string, []>("@model_path/weights/weight.bin"), offset = tensor<uint64, []>(193856)))];
            tensor<fp32, [360, 384, 1, 1]> Conv_36_weight = const()[name = tensor<string, []>("Conv_36_weight"), val = tensor<fp32, [360, 384, 1, 1]>(BLOBFILE(path = tensor<string, []>("@model_path/weights/weight.bin"), offset = tensor<uint64, []>(226176)))];
            tensor<fp32, [96, 360, 1, 1]> Conv_37_weight = const()[name = tensor<string, []>("Conv_37_weight"), val = tensor<fp32, [96, 360, 1, 1]>(BLOBFILE(path = tensor<string, []>("@model_path/weights/weight.bin"), offset = tensor<uint64, []>(779200)))];
            tensor<fp32, [24, 96, 1, 1]> Conv_38_weight = const()[name = tensor<string, []>("Conv_38_weight"), val = tensor<fp32, [24, 96, 1, 1]>(BLOBFILE(path = tensor<string, []>("@model_path/weights/weight.bin"), offset = tensor<uint64, []>(917504)))];
            tensor<fp32, [96, 42, 1, 1]> Conv_40_weight = const()[name = tensor<string, []>("Conv_40_weight"), val = tensor<fp32, [96, 42, 1, 1]>(BLOBFILE(path = tensor<string, []>("@model_path/weights/weight.bin"), offset = tensor<uint64, []>(926784)))];
            tensor<fp32, [24, 96, 1, 1]> Conv_41_weight = const()[name = tensor<string, []>("Conv_41_weight"), val = tensor<fp32, [24, 96, 1, 1]>(BLOBFILE(path = tensor<string, []>("@model_path/weights/weight.bin"), offset = tensor<uint64, []>(942976)))];
            tensor<fp32, [96, 18, 1, 1]> Conv_43_weight = const()[name = tensor<string, []>("Conv_43_weight"), val = tensor<fp32, [96, 18, 1, 1]>(BLOBFILE(path = tensor<string, []>("@model_path/weights/weight.bin"), offset = tensor<uint64, []>(952256)))];
            tensor<fp32, [24, 96, 1, 1]> Conv_44_weight = const()[name = tensor<string, []>("Conv_44_weight"), val = tensor<fp32, [24, 96, 1, 1]>(BLOBFILE(path = tensor<string, []>("@model_path/weights/weight.bin"), offset = tensor<uint64, []>(959232)))];
            tensor<fp32, [96, 12, 1, 1]> Conv_46_weight = const()[name = tensor<string, []>("Conv_46_weight"), val = tensor<fp32, [96, 12, 1, 1]>(BLOBFILE(path = tensor<string, []>("@model_path/weights/weight.bin"), offset = tensor<uint64, []>(968512)))];
            tensor<fp32, [24, 96, 1, 1]> Conv_47_weight = const()[name = tensor<string, []>("Conv_47_weight"), val = tensor<fp32, [24, 96, 1, 1]>(BLOBFILE(path = tensor<string, []>("@model_path/weights/weight.bin"), offset = tensor<uint64, []>(973184)))];
            tensor<fp32, [24, 96, 3, 3]> Conv_49_weight = const()[name = tensor<string, []>("Conv_49_weight"), val = tensor<fp32, [24, 96, 3, 3]>(BLOBFILE(path = tensor<string, []>("@model_path/weights/weight.bin"), offset = tensor<uint64, []>(982464)))];
            tensor<fp32, [6, 24, 1, 1]> Conv_50_weight = const()[name = tensor<string, []>("Conv_50_weight"), val = tensor<fp32, [6, 24, 1, 1]>(BLOBFILE(path = tensor<string, []>("@model_path/weights/weight.bin"), offset = tensor<uint64, []>(1065472)))];
            tensor<fp32, [24, 96, 3, 3]> Conv_52_weight = const()[name = tensor<string, []>("Conv_52_weight"), val = tensor<fp32, [24, 96, 3, 3]>(BLOBFILE(path = tensor<string, []>("@model_path/weights/weight.bin"), offset = tensor<uint64, []>(1066112)))];
            tensor<fp32, [6, 24, 1, 1]> Conv_53_weight = const()[name = tensor<string, []>("Conv_53_weight"), val = tensor<fp32, [6, 24, 1, 1]>(BLOBFILE(path = tensor<string, []>("@model_path/weights/weight.bin"), offset = tensor<uint64, []>(1149120)))];
            tensor<fp32, [24, 96, 3, 3]> Conv_55_weight = const()[name = tensor<string, []>("Conv_55_weight"), val = tensor<fp32, [24, 96, 3, 3]>(BLOBFILE(path = tensor<string, []>("@model_path/weights/weight.bin"), offset = tensor<uint64, []>(1149760)))];
            tensor<fp32, [6, 24, 1, 1]> Conv_56_weight = const()[name = tensor<string, []>("Conv_56_weight"), val = tensor<fp32, [6, 24, 1, 1]>(BLOBFILE(path = tensor<string, []>("@model_path/weights/weight.bin"), offset = tensor<uint64, []>(1232768)))];
            tensor<fp32, [24, 96, 3, 3]> Conv_58_weight = const()[name = tensor<string, []>("Conv_58_weight"), val = tensor<fp32, [24, 96, 3, 3]>(BLOBFILE(path = tensor<string, []>("@model_path/weights/weight.bin"), offset = tensor<uint64, []>(1233408)))];
            tensor<fp32, [6, 24, 1, 1]> Conv_59_weight = const()[name = tensor<string, []>("Conv_59_weight"), val = tensor<fp32, [6, 24, 1, 1]>(BLOBFILE(path = tensor<string, []>("@model_path/weights/weight.bin"), offset = tensor<uint64, []>(1316416)))];
            tensor<fp32, [24, 1, 2, 2]> ConvTranspose_2_weight = const()[name = tensor<string, []>("ConvTranspose_2_weight"), val = tensor<fp32, [24, 1, 2, 2]>(BLOBFILE(path = tensor<string, []>("@model_path/weights/weight.bin"), offset = tensor<uint64, []>(1317056)))];
            tensor<string, []> input_1_pad_type_0 = const()[name = tensor<string, []>("input_1_pad_type_0"), val = tensor<string, []>("custom")];
            tensor<int32, [4]> input_1_pad_0 = const()[name = tensor<string, []>("input_1_pad_0"), val = tensor<int32, [4]>([1, 1, 1, 1])];
            tensor<int32, [2]> input_1_strides_0 = const()[name = tensor<string, []>("input_1_strides_0"), val = tensor<int32, [2]>([2, 2])];
            tensor<int32, [2]> input_1_dilations_0 = const()[name = tensor<string, []>("input_1_dilations_0"), val = tensor<int32, [2]>([1, 1])];
            tensor<int32, []> input_1_groups_0 = const()[name = tensor<string, []>("input_1_groups_0"), val = tensor<int32, []>(1)];
            tensor<fp32, [16, 3, 3, 3]> const_54 = const()[name = tensor<string, []>("const_54"), val = tensor<fp32, [16, 3, 3, 3]>(BLOBFILE(path = tensor<string, []>("@model_path/weights/weight.bin"), offset = tensor<uint64, []>(1317504)))];
            tensor<fp32, [16]> const_55 = const()[name = tensor<string, []>("const_55"), val = tensor<fp32, [16]>(BLOBFILE(path = tensor<string, []>("@model_path/weights/weight.bin"), offset = tensor<uint64, []>(1319296)))];
            tensor<fp32, [1, 16, 480, 480]> input_3 = conv(bias = const_55, dilations = input_1_dilations_0, groups = input_1_groups_0, pad = input_1_pad_0, pad_type = input_1_pad_type_0, strides = input_1_strides_0, weight = const_54, x = x)[name = tensor<string, []>("input_3")];
            tensor<string, []> first_1_pad_type_0 = const()[name = tensor<string, []>("first_1_pad_type_0"), val = tensor<string, []>("custom")];
            tensor<int32, [4]> first_1_pad_0 = const()[name = tensor<string, []>("first_1_pad_0"), val = tensor<int32, [4]>([1, 1, 1, 1])];
            tensor<int32, []> first_1_groups_0 = const()[name = tensor<string, []>("first_1_groups_0"), val = tensor<int32, []>(16)];
            tensor<int32, [2]> first_1_strides_0 = const()[name = tensor<string, []>("first_1_strides_0"), val = tensor<int32, [2]>([1, 1])];
            tensor<int32, [2]> first_1_dilations_0 = const()[name = tensor<string, []>("first_1_dilations_0"), val = tensor<int32, [2]>([1, 1])];
            tensor<fp32, [16, 1, 3, 3]> x_3_weight_0 = const()[name = tensor<string, []>("x_3_weight_0"), val = tensor<fp32, [16, 1, 3, 3]>(BLOBFILE(path = tensor<string, []>("@model_path/weights/weight.bin"), offset = tensor<uint64, []>(1319424)))];
            tensor<fp32, [16]> const_60 = const()[name = tensor<string, []>("const_60"), val = tensor<fp32, [16]>(BLOBFILE(path = tensor<string, []>("@model_path/weights/weight.bin"), offset = tensor<uint64, []>(1320064)))];
            tensor<fp32, [1, 16, 480, 480]> x_5 = conv(bias = const_60, dilations = first_1_dilations_0, groups = first_1_groups_0, pad = first_1_pad_0, pad_type = first_1_pad_type_0, strides = first_1_strides_0, weight = x_3_weight_0, x = input_3)[name = tensor<string, []>("x_5")];
            tensor<fp32, []> var_429 = const()[name = tensor<string, []>("op_429"), val = tensor<fp32, []>(0x1p+0)];
            tensor<fp32, []> var_430 = const()[name = tensor<string, []>("op_430"), val = tensor<fp32, []>(0x0p+0)];
            tensor<fp32, []> var_432 = const()[name = tensor<string, []>("op_432"), val = tensor<fp32, []>(0x1.555556p-3)];
            tensor<fp32, [1, 16, 480, 480]> var_433 = mul(x = x_5, y = var_432)[name = tensor<string, []>("op_433")];
            tensor<fp32, []> var_434 = const()[name = tensor<string, []>("op_434"), val = tensor<fp32, []>(0x1p-1)];
            tensor<fp32, [1, 16, 480, 480]> var_435 = add(x = var_433, y = var_434)[name = tensor<string, []>("op_435")];
            tensor<fp32, [1, 16, 480, 480]> clip_0 = clip(alpha = var_430, beta = var_429, x = var_435)[name = tensor<string, []>("clip_0")];
            tensor<fp32, [1, 16, 480, 480]> second_7 = mul(x = clip_0, y = x_5)[name = tensor<string, []>("second_7")];
            tensor<fp32, [1, 16, 480, 480]> x_7 = mul(x = initializers_onnx_initializer_3, y = second_7)[name = tensor<string, []>("x_7")];
            tensor<fp32, [1, 16, 480, 480]> x_9 = add(x = x_7, y = initializers_onnx_initializer_4)[name = tensor<string, []>("x_9")];
            tensor<string, []> first_13_pad_type_0 = const()[name = tensor<string, []>("first_13_pad_type_0"), val = tensor<string, []>("valid")];
            tensor<int32, [2]> first_13_strides_0 = const()[name = tensor<string, []>("first_13_strides_0"), val = tensor<int32, [2]>([1, 1])];
            tensor<int32, [4]> first_13_pad_0 = const()[name = tensor<string, []>("first_13_pad_0"), val = tensor<int32, [4]>([0, 0, 0, 0])];
            tensor<int32, [2]> first_13_dilations_0 = const()[name = tensor<string, []>("first_13_dilations_0"), val = tensor<int32, [2]>([1, 1])];
            tensor<int32, []> first_13_groups_0 = const()[name = tensor<string, []>("first_13_groups_0"), val = tensor<int32, []>(1)];
            tensor<fp32, [32, 16, 1, 1]> x_13_weight_0 = const()[name = tensor<string, []>("x_13_weight_0"), val = tensor<fp32, [32, 16, 1, 1]>(BLOBFILE(path = tensor<string, []>("@model_path/weights/weight.bin"), offset = tensor<uint64, []>(1320192)))];
            tensor<fp32, [32]> const_61 = const()[name = tensor<string, []>("const_61"), val = tensor<fp32, [32]>(BLOBFILE(path = tensor<string, []>("@model_path/weights/weight.bin"), offset = tensor<uint64, []>(1322304)))];
            tensor<fp32, [1, 32, 480, 480]> x_15 = conv(bias = const_61, dilations = first_13_dilations_0, groups = first_13_groups_0, pad = first_13_pad_0, pad_type = first_13_pad_type_0, strides = first_13_strides_0, weight = x_13_weight_0, x = x_9)[name = tensor<string, []>("x_15")];
            tensor<fp32, []> var_467 = const()[name = tensor<string, []>("op_467"), val = tensor<fp32, []>(0x1p+0)];
            tensor<fp32, []> var_468 = const()[name = tensor<string, []>("op_468"), val = tensor<fp32, []>(0x0p+0)];
            tensor<fp32, []> var_470 = const()[name = tensor<string, []>("op_470"), val = tensor<fp32, []>(0x1.555556p-3)];
            tensor<fp32, [1, 32, 480, 480]> var_471 = mul(x = x_15, y = var_470)[name = tensor<string, []>("op_471")];
            tensor<fp32, []> var_472 = const()[name = tensor<string, []>("op_472"), val = tensor<fp32, []>(0x1p-1)];
            tensor<fp32, [1, 32, 480, 480]> var_473 = add(x = var_471, y = var_472)[name = tensor<string, []>("op_473")];
            tensor<fp32, [1, 32, 480, 480]> clip_1 = clip(alpha = var_468, beta = var_467, x = var_473)[name = tensor<string, []>("clip_1")];
            tensor<fp32, [1, 32, 480, 480]> second_17 = mul(x = clip_1, y = x_15)[name = tensor<string, []>("second_17")];
            tensor<fp32, [1, 32, 480, 480]> x_17 = mul(x = initializers_onnx_initializer_8, y = second_17)[name = tensor<string, []>("x_17")];
            tensor<fp32, [1, 32, 480, 480]> x_19 = add(x = x_17, y = initializers_onnx_initializer_9)[name = tensor<string, []>("x_19")];
            tensor<string, []> first_25_pad_type_0 = const()[name = tensor<string, []>("first_25_pad_type_0"), val = tensor<string, []>("custom")];
            tensor<int32, [4]> first_25_pad_0 = const()[name = tensor<string, []>("first_25_pad_0"), val = tensor<int32, [4]>([1, 1, 1, 1])];
            tensor<int32, [2]> first_25_strides_0 = const()[name = tensor<string, []>("first_25_strides_0"), val = tensor<int32, [2]>([2, 2])];
            tensor<int32, []> first_25_groups_0 = const()[name = tensor<string, []>("first_25_groups_0"), val = tensor<int32, []>(32)];
            tensor<int32, [2]> first_25_dilations_0 = const()[name = tensor<string, []>("first_25_dilations_0"), val = tensor<int32, [2]>([1, 1])];
            tensor<fp32, [32, 1, 3, 3]> x_23_weight_0 = const()[name = tensor<string, []>("x_23_weight_0"), val = tensor<fp32, [32, 1, 3, 3]>(BLOBFILE(path = tensor<string, []>("@model_path/weights/weight.bin"), offset = tensor<uint64, []>(1322496)))];
            tensor<fp32, [32]> const_62 = const()[name = tensor<string, []>("const_62"), val = tensor<fp32, [32]>(BLOBFILE(path = tensor<string, []>("@model_path/weights/weight.bin"), offset = tensor<uint64, []>(1323712)))];
            tensor<fp32, [1, 32, 240, 240]> x_25 = conv(bias = const_62, dilations = first_25_dilations_0, groups = first_25_groups_0, pad = first_25_pad_0, pad_type = first_25_pad_type_0, strides = first_25_strides_0, weight = x_23_weight_0, x = x_19)[name = tensor<string, []>("x_25")];
            tensor<string, []> first_31_pad_type_0 = const()[name = tensor<string, []>("first_31_pad_type_0"), val = tensor<string, []>("valid")];
            tensor<int32, [2]> first_31_strides_0 = const()[name = tensor<string, []>("first_31_strides_0"), val = tensor<int32, [2]>([1, 1])];
            tensor<int32, [4]> first_31_pad_0 = const()[name = tensor<string, []>("first_31_pad_0"), val = tensor<int32, [4]>([0, 0, 0, 0])];
            tensor<int32, [2]> first_31_dilations_0 = const()[name = tensor<string, []>("first_31_dilations_0"), val = tensor<int32, [2]>([1, 1])];
            tensor<int32, []> first_31_groups_0 = const()[name = tensor<string, []>("first_31_groups_0"), val = tensor<int32, []>(1)];
            tensor<fp32, [48, 32, 1, 1]> x_29_weight_0 = const()[name = tensor<string, []>("x_29_weight_0"), val = tensor<fp32, [48, 32, 1, 1]>(BLOBFILE(path = tensor<string, []>("@model_path/weights/weight.bin"), offset = tensor<uint64, []>(1323904)))];
            tensor<fp32, [48]> const_63 = const()[name = tensor<string, []>("const_63"), val = tensor<fp32, [48]>(BLOBFILE(path = tensor<string, []>("@model_path/weights/weight.bin"), offset = tensor<uint64, []>(1330112)))];
            tensor<fp32, [1, 48, 240, 240]> x_31 = conv(bias = const_63, dilations = first_31_dilations_0, groups = first_31_groups_0, pad = first_31_pad_0, pad_type = first_31_pad_type_0, strides = first_31_strides_0, weight = x_29_weight_0, x = x_25)[name = tensor<string, []>("x_31")];
            tensor<fp32, []> var_529 = const()[name = tensor<string, []>("op_529"), val = tensor<fp32, []>(0x1p+0)];
            tensor<fp32, []> var_530 = const()[name = tensor<string, []>("op_530"), val = tensor<fp32, []>(0x0p+0)];
            tensor<fp32, []> var_532 = const()[name = tensor<string, []>("op_532"), val = tensor<fp32, []>(0x1.555556p-3)];
            tensor<fp32, [1, 48, 240, 240]> var_533 = mul(x = x_31, y = var_532)[name = tensor<string, []>("op_533")];
            tensor<fp32, []> var_534 = const()[name = tensor<string, []>("op_534"), val = tensor<fp32, []>(0x1p-1)];
            tensor<fp32, [1, 48, 240, 240]> var_535 = add(x = var_533, y = var_534)[name = tensor<string, []>("op_535")];
            tensor<fp32, [1, 48, 240, 240]> clip_2 = clip(alpha = var_530, beta = var_529, x = var_535)[name = tensor<string, []>("clip_2")];
            tensor<fp32, [1, 48, 240, 240]> second_33 = mul(x = clip_2, y = x_31)[name = tensor<string, []>("second_33")];
            tensor<fp32, [1, 48, 240, 240]> x_33 = mul(x = initializers_onnx_initializer_16, y = second_33)[name = tensor<string, []>("x_33")];
            tensor<fp32, [1, 48, 240, 240]> x_35 = add(x = x_33, y = initializers_onnx_initializer_17)[name = tensor<string, []>("x_35")];
            tensor<string, []> first_43_pad_type_0 = const()[name = tensor<string, []>("first_43_pad_type_0"), val = tensor<string, []>("custom")];
            tensor<int32, [4]> first_43_pad_0 = const()[name = tensor<string, []>("first_43_pad_0"), val = tensor<int32, [4]>([1, 1, 1, 1])];
            tensor<int32, []> first_43_groups_0 = const()[name = tensor<string, []>("first_43_groups_0"), val = tensor<int32, []>(48)];
            tensor<int32, [2]> first_43_strides_0 = const()[name = tensor<string, []>("first_43_strides_0"), val = tensor<int32, [2]>([1, 1])];
            tensor<int32, [2]> first_43_dilations_0 = const()[name = tensor<string, []>("first_43_dilations_0"), val = tensor<int32, [2]>([1, 1])];
            tensor<fp32, [48, 1, 3, 3]> x_39_weight_0 = const()[name = tensor<string, []>("x_39_weight_0"), val = tensor<fp32, [48, 1, 3, 3]>(BLOBFILE(path = tensor<string, []>("@model_path/weights/weight.bin"), offset = tensor<uint64, []>(1330368)))];
            tensor<fp32, [48]> const_64 = const()[name = tensor<string, []>("const_64"), val = tensor<fp32, [48]>(BLOBFILE(path = tensor<string, []>("@model_path/weights/weight.bin"), offset = tensor<uint64, []>(1332160)))];
            tensor<fp32, [1, 48, 240, 240]> x_41 = conv(bias = const_64, dilations = first_43_dilations_0, groups = first_43_groups_0, pad = first_43_pad_0, pad_type = first_43_pad_type_0, strides = first_43_strides_0, weight = x_39_weight_0, x = x_35)[name = tensor<string, []>("x_41")];
            tensor<fp32, []> var_568 = const()[name = tensor<string, []>("op_568"), val = tensor<fp32, []>(0x1p+0)];
            tensor<fp32, []> var_569 = const()[name = tensor<string, []>("op_569"), val = tensor<fp32, []>(0x0p+0)];
            tensor<fp32, []> var_571 = const()[name = tensor<string, []>("op_571"), val = tensor<fp32, []>(0x1.555556p-3)];
            tensor<fp32, [1, 48, 240, 240]> var_572 = mul(x = x_41, y = var_571)[name = tensor<string, []>("op_572")];
            tensor<fp32, []> var_573 = const()[name = tensor<string, []>("op_573"), val = tensor<fp32, []>(0x1p-1)];
            tensor<fp32, [1, 48, 240, 240]> var_574 = add(x = var_572, y = var_573)[name = tensor<string, []>("op_574")];
            tensor<fp32, [1, 48, 240, 240]> clip_3 = clip(alpha = var_569, beta = var_568, x = var_574)[name = tensor<string, []>("clip_3")];
            tensor<fp32, [1, 48, 240, 240]> second_43 = mul(x = clip_3, y = x_41)[name = tensor<string, []>("second_43")];
            tensor<fp32, [1, 48, 240, 240]> x_43 = mul(x = initializers_onnx_initializer_21, y = second_43)[name = tensor<string, []>("x_43")];
            tensor<fp32, [1, 48, 240, 240]> x_45 = add(x = x_43, y = initializers_onnx_initializer_22)[name = tensor<string, []>("x_45")];
            tensor<string, []> first_55_pad_type_0 = const()[name = tensor<string, []>("first_55_pad_type_0"), val = tensor<string, []>("valid")];
            tensor<int32, [2]> first_55_strides_0 = const()[name = tensor<string, []>("first_55_strides_0"), val = tensor<int32, [2]>([1, 1])];
            tensor<int32, [4]> first_55_pad_0 = const()[name = tensor<string, []>("first_55_pad_0"), val = tensor<int32, [4]>([0, 0, 0, 0])];
            tensor<int32, [2]> first_55_dilations_0 = const()[name = tensor<string, []>("first_55_dilations_0"), val = tensor<int32, [2]>([1, 1])];
            tensor<int32, []> first_55_groups_0 = const()[name = tensor<string, []>("first_55_groups_0"), val = tensor<int32, []>(1)];
            tensor<fp32, [48, 48, 1, 1]> x_49_weight_0 = const()[name = tensor<string, []>("x_49_weight_0"), val = tensor<fp32, [48, 48, 1, 1]>(BLOBFILE(path = tensor<string, []>("@model_path/weights/weight.bin"), offset = tensor<uint64, []>(1332416)))];
            tensor<fp32, [48]> const_65 = const()[name = tensor<string, []>("const_65"), val = tensor<fp32, [48]>(BLOBFILE(path = tensor<string, []>("@model_path/weights/weight.bin"), offset = tensor<uint64, []>(1341696)))];
            tensor<fp32, [1, 48, 240, 240]> x_51 = conv(bias = const_65, dilations = first_55_dilations_0, groups = first_55_groups_0, pad = first_55_pad_0, pad_type = first_55_pad_type_0, strides = first_55_strides_0, weight = x_49_weight_0, x = x_45)[name = tensor<string, []>("x_51")];
            tensor<fp32, []> var_606 = const()[name = tensor<string, []>("op_606"), val = tensor<fp32, []>(0x1p+0)];
            tensor<fp32, []> var_607 = const()[name = tensor<string, []>("op_607"), val = tensor<fp32, []>(0x0p+0)];
            tensor<fp32, []> var_609 = const()[name = tensor<string, []>("op_609"), val = tensor<fp32, []>(0x1.555556p-3)];
            tensor<fp32, [1, 48, 240, 240]> var_610 = mul(x = x_51, y = var_609)[name = tensor<string, []>("op_610")];
            tensor<fp32, []> var_611 = const()[name = tensor<string, []>("op_611"), val = tensor<fp32, []>(0x1p-1)];
            tensor<fp32, [1, 48, 240, 240]> var_612 = add(x = var_610, y = var_611)[name = tensor<string, []>("op_612")];
            tensor<fp32, [1, 48, 240, 240]> clip_4 = clip(alpha = var_607, beta = var_606, x = var_612)[name = tensor<string, []>("clip_4")];
            tensor<fp32, [1, 48, 240, 240]> second_53 = mul(x = clip_4, y = x_51)[name = tensor<string, []>("second_53")];
            tensor<fp32, [1, 48, 240, 240]> x_53 = mul(x = initializers_onnx_initializer_26, y = second_53)[name = tensor<string, []>("x_53")];
            tensor<fp32, [1, 48, 240, 240]> x_55 = add(x = x_53, y = initializers_onnx_initializer_27)[name = tensor<string, []>("x_55")];
            tensor<string, []> first_67_pad_type_0 = const()[name = tensor<string, []>("first_67_pad_type_0"), val = tensor<string, []>("custom")];
            tensor<int32, [4]> first_67_pad_0 = const()[name = tensor<string, []>("first_67_pad_0"), val = tensor<int32, [4]>([1, 1, 1, 1])];
            tensor<int32, [2]> first_67_strides_0 = const()[name = tensor<string, []>("first_67_strides_0"), val = tensor<int32, [2]>([2, 2])];
            tensor<int32, []> first_67_groups_0 = const()[name = tensor<string, []>("first_67_groups_0"), val = tensor<int32, []>(48)];
            tensor<int32, [2]> first_67_dilations_0 = const()[name = tensor<string, []>("first_67_dilations_0"), val = tensor<int32, [2]>([1, 1])];
            tensor<fp32, [48, 1, 3, 3]> x_59_weight_0 = const()[name = tensor<string, []>("x_59_weight_0"), val = tensor<fp32, [48, 1, 3, 3]>(BLOBFILE(path = tensor<string, []>("@model_path/weights/weight.bin"), offset = tensor<uint64, []>(1341952)))];
            tensor<fp32, [48]> const_66 = const()[name = tensor<string, []>("const_66"), val = tensor<fp32, [48]>(BLOBFILE(path = tensor<string, []>("@model_path/weights/weight.bin"), offset = tensor<uint64, []>(1343744)))];
            tensor<fp32, [1, 48, 120, 120]> x_61 = conv(bias = const_66, dilations = first_67_dilations_0, groups = first_67_groups_0, pad = first_67_pad_0, pad_type = first_67_pad_type_0, strides = first_67_strides_0, weight = x_59_weight_0, x = x_55)[name = tensor<string, []>("x_61")];
            tensor<string, []> first_73_pad_type_0 = const()[name = tensor<string, []>("first_73_pad_type_0"), val = tensor<string, []>("valid")];
            tensor<int32, [2]> first_73_strides_0 = const()[name = tensor<string, []>("first_73_strides_0"), val = tensor<int32, [2]>([1, 1])];
            tensor<int32, [4]> first_73_pad_0 = const()[name = tensor<string, []>("first_73_pad_0"), val = tensor<int32, [4]>([0, 0, 0, 0])];
            tensor<int32, [2]> first_73_dilations_0 = const()[name = tensor<string, []>("first_73_dilations_0"), val = tensor<int32, [2]>([1, 1])];
            tensor<int32, []> first_73_groups_0 = const()[name = tensor<string, []>("first_73_groups_0"), val = tensor<int32, []>(1)];
            tensor<fp32, [96, 48, 1, 1]> x_65_weight_0 = const()[name = tensor<string, []>("x_65_weight_0"), val = tensor<fp32, [96, 48, 1, 1]>(BLOBFILE(path = tensor<string, []>("@model_path/weights/weight.bin"), offset = tensor<uint64, []>(1344000)))];
            tensor<fp32, [96]> const_67 = const()[name = tensor<string, []>("const_67"), val = tensor<fp32, [96]>(BLOBFILE(path = tensor<string, []>("@model_path/weights/weight.bin"), offset = tensor<uint64, []>(1362496)))];
            tensor<fp32, [1, 96, 120, 120]> x_67 = conv(bias = const_67, dilations = first_73_dilations_0, groups = first_73_groups_0, pad = first_73_pad_0, pad_type = first_73_pad_type_0, strides = first_73_strides_0, weight = x_65_weight_0, x = x_61)[name = tensor<string, []>("x_67")];
            tensor<fp32, []> var_668 = const()[name = tensor<string, []>("op_668"), val = tensor<fp32, []>(0x1p+0)];
            tensor<fp32, []> var_669 = const()[name = tensor<string, []>("op_669"), val = tensor<fp32, []>(0x0p+0)];
            tensor<fp32, []> var_671 = const()[name = tensor<string, []>("op_671"), val = tensor<fp32, []>(0x1.555556p-3)];
            tensor<fp32, [1, 96, 120, 120]> var_672 = mul(x = x_67, y = var_671)[name = tensor<string, []>("op_672")];
            tensor<fp32, []> var_673 = const()[name = tensor<string, []>("op_673"), val = tensor<fp32, []>(0x1p-1)];
            tensor<fp32, [1, 96, 120, 120]> var_674 = add(x = var_672, y = var_673)[name = tensor<string, []>("op_674")];
            tensor<fp32, [1, 96, 120, 120]> clip_5 = clip(alpha = var_669, beta = var_668, x = var_674)[name = tensor<string, []>("clip_5")];
            tensor<fp32, [1, 96, 120, 120]> second_69 = mul(x = clip_5, y = x_67)[name = tensor<string, []>("second_69")];
            tensor<fp32, [1, 96, 120, 120]> x_69 = mul(x = initializers_onnx_initializer_34, y = second_69)[name = tensor<string, []>("x_69")];
            tensor<fp32, [1, 96, 120, 120]> x_71 = add(x = x_69, y = initializers_onnx_initializer_35)[name = tensor<string, []>("x_71")];
            tensor<string, []> first_85_pad_type_0 = const()[name = tensor<string, []>("first_85_pad_type_0"), val = tensor<string, []>("custom")];
            tensor<int32, [4]> first_85_pad_0 = const()[name = tensor<string, []>("first_85_pad_0"), val = tensor<int32, [4]>([1, 1, 1, 1])];
            tensor<int32, []> first_85_groups_0 = const()[name = tensor<string, []>("first_85_groups_0"), val = tensor<int32, []>(96)];
            tensor<int32, [2]> first_85_strides_0 = const()[name = tensor<string, []>("first_85_strides_0"), val = tensor<int32, [2]>([1, 1])];
            tensor<int32, [2]> first_85_dilations_0 = const()[name = tensor<string, []>("first_85_dilations_0"), val = tensor<int32, [2]>([1, 1])];
            tensor<fp32, [96, 1, 3, 3]> x_75_weight_0 = const()[name = tensor<string, []>("x_75_weight_0"), val = tensor<fp32, [96, 1, 3, 3]>(BLOBFILE(path = tensor<string, []>("@model_path/weights/weight.bin"), offset = tensor<uint64, []>(1362944)))];
            tensor<fp32, [96]> const_68 = const()[name = tensor<string, []>("const_68"), val = tensor<fp32, [96]>(BLOBFILE(path = tensor<string, []>("@model_path/weights/weight.bin"), offset = tensor<uint64, []>(1366464)))];
            tensor<fp32, [1, 96, 120, 120]> x_77 = conv(bias = const_68, dilations = first_85_dilations_0, groups = first_85_groups_0, pad = first_85_pad_0, pad_type = first_85_pad_type_0, strides = first_85_strides_0, weight = x_75_weight_0, x = x_71)[name = tensor<string, []>("x_77")];
            tensor<fp32, []> var_707 = const()[name = tensor<string, []>("op_707"), val = tensor<fp32, []>(0x1p+0)];
            tensor<fp32, []> var_708 = const()[name = tensor<string, []>("op_708"), val = tensor<fp32, []>(0x0p+0)];
            tensor<fp32, []> var_710 = const()[name = tensor<string, []>("op_710"), val = tensor<fp32, []>(0x1.555556p-3)];
            tensor<fp32, [1, 96, 120, 120]> var_711 = mul(x = x_77, y = var_710)[name = tensor<string, []>("op_711")];
            tensor<fp32, []> var_712 = const()[name = tensor<string, []>("op_712"), val = tensor<fp32, []>(0x1p-1)];
            tensor<fp32, [1, 96, 120, 120]> var_713 = add(x = var_711, y = var_712)[name = tensor<string, []>("op_713")];
            tensor<fp32, [1, 96, 120, 120]> clip_6 = clip(alpha = var_708, beta = var_707, x = var_713)[name = tensor<string, []>("clip_6")];
            tensor<fp32, [1, 96, 120, 120]> second_79 = mul(x = clip_6, y = x_77)[name = tensor<string, []>("second_79")];
            tensor<fp32, [1, 96, 120, 120]> x_79 = mul(x = initializers_onnx_initializer_39, y = second_79)[name = tensor<string, []>("x_79")];
            tensor<fp32, [1, 96, 120, 120]> x_81 = add(x = x_79, y = initializers_onnx_initializer_40)[name = tensor<string, []>("x_81")];
            tensor<string, []> first_97_pad_type_0 = const()[name = tensor<string, []>("first_97_pad_type_0"), val = tensor<string, []>("valid")];
            tensor<int32, [2]> first_97_strides_0 = const()[name = tensor<string, []>("first_97_strides_0"), val = tensor<int32, [2]>([1, 1])];
            tensor<int32, [4]> first_97_pad_0 = const()[name = tensor<string, []>("first_97_pad_0"), val = tensor<int32, [4]>([0, 0, 0, 0])];
            tensor<int32, [2]> first_97_dilations_0 = const()[name = tensor<string, []>("first_97_dilations_0"), val = tensor<int32, [2]>([1, 1])];
            tensor<int32, []> first_97_groups_0 = const()[name = tensor<string, []>("first_97_groups_0"), val = tensor<int32, []>(1)];
            tensor<fp32, [96, 96, 1, 1]> x_85_weight_0 = const()[name = tensor<string, []>("x_85_weight_0"), val = tensor<fp32, [96, 96, 1, 1]>(BLOBFILE(path = tensor<string, []>("@model_path/weights/weight.bin"), offset = tensor<uint64, []>(1366912)))];
            tensor<fp32, [96]> const_69 = const()[name = tensor<string, []>("const_69"), val = tensor<fp32, [96]>(BLOBFILE(path = tensor<string, []>("@model_path/weights/weight.bin"), offset = tensor<uint64, []>(1403840)))];
            tensor<fp32, [1, 96, 120, 120]> x_87 = conv(bias = const_69, dilations = first_97_dilations_0, groups = first_97_groups_0, pad = first_97_pad_0, pad_type = first_97_pad_type_0, strides = first_97_strides_0, weight = x_85_weight_0, x = x_81)[name = tensor<string, []>("x_87")];
            tensor<fp32, []> var_745 = const()[name = tensor<string, []>("op_745"), val = tensor<fp32, []>(0x1p+0)];
            tensor<fp32, []> var_746 = const()[name = tensor<string, []>("op_746"), val = tensor<fp32, []>(0x0p+0)];
            tensor<fp32, []> var_748 = const()[name = tensor<string, []>("op_748"), val = tensor<fp32, []>(0x1.555556p-3)];
            tensor<fp32, [1, 96, 120, 120]> var_749 = mul(x = x_87, y = var_748)[name = tensor<string, []>("op_749")];
            tensor<fp32, []> var_750 = const()[name = tensor<string, []>("op_750"), val = tensor<fp32, []>(0x1p-1)];
            tensor<fp32, [1, 96, 120, 120]> var_751 = add(x = var_749, y = var_750)[name = tensor<string, []>("op_751")];
            tensor<fp32, [1, 96, 120, 120]> clip_7 = clip(alpha = var_746, beta = var_745, x = var_751)[name = tensor<string, []>("clip_7")];
            tensor<fp32, [1, 96, 120, 120]> second_89 = mul(x = clip_7, y = x_87)[name = tensor<string, []>("second_89")];
            tensor<fp32, [1, 96, 120, 120]> x_89 = mul(x = initializers_onnx_initializer_44, y = second_89)[name = tensor<string, []>("x_89")];
            tensor<fp32, [1, 96, 120, 120]> x_91 = add(x = x_89, y = initializers_onnx_initializer_45)[name = tensor<string, []>("x_91")];
            tensor<string, []> first_109_pad_type_0 = const()[name = tensor<string, []>("first_109_pad_type_0"), val = tensor<string, []>("custom")];
            tensor<int32, [4]> first_109_pad_0 = const()[name = tensor<string, []>("first_109_pad_0"), val = tensor<int32, [4]>([1, 1, 1, 1])];
            tensor<int32, [2]> first_109_strides_0 = const()[name = tensor<string, []>("first_109_strides_0"), val = tensor<int32, [2]>([2, 2])];
            tensor<int32, []> first_109_groups_0 = const()[name = tensor<string, []>("first_109_groups_0"), val = tensor<int32, []>(96)];
            tensor<int32, [2]> first_109_dilations_0 = const()[name = tensor<string, []>("first_109_dilations_0"), val = tensor<int32, [2]>([1, 1])];
            tensor<fp32, [96, 1, 3, 3]> x_95_weight_0 = const()[name = tensor<string, []>("x_95_weight_0"), val = tensor<fp32, [96, 1, 3, 3]>(BLOBFILE(path = tensor<string, []>("@model_path/weights/weight.bin"), offset = tensor<uint64, []>(1404288)))];
            tensor<fp32, [96]> const_70 = const()[name = tensor<string, []>("const_70"), val = tensor<fp32, [96]>(BLOBFILE(path = tensor<string, []>("@model_path/weights/weight.bin"), offset = tensor<uint64, []>(1407808)))];
            tensor<fp32, [1, 96, 60, 60]> x_97 = conv(bias = const_70, dilations = first_109_dilations_0, groups = first_109_groups_0, pad = first_109_pad_0, pad_type = first_109_pad_type_0, strides = first_109_strides_0, weight = x_95_weight_0, x = x_91)[name = tensor<string, []>("x_97")];
            tensor<string, []> first_115_pad_type_0 = const()[name = tensor<string, []>("first_115_pad_type_0"), val = tensor<string, []>("valid")];
            tensor<int32, [2]> first_115_strides_0 = const()[name = tensor<string, []>("first_115_strides_0"), val = tensor<int32, [2]>([1, 1])];
            tensor<int32, [4]> first_115_pad_0 = const()[name = tensor<string, []>("first_115_pad_0"), val = tensor<int32, [4]>([0, 0, 0, 0])];
            tensor<int32, [2]> first_115_dilations_0 = const()[name = tensor<string, []>("first_115_dilations_0"), val = tensor<int32, [2]>([1, 1])];
            tensor<int32, []> first_115_groups_0 = const()[name = tensor<string, []>("first_115_groups_0"), val = tensor<int32, []>(1)];
            tensor<fp32, [192, 96, 1, 1]> x_101_weight_0 = const()[name = tensor<string, []>("x_101_weight_0"), val = tensor<fp32, [192, 96, 1, 1]>(BLOBFILE(path = tensor<string, []>("@model_path/weights/weight.bin"), offset = tensor<uint64, []>(1408256)))];
            tensor<fp32, [192]> const_71 = const()[name = tensor<string, []>("const_71"), val = tensor<fp32, [192]>(BLOBFILE(path = tensor<string, []>("@model_path/weights/weight.bin"), offset = tensor<uint64, []>(1482048)))];
            tensor<fp32, [1, 192, 60, 60]> x_103 = conv(bias = const_71, dilations = first_115_dilations_0, groups = first_115_groups_0, pad = first_115_pad_0, pad_type = first_115_pad_type_0, strides = first_115_strides_0, weight = x_101_weight_0, x = x_97)[name = tensor<string, []>("x_103")];
            tensor<fp32, []> var_807 = const()[name = tensor<string, []>("op_807"), val = tensor<fp32, []>(0x1p+0)];
            tensor<fp32, []> var_808 = const()[name = tensor<string, []>("op_808"), val = tensor<fp32, []>(0x0p+0)];
            tensor<fp32, []> var_810 = const()[name = tensor<string, []>("op_810"), val = tensor<fp32, []>(0x1.555556p-3)];
            tensor<fp32, [1, 192, 60, 60]> var_811 = mul(x = x_103, y = var_810)[name = tensor<string, []>("op_811")];
            tensor<fp32, []> var_812 = const()[name = tensor<string, []>("op_812"), val = tensor<fp32, []>(0x1p-1)];
            tensor<fp32, [1, 192, 60, 60]> var_813 = add(x = var_811, y = var_812)[name = tensor<string, []>("op_813")];
            tensor<fp32, [1, 192, 60, 60]> clip_8 = clip(alpha = var_808, beta = var_807, x = var_813)[name = tensor<string, []>("clip_8")];
            tensor<fp32, [1, 192, 60, 60]> second_105 = mul(x = clip_8, y = x_103)[name = tensor<string, []>("second_105")];
            tensor<fp32, [1, 192, 60, 60]> x_105 = mul(x = initializers_onnx_initializer_52, y = second_105)[name = tensor<string, []>("x_105")];
            tensor<fp32, [1, 192, 60, 60]> x_107 = add(x = x_105, y = initializers_onnx_initializer_53)[name = tensor<string, []>("x_107")];
            tensor<string, []> first_127_pad_type_0 = const()[name = tensor<string, []>("first_127_pad_type_0"), val = tensor<string, []>("custom")];
            tensor<int32, [4]> first_127_pad_0 = const()[name = tensor<string, []>("first_127_pad_0"), val = tensor<int32, [4]>([2, 2, 2, 2])];
            tensor<int32, []> first_127_groups_0 = const()[name = tensor<string, []>("first_127_groups_0"), val = tensor<int32, []>(192)];
            tensor<int32, [2]> first_127_strides_0 = const()[name = tensor<string, []>("first_127_strides_0"), val = tensor<int32, [2]>([1, 1])];
            tensor<int32, [2]> first_127_dilations_0 = const()[name = tensor<string, []>("first_127_dilations_0"), val = tensor<int32, [2]>([1, 1])];
            tensor<fp32, [192, 1, 5, 5]> x_111_weight_0 = const()[name = tensor<string, []>("x_111_weight_0"), val = tensor<fp32, [192, 1, 5, 5]>(BLOBFILE(path = tensor<string, []>("@model_path/weights/weight.bin"), offset = tensor<uint64, []>(1482880)))];
            tensor<fp32, [192]> const_72 = const()[name = tensor<string, []>("const_72"), val = tensor<fp32, [192]>(BLOBFILE(path = tensor<string, []>("@model_path/weights/weight.bin"), offset = tensor<uint64, []>(1502144)))];
            tensor<fp32, [1, 192, 60, 60]> x_113 = conv(bias = const_72, dilations = first_127_dilations_0, groups = first_127_groups_0, pad = first_127_pad_0, pad_type = first_127_pad_type_0, strides = first_127_strides_0, weight = x_111_weight_0, x = x_107)[name = tensor<string, []>("x_113")];
            tensor<fp32, []> var_847 = const()[name = tensor<string, []>("op_847"), val = tensor<fp32, []>(0x1p+0)];
            tensor<fp32, []> var_848 = const()[name = tensor<string, []>("op_848"), val = tensor<fp32, []>(0x0p+0)];
            tensor<fp32, []> var_850 = const()[name = tensor<string, []>("op_850"), val = tensor<fp32, []>(0x1.555556p-3)];
            tensor<fp32, [1, 192, 60, 60]> var_851 = mul(x = x_113, y = var_850)[name = tensor<string, []>("op_851")];
            tensor<fp32, []> var_852 = const()[name = tensor<string, []>("op_852"), val = tensor<fp32, []>(0x1p-1)];
            tensor<fp32, [1, 192, 60, 60]> var_853 = add(x = var_851, y = var_852)[name = tensor<string, []>("op_853")];
            tensor<fp32, [1, 192, 60, 60]> clip_9 = clip(alpha = var_848, beta = var_847, x = var_853)[name = tensor<string, []>("clip_9")];
            tensor<fp32, [1, 192, 60, 60]> second_115 = mul(x = clip_9, y = x_113)[name = tensor<string, []>("second_115")];
            tensor<fp32, [1, 192, 60, 60]> x_115 = mul(x = initializers_onnx_initializer_57, y = second_115)[name = tensor<string, []>("x_115")];
            tensor<fp32, [1, 192, 60, 60]> x_117 = add(x = x_115, y = initializers_onnx_initializer_58)[name = tensor<string, []>("x_117")];
            tensor<string, []> first_139_pad_type_0 = const()[name = tensor<string, []>("first_139_pad_type_0"), val = tensor<string, []>("valid")];
            tensor<int32, [2]> first_139_strides_0 = const()[name = tensor<string, []>("first_139_strides_0"), val = tensor<int32, [2]>([1, 1])];
            tensor<int32, [4]> first_139_pad_0 = const()[name = tensor<string, []>("first_139_pad_0"), val = tensor<int32, [4]>([0, 0, 0, 0])];
            tensor<int32, [2]> first_139_dilations_0 = const()[name = tensor<string, []>("first_139_dilations_0"), val = tensor<int32, [2]>([1, 1])];
            tensor<int32, []> first_139_groups_0 = const()[name = tensor<string, []>("first_139_groups_0"), val = tensor<int32, []>(1)];
            tensor<fp32, [192, 192, 1, 1]> x_121_weight_0 = const()[name = tensor<string, []>("x_121_weight_0"), val = tensor<fp32, [192, 192, 1, 1]>(BLOBFILE(path = tensor<string, []>("@model_path/weights/weight.bin"), offset = tensor<uint64, []>(1502976)))];
            tensor<fp32, [192]> const_73 = const()[name = tensor<string, []>("const_73"), val = tensor<fp32, [192]>(BLOBFILE(path = tensor<string, []>("@model_path/weights/weight.bin"), offset = tensor<uint64, []>(1650496)))];
            tensor<fp32, [1, 192, 60, 60]> x_123 = conv(bias = const_73, dilations = first_139_dilations_0, groups = first_139_groups_0, pad = first_139_pad_0, pad_type = first_139_pad_type_0, strides = first_139_strides_0, weight = x_121_weight_0, x = x_117)[name = tensor<string, []>("x_123")];
            tensor<fp32, []> var_885 = const()[name = tensor<string, []>("op_885"), val = tensor<fp32, []>(0x1p+0)];
            tensor<fp32, []> var_886 = const()[name = tensor<string, []>("op_886"), val = tensor<fp32, []>(0x0p+0)];
            tensor<fp32, []> var_888 = const()[name = tensor<string, []>("op_888"), val = tensor<fp32, []>(0x1.555556p-3)];
            tensor<fp32, [1, 192, 60, 60]> var_889 = mul(x = x_123, y = var_888)[name = tensor<string, []>("op_889")];
            tensor<fp32, []> var_890 = const()[name = tensor<string, []>("op_890"), val = tensor<fp32, []>(0x1p-1)];
            tensor<fp32, [1, 192, 60, 60]> var_891 = add(x = var_889, y = var_890)[name = tensor<string, []>("op_891")];
            tensor<fp32, [1, 192, 60, 60]> clip_10 = clip(alpha = var_886, beta = var_885, x = var_891)[name = tensor<string, []>("clip_10")];
            tensor<fp32, [1, 192, 60, 60]> second_125 = mul(x = clip_10, y = x_123)[name = tensor<string, []>("second_125")];
            tensor<fp32, [1, 192, 60, 60]> x_125 = mul(x = initializers_onnx_initializer_62, y = second_125)[name = tensor<string, []>("x_125")];
            tensor<fp32, [1, 192, 60, 60]> x_127 = add(x = x_125, y = initializers_onnx_initializer_63)[name = tensor<string, []>("x_127")];
            tensor<string, []> first_151_pad_type_0 = const()[name = tensor<string, []>("first_151_pad_type_0"), val = tensor<string, []>("custom")];
            tensor<int32, [4]> first_151_pad_0 = const()[name = tensor<string, []>("first_151_pad_0"), val = tensor<int32, [4]>([2, 2, 2, 2])];
            tensor<int32, []> first_151_groups_0 = const()[name = tensor<string, []>("first_151_groups_0"), val = tensor<int32, []>(192)];
            tensor<int32, [2]> first_151_strides_0 = const()[name = tensor<string, []>("first_151_strides_0"), val = tensor<int32, [2]>([1, 1])];
            tensor<int32, [2]> first_151_dilations_0 = const()[name = tensor<string, []>("first_151_dilations_0"), val = tensor<int32, [2]>([1, 1])];
            tensor<fp32, [192, 1, 5, 5]> x_131_weight_0 = const()[name = tensor<string, []>("x_131_weight_0"), val = tensor<fp32, [192, 1, 5, 5]>(BLOBFILE(path = tensor<string, []>("@model_path/weights/weight.bin"), offset = tensor<uint64, []>(1651328)))];
            tensor<fp32, [192]> const_74 = const()[name = tensor<string, []>("const_74"), val = tensor<fp32, [192]>(BLOBFILE(path = tensor<string, []>("@model_path/weights/weight.bin"), offset = tensor<uint64, []>(1670592)))];
            tensor<fp32, [1, 192, 60, 60]> x_133 = conv(bias = const_74, dilations = first_151_dilations_0, groups = first_151_groups_0, pad = first_151_pad_0, pad_type = first_151_pad_type_0, strides = first_151_strides_0, weight = x_131_weight_0, x = x_127)[name = tensor<string, []>("x_133")];
            tensor<fp32, []> var_925 = const()[name = tensor<string, []>("op_925"), val = tensor<fp32, []>(0x1p+0)];
            tensor<fp32, []> var_926 = const()[name = tensor<string, []>("op_926"), val = tensor<fp32, []>(0x0p+0)];
            tensor<fp32, []> var_928 = const()[name = tensor<string, []>("op_928"), val = tensor<fp32, []>(0x1.555556p-3)];
            tensor<fp32, [1, 192, 60, 60]> var_929 = mul(x = x_133, y = var_928)[name = tensor<string, []>("op_929")];
            tensor<fp32, []> var_930 = const()[name = tensor<string, []>("op_930"), val = tensor<fp32, []>(0x1p-1)];
            tensor<fp32, [1, 192, 60, 60]> var_931 = add(x = var_929, y = var_930)[name = tensor<string, []>("op_931")];
            tensor<fp32, [1, 192, 60, 60]> clip_11 = clip(alpha = var_926, beta = var_925, x = var_931)[name = tensor<string, []>("clip_11")];
            tensor<fp32, [1, 192, 60, 60]> second_135 = mul(x = clip_11, y = x_133)[name = tensor<string, []>("second_135")];
            tensor<fp32, [1, 192, 60, 60]> x_135 = mul(x = initializers_onnx_initializer_67, y = second_135)[name = tensor<string, []>("x_135")];
            tensor<fp32, [1, 192, 60, 60]> x_137 = add(x = x_135, y = initializers_onnx_initializer_68)[name = tensor<string, []>("x_137")];
            tensor<string, []> first_163_pad_type_0 = const()[name = tensor<string, []>("first_163_pad_type_0"), val = tensor<string, []>("valid")];
            tensor<int32, [2]> first_163_strides_0 = const()[name = tensor<string, []>("first_163_strides_0"), val = tensor<int32, [2]>([1, 1])];
            tensor<int32, [4]> first_163_pad_0 = const()[name = tensor<string, []>("first_163_pad_0"), val = tensor<int32, [4]>([0, 0, 0, 0])];
            tensor<int32, [2]> first_163_dilations_0 = const()[name = tensor<string, []>("first_163_dilations_0"), val = tensor<int32, [2]>([1, 1])];
            tensor<int32, []> first_163_groups_0 = const()[name = tensor<string, []>("first_163_groups_0"), val = tensor<int32, []>(1)];
            tensor<fp32, [192, 192, 1, 1]> x_141_weight_0 = const()[name = tensor<string, []>("x_141_weight_0"), val = tensor<fp32, [192, 192, 1, 1]>(BLOBFILE(path = tensor<string, []>("@model_path/weights/weight.bin"), offset = tensor<uint64, []>(1671424)))];
            tensor<fp32, [192]> const_75 = const()[name = tensor<string, []>("const_75"), val = tensor<fp32, [192]>(BLOBFILE(path = tensor<string, []>("@model_path/weights/weight.bin"), offset = tensor<uint64, []>(1818944)))];
            tensor<fp32, [1, 192, 60, 60]> x_143 = conv(bias = const_75, dilations = first_163_dilations_0, groups = first_163_groups_0, pad = first_163_pad_0, pad_type = first_163_pad_type_0, strides = first_163_strides_0, weight = x_141_weight_0, x = x_137)[name = tensor<string, []>("x_143")];
            tensor<fp32, []> var_963 = const()[name = tensor<string, []>("op_963"), val = tensor<fp32, []>(0x1p+0)];
            tensor<fp32, []> var_964 = const()[name = tensor<string, []>("op_964"), val = tensor<fp32, []>(0x0p+0)];
            tensor<fp32, []> var_966 = const()[name = tensor<string, []>("op_966"), val = tensor<fp32, []>(0x1.555556p-3)];
            tensor<fp32, [1, 192, 60, 60]> var_967 = mul(x = x_143, y = var_966)[name = tensor<string, []>("op_967")];
            tensor<fp32, []> var_968 = const()[name = tensor<string, []>("op_968"), val = tensor<fp32, []>(0x1p-1)];
            tensor<fp32, [1, 192, 60, 60]> var_969 = add(x = var_967, y = var_968)[name = tensor<string, []>("op_969")];
            tensor<fp32, [1, 192, 60, 60]> clip_12 = clip(alpha = var_964, beta = var_963, x = var_969)[name = tensor<string, []>("clip_12")];
            tensor<fp32, [1, 192, 60, 60]> second_145 = mul(x = clip_12, y = x_143)[name = tensor<string, []>("second_145")];
            tensor<fp32, [1, 192, 60, 60]> x_145 = mul(x = initializers_onnx_initializer_72, y = second_145)[name = tensor<string, []>("x_145")];
            tensor<fp32, [1, 192, 60, 60]> x_147 = add(x = x_145, y = initializers_onnx_initializer_73)[name = tensor<string, []>("x_147")];
            tensor<string, []> first_175_pad_type_0 = const()[name = tensor<string, []>("first_175_pad_type_0"), val = tensor<string, []>("custom")];
            tensor<int32, [4]> first_175_pad_0 = const()[name = tensor<string, []>("first_175_pad_0"), val = tensor<int32, [4]>([2, 2, 2, 2])];
            tensor<int32, []> first_175_groups_0 = const()[name = tensor<string, []>("first_175_groups_0"), val = tensor<int32, []>(192)];
            tensor<int32, [2]> first_175_strides_0 = const()[name = tensor<string, []>("first_175_strides_0"), val = tensor<int32, [2]>([1, 1])];
            tensor<int32, [2]> first_175_dilations_0 = const()[name = tensor<string, []>("first_175_dilations_0"), val = tensor<int32, [2]>([1, 1])];
            tensor<fp32, [192, 1, 5, 5]> x_151_weight_0 = const()[name = tensor<string, []>("x_151_weight_0"), val = tensor<fp32, [192, 1, 5, 5]>(BLOBFILE(path = tensor<string, []>("@model_path/weights/weight.bin"), offset = tensor<uint64, []>(1819776)))];
            tensor<fp32, [192]> const_76 = const()[name = tensor<string, []>("const_76"), val = tensor<fp32, [192]>(BLOBFILE(path = tensor<string, []>("@model_path/weights/weight.bin"), offset = tensor<uint64, []>(1839040)))];
            tensor<fp32, [1, 192, 60, 60]> x_153 = conv(bias = const_76, dilations = first_175_dilations_0, groups = first_175_groups_0, pad = first_175_pad_0, pad_type = first_175_pad_type_0, strides = first_175_strides_0, weight = x_151_weight_0, x = x_147)[name = tensor<string, []>("x_153")];
            tensor<fp32, []> var_1003 = const()[name = tensor<string, []>("op_1003"), val = tensor<fp32, []>(0x1p+0)];
            tensor<fp32, []> var_1004 = const()[name = tensor<string, []>("op_1004"), val = tensor<fp32, []>(0x0p+0)];
            tensor<fp32, []> var_1006 = const()[name = tensor<string, []>("op_1006"), val = tensor<fp32, []>(0x1.555556p-3)];
            tensor<fp32, [1, 192, 60, 60]> var_1007 = mul(x = x_153, y = var_1006)[name = tensor<string, []>("op_1007")];
            tensor<fp32, []> var_1008 = const()[name = tensor<string, []>("op_1008"), val = tensor<fp32, []>(0x1p-1)];
            tensor<fp32, [1, 192, 60, 60]> var_1009 = add(x = var_1007, y = var_1008)[name = tensor<string, []>("op_1009")];
            tensor<fp32, [1, 192, 60, 60]> clip_13 = clip(alpha = var_1004, beta = var_1003, x = var_1009)[name = tensor<string, []>("clip_13")];
            tensor<fp32, [1, 192, 60, 60]> second_155 = mul(x = clip_13, y = x_153)[name = tensor<string, []>("second_155")];
            tensor<fp32, [1, 192, 60, 60]> x_155 = mul(x = initializers_onnx_initializer_77, y = second_155)[name = tensor<string, []>("x_155")];
            tensor<fp32, [1, 192, 60, 60]> x_157 = add(x = x_155, y = initializers_onnx_initializer_78)[name = tensor<string, []>("x_157")];
            tensor<string, []> first_187_pad_type_0 = const()[name = tensor<string, []>("first_187_pad_type_0"), val = tensor<string, []>("valid")];
            tensor<int32, [2]> first_187_strides_0 = const()[name = tensor<string, []>("first_187_strides_0"), val = tensor<int32, [2]>([1, 1])];
            tensor<int32, [4]> first_187_pad_0 = const()[name = tensor<string, []>("first_187_pad_0"), val = tensor<int32, [4]>([0, 0, 0, 0])];
            tensor<int32, [2]> first_187_dilations_0 = const()[name = tensor<string, []>("first_187_dilations_0"), val = tensor<int32, [2]>([1, 1])];
            tensor<int32, []> first_187_groups_0 = const()[name = tensor<string, []>("first_187_groups_0"), val = tensor<int32, []>(1)];
            tensor<fp32, [192, 192, 1, 1]> x_161_weight_0 = const()[name = tensor<string, []>("x_161_weight_0"), val = tensor<fp32, [192, 192, 1, 1]>(BLOBFILE(path = tensor<string, []>("@model_path/weights/weight.bin"), offset = tensor<uint64, []>(1839872)))];
            tensor<fp32, [192]> const_77 = const()[name = tensor<string, []>("const_77"), val = tensor<fp32, [192]>(BLOBFILE(path = tensor<string, []>("@model_path/weights/weight.bin"), offset = tensor<uint64, []>(1987392)))];
            tensor<fp32, [1, 192, 60, 60]> x_163 = conv(bias = const_77, dilations = first_187_dilations_0, groups = first_187_groups_0, pad = first_187_pad_0, pad_type = first_187_pad_type_0, strides = first_187_strides_0, weight = x_161_weight_0, x = x_157)[name = tensor<string, []>("x_163")];
            tensor<fp32, []> var_1041 = const()[name = tensor<string, []>("op_1041"), val = tensor<fp32, []>(0x1p+0)];
            tensor<fp32, []> var_1042 = const()[name = tensor<string, []>("op_1042"), val = tensor<fp32, []>(0x0p+0)];
            tensor<fp32, []> var_1044 = const()[name = tensor<string, []>("op_1044"), val = tensor<fp32, []>(0x1.555556p-3)];
            tensor<fp32, [1, 192, 60, 60]> var_1045 = mul(x = x_163, y = var_1044)[name = tensor<string, []>("op_1045")];
            tensor<fp32, []> var_1046 = const()[name = tensor<string, []>("op_1046"), val = tensor<fp32, []>(0x1p-1)];
            tensor<fp32, [1, 192, 60, 60]> var_1047 = add(x = var_1045, y = var_1046)[name = tensor<string, []>("op_1047")];
            tensor<fp32, [1, 192, 60, 60]> clip_14 = clip(alpha = var_1042, beta = var_1041, x = var_1047)[name = tensor<string, []>("clip_14")];
            tensor<fp32, [1, 192, 60, 60]> second_165 = mul(x = clip_14, y = x_163)[name = tensor<string, []>("second_165")];
            tensor<fp32, [1, 192, 60, 60]> x_165 = mul(x = initializers_onnx_initializer_82, y = second_165)[name = tensor<string, []>("x_165")];
            tensor<fp32, [1, 192, 60, 60]> x_167 = add(x = x_165, y = initializers_onnx_initializer_83)[name = tensor<string, []>("x_167")];
            tensor<string, []> first_199_pad_type_0 = const()[name = tensor<string, []>("first_199_pad_type_0"), val = tensor<string, []>("custom")];
            tensor<int32, [4]> first_199_pad_0 = const()[name = tensor<string, []>("first_199_pad_0"), val = tensor<int32, [4]>([2, 2, 2, 2])];
            tensor<int32, []> first_199_groups_0 = const()[name = tensor<string, []>("first_199_groups_0"), val = tensor<int32, []>(192)];
            tensor<int32, [2]> first_199_strides_0 = const()[name = tensor<string, []>("first_199_strides_0"), val = tensor<int32, [2]>([1, 1])];
            tensor<int32, [2]> first_199_dilations_0 = const()[name = tensor<string, []>("first_199_dilations_0"), val = tensor<int32, [2]>([1, 1])];
            tensor<fp32, [192, 1, 5, 5]> x_171_weight_0 = const()[name = tensor<string, []>("x_171_weight_0"), val = tensor<fp32, [192, 1, 5, 5]>(BLOBFILE(path = tensor<string, []>("@model_path/weights/weight.bin"), offset = tensor<uint64, []>(1988224)))];
            tensor<fp32, [192]> const_78 = const()[name = tensor<string, []>("const_78"), val = tensor<fp32, [192]>(BLOBFILE(path = tensor<string, []>("@model_path/weights/weight.bin"), offset = tensor<uint64, []>(2007488)))];
            tensor<fp32, [1, 192, 60, 60]> x_173 = conv(bias = const_78, dilations = first_199_dilations_0, groups = first_199_groups_0, pad = first_199_pad_0, pad_type = first_199_pad_type_0, strides = first_199_strides_0, weight = x_171_weight_0, x = x_167)[name = tensor<string, []>("x_173")];
            tensor<fp32, []> var_1081 = const()[name = tensor<string, []>("op_1081"), val = tensor<fp32, []>(0x1p+0)];
            tensor<fp32, []> var_1082 = const()[name = tensor<string, []>("op_1082"), val = tensor<fp32, []>(0x0p+0)];
            tensor<fp32, []> var_1084 = const()[name = tensor<string, []>("op_1084"), val = tensor<fp32, []>(0x1.555556p-3)];
            tensor<fp32, [1, 192, 60, 60]> var_1085 = mul(x = x_173, y = var_1084)[name = tensor<string, []>("op_1085")];
            tensor<fp32, []> var_1086 = const()[name = tensor<string, []>("op_1086"), val = tensor<fp32, []>(0x1p-1)];
            tensor<fp32, [1, 192, 60, 60]> var_1087 = add(x = var_1085, y = var_1086)[name = tensor<string, []>("op_1087")];
            tensor<fp32, [1, 192, 60, 60]> clip_15 = clip(alpha = var_1082, beta = var_1081, x = var_1087)[name = tensor<string, []>("clip_15")];
            tensor<fp32, [1, 192, 60, 60]> second_175 = mul(x = clip_15, y = x_173)[name = tensor<string, []>("second_175")];
            tensor<fp32, [1, 192, 60, 60]> x_175 = mul(x = initializers_onnx_initializer_87, y = second_175)[name = tensor<string, []>("x_175")];
            tensor<fp32, [1, 192, 60, 60]> x_177 = add(x = x_175, y = initializers_onnx_initializer_88)[name = tensor<string, []>("x_177")];
            tensor<string, []> first_211_pad_type_0 = const()[name = tensor<string, []>("first_211_pad_type_0"), val = tensor<string, []>("valid")];
            tensor<int32, [2]> first_211_strides_0 = const()[name = tensor<string, []>("first_211_strides_0"), val = tensor<int32, [2]>([1, 1])];
            tensor<int32, [4]> first_211_pad_0 = const()[name = tensor<string, []>("first_211_pad_0"), val = tensor<int32, [4]>([0, 0, 0, 0])];
            tensor<int32, [2]> first_211_dilations_0 = const()[name = tensor<string, []>("first_211_dilations_0"), val = tensor<int32, [2]>([1, 1])];
            tensor<int32, []> first_211_groups_0 = const()[name = tensor<string, []>("first_211_groups_0"), val = tensor<int32, []>(1)];
            tensor<fp32, [192, 192, 1, 1]> x_181_weight_0 = const()[name = tensor<string, []>("x_181_weight_0"), val = tensor<fp32, [192, 192, 1, 1]>(BLOBFILE(path = tensor<string, []>("@model_path/weights/weight.bin"), offset = tensor<uint64, []>(2008320)))];
            tensor<fp32, [192]> const_79 = const()[name = tensor<string, []>("const_79"), val = tensor<fp32, [192]>(BLOBFILE(path = tensor<string, []>("@model_path/weights/weight.bin"), offset = tensor<uint64, []>(2155840)))];
            tensor<fp32, [1, 192, 60, 60]> x_183 = conv(bias = const_79, dilations = first_211_dilations_0, groups = first_211_groups_0, pad = first_211_pad_0, pad_type = first_211_pad_type_0, strides = first_211_strides_0, weight = x_181_weight_0, x = x_177)[name = tensor<string, []>("x_183")];
            tensor<fp32, []> var_1119 = const()[name = tensor<string, []>("op_1119"), val = tensor<fp32, []>(0x1p+0)];
            tensor<fp32, []> var_1120 = const()[name = tensor<string, []>("op_1120"), val = tensor<fp32, []>(0x0p+0)];
            tensor<fp32, []> var_1122 = const()[name = tensor<string, []>("op_1122"), val = tensor<fp32, []>(0x1.555556p-3)];
            tensor<fp32, [1, 192, 60, 60]> var_1123 = mul(x = x_183, y = var_1122)[name = tensor<string, []>("op_1123")];
            tensor<fp32, []> var_1124 = const()[name = tensor<string, []>("op_1124"), val = tensor<fp32, []>(0x1p-1)];
            tensor<fp32, [1, 192, 60, 60]> var_1125 = add(x = var_1123, y = var_1124)[name = tensor<string, []>("op_1125")];
            tensor<fp32, [1, 192, 60, 60]> clip_16 = clip(alpha = var_1120, beta = var_1119, x = var_1125)[name = tensor<string, []>("clip_16")];
            tensor<fp32, [1, 192, 60, 60]> second_185 = mul(x = clip_16, y = x_183)[name = tensor<string, []>("second_185")];
            tensor<fp32, [1, 192, 60, 60]> x_185 = mul(x = initializers_onnx_initializer_92, y = second_185)[name = tensor<string, []>("x_185")];
            tensor<fp32, [1, 192, 60, 60]> x_187 = add(x = x_185, y = initializers_onnx_initializer_93)[name = tensor<string, []>("x_187")];
            tensor<string, []> first_223_pad_type_0 = const()[name = tensor<string, []>("first_223_pad_type_0"), val = tensor<string, []>("custom")];
            tensor<int32, [4]> first_223_pad_0 = const()[name = tensor<string, []>("first_223_pad_0"), val = tensor<int32, [4]>([2, 2, 2, 2])];
            tensor<int32, [2]> first_223_strides_0 = const()[name = tensor<string, []>("first_223_strides_0"), val = tensor<int32, [2]>([2, 2])];
            tensor<int32, []> first_223_groups_0 = const()[name = tensor<string, []>("first_223_groups_0"), val = tensor<int32, []>(192)];
            tensor<int32, [2]> first_223_dilations_0 = const()[name = tensor<string, []>("first_223_dilations_0"), val = tensor<int32, [2]>([1, 1])];
            tensor<fp32, [192, 1, 5, 5]> x_191_weight_0 = const()[name = tensor<string, []>("x_191_weight_0"), val = tensor<fp32, [192, 1, 5, 5]>(BLOBFILE(path = tensor<string, []>("@model_path/weights/weight.bin"), offset = tensor<uint64, []>(2156672)))];
            tensor<fp32, [192]> const_80 = const()[name = tensor<string, []>("const_80"), val = tensor<fp32, [192]>(BLOBFILE(path = tensor<string, []>("@model_path/weights/weight.bin"), offset = tensor<uint64, []>(2175936)))];
            tensor<fp32, [1, 192, 30, 30]> x_193 = conv(bias = const_80, dilations = first_223_dilations_0, groups = first_223_groups_0, pad = first_223_pad_0, pad_type = first_223_pad_type_0, strides = first_223_strides_0, weight = x_191_weight_0, x = x_187)[name = tensor<string, []>("x_193")];
            tensor<int32, [2]> input_45_axes_0 = const()[name = tensor<string, []>("input_45_axes_0"), val = tensor<int32, [2]>([2, 3])];
            tensor<bool, []> input_45_keep_dims_0 = const()[name = tensor<string, []>("input_45_keep_dims_0"), val = tensor<bool, []>(true)];
            tensor<fp32, [1, 192, 1, 1]> input_45 = reduce_mean(axes = input_45_axes_0, keep_dims = input_45_keep_dims_0, x = x_193)[name = tensor<string, []>("input_45")];
            tensor<string, []> first_229_pad_type_0 = const()[name = tensor<string, []>("first_229_pad_type_0"), val = tensor<string, []>("valid")];
            tensor<int32, [2]> first_229_strides_0 = const()[name = tensor<string, []>("first_229_strides_0"), val = tensor<int32, [2]>([1, 1])];
            tensor<int32, [4]> first_229_pad_0 = const()[name = tensor<string, []>("first_229_pad_0"), val = tensor<int32, [4]>([0, 0, 0, 0])];
            tensor<int32, [2]> first_229_dilations_0 = const()[name = tensor<string, []>("first_229_dilations_0"), val = tensor<int32, [2]>([1, 1])];
            tensor<int32, []> first_229_groups_0 = const()[name = tensor<string, []>("first_229_groups_0"), val = tensor<int32, []>(1)];
            tensor<fp32, [48]> const_21 = const()[name = tensor<string, []>("const_21"), val = tensor<fp32, [48]>(BLOBFILE(path = tensor<string, []>("@model_path/weights/weight.bin"), offset = tensor<uint64, []>(2176768)))];
            tensor<fp32, [1, 48, 1, 1]> x_195 = conv(bias = const_21, dilations = first_229_dilations_0, groups = first_229_groups_0, pad = first_229_pad_0, pad_type = first_229_pad_type_0, strides = first_229_strides_0, weight = Conv_22_weight, x = input_45)[name = tensor<string, []>("x_195")];
            tensor<fp32, [1, 48, 1, 1]> input_49 = relu(x = x_195)[name = tensor<string, []>("input_49")];
            tensor<string, []> first_231_pad_type_0 = const()[name = tensor<string, []>("first_231_pad_type_0"), val = tensor<string, []>("valid")];
            tensor<int32, [2]> first_231_strides_0 = const()[name = tensor<string, []>("first_231_strides_0"), val = tensor<int32, [2]>([1, 1])];
            tensor<int32, [4]> first_231_pad_0 = const()[name = tensor<string, []>("first_231_pad_0"), val = tensor<int32, [4]>([0, 0, 0, 0])];
            tensor<int32, [2]> first_231_dilations_0 = const()[name = tensor<string, []>("first_231_dilations_0"), val = tensor<int32, [2]>([1, 1])];
            tensor<int32, []> first_231_groups_0 = const()[name = tensor<string, []>("first_231_groups_0"), val = tensor<int32, []>(1)];
            tensor<fp32, [192, 48, 1, 1]> var_1200_weight_0 = const()[name = tensor<string, []>("op_1200_weight_0"), val = tensor<fp32, [192, 48, 1, 1]>(BLOBFILE(path = tensor<string, []>("@model_path/weights/weight.bin"), offset = tensor<uint64, []>(2177024)))];
            tensor<fp32, [192]> const_81 = const()[name = tensor<string, []>("const_81"), val = tensor<fp32, [192]>(BLOBFILE(path = tensor<string, []>("@model_path/weights/weight.bin"), offset = tensor<uint64, []>(2213952)))];
            tensor<fp32, [1, 192, 1, 1]> var_1202 = conv(bias = const_81, dilations = first_231_dilations_0, groups = first_231_groups_0, pad = first_231_pad_0, pad_type = first_231_pad_type_0, strides = first_231_strides_0, weight = var_1200_weight_0, x = input_49)[name = tensor<string, []>("op_1202")];
            tensor<fp32, []> var_1196 = const()[name = tensor<string, []>("op_1196"), val = tensor<fp32, []>(0x1p+0)];
            tensor<fp32, []> var_1197 = const()[name = tensor<string, []>("op_1197"), val = tensor<fp32, []>(0x0p+0)];
            tensor<fp32, [1, 192, 1, 1]> clip_17 = clip(alpha = var_1197, beta = var_1196, x = var_1202)[name = tensor<string, []>("clip_17")];
            tensor<fp32, [1, 192, 30, 30]> x_199 = mul(x = x_193, y = clip_17)[name = tensor<string, []>("x_199")];
            tensor<string, []> first_233_pad_type_0 = const()[name = tensor<string, []>("first_233_pad_type_0"), val = tensor<string, []>("valid")];
            tensor<int32, [2]> first_233_strides_0 = const()[name = tensor<string, []>("first_233_strides_0"), val = tensor<int32, [2]>([1, 1])];
            tensor<int32, [4]> first_233_pad_0 = const()[name = tensor<string, []>("first_233_pad_0"), val = tensor<int32, [4]>([0, 0, 0, 0])];
            tensor<int32, [2]> first_233_dilations_0 = const()[name = tensor<string, []>("first_233_dilations_0"), val = tensor<int32, [2]>([1, 1])];
            tensor<int32, []> first_233_groups_0 = const()[name = tensor<string, []>("first_233_groups_0"), val = tensor<int32, []>(1)];
            tensor<fp32, [384, 192, 1, 1]> x_203_weight_0 = const()[name = tensor<string, []>("x_203_weight_0"), val = tensor<fp32, [384, 192, 1, 1]>(BLOBFILE(path = tensor<string, []>("@model_path/weights/weight.bin"), offset = tensor<uint64, []>(2214784)))];
            tensor<fp32, [384]> const_82 = const()[name = tensor<string, []>("const_82"), val = tensor<fp32, [384]>(BLOBFILE(path = tensor<string, []>("@model_path/weights/weight.bin"), offset = tensor<uint64, []>(2509760)))];
            tensor<fp32, [1, 384, 30, 30]> x_205 = conv(bias = const_82, dilations = first_233_dilations_0, groups = first_233_groups_0, pad = first_233_pad_0, pad_type = first_233_pad_type_0, strides = first_233_strides_0, weight = x_203_weight_0, x = x_199)[name = tensor<string, []>("x_205")];
            tensor<fp32, []> var_1229 = const()[name = tensor<string, []>("op_1229"), val = tensor<fp32, []>(0x1p+0)];
            tensor<fp32, []> var_1230 = const()[name = tensor<string, []>("op_1230"), val = tensor<fp32, []>(0x0p+0)];
            tensor<fp32, []> var_1232 = const()[name = tensor<string, []>("op_1232"), val = tensor<fp32, []>(0x1.555556p-3)];
            tensor<fp32, [1, 384, 30, 30]> var_1233 = mul(x = x_205, y = var_1232)[name = tensor<string, []>("op_1233")];
            tensor<fp32, []> var_1234 = const()[name = tensor<string, []>("op_1234"), val = tensor<fp32, []>(0x1p-1)];
            tensor<fp32, [1, 384, 30, 30]> var_1235 = add(x = var_1233, y = var_1234)[name = tensor<string, []>("op_1235")];
            tensor<fp32, [1, 384, 30, 30]> clip_18 = clip(alpha = var_1230, beta = var_1229, x = var_1235)[name = tensor<string, []>("clip_18")];
            tensor<fp32, [1, 384, 30, 30]> second_207 = mul(x = clip_18, y = x_205)[name = tensor<string, []>("second_207")];
            tensor<fp32, [1, 384, 30, 30]> x_207 = mul(x = initializers_onnx_initializer_102, y = second_207)[name = tensor<string, []>("x_207")];
            tensor<fp32, [1, 384, 30, 30]> x_209 = add(x = x_207, y = initializers_onnx_initializer_103)[name = tensor<string, []>("x_209")];
            tensor<string, []> first_245_pad_type_0 = const()[name = tensor<string, []>("first_245_pad_type_0"), val = tensor<string, []>("custom")];
            tensor<int32, [4]> first_245_pad_0 = const()[name = tensor<string, []>("first_245_pad_0"), val = tensor<int32, [4]>([2, 2, 2, 2])];
            tensor<int32, []> first_245_groups_0 = const()[name = tensor<string, []>("first_245_groups_0"), val = tensor<int32, []>(384)];
            tensor<int32, [2]> first_245_strides_0 = const()[name = tensor<string, []>("first_245_strides_0"), val = tensor<int32, [2]>([1, 1])];
            tensor<int32, [2]> first_245_dilations_0 = const()[name = tensor<string, []>("first_245_dilations_0"), val = tensor<int32, [2]>([1, 1])];
            tensor<fp32, [384, 1, 5, 5]> x_213_weight_0 = const()[name = tensor<string, []>("x_213_weight_0"), val = tensor<fp32, [384, 1, 5, 5]>(BLOBFILE(path = tensor<string, []>("@model_path/weights/weight.bin"), offset = tensor<uint64, []>(2511360)))];
            tensor<fp32, [384]> const_83 = const()[name = tensor<string, []>("const_83"), val = tensor<fp32, [384]>(BLOBFILE(path = tensor<string, []>("@model_path/weights/weight.bin"), offset = tensor<uint64, []>(2549824)))];
            tensor<fp32, [1, 384, 30, 30]> x_215 = conv(bias = const_83, dilations = first_245_dilations_0, groups = first_245_groups_0, pad = first_245_pad_0, pad_type = first_245_pad_type_0, strides = first_245_strides_0, weight = x_213_weight_0, x = x_209)[name = tensor<string, []>("x_215")];
            tensor<fp32, []> var_1269 = const()[name = tensor<string, []>("op_1269"), val = tensor<fp32, []>(0x1p+0)];
            tensor<fp32, []> var_1270 = const()[name = tensor<string, []>("op_1270"), val = tensor<fp32, []>(0x0p+0)];
            tensor<fp32, []> var_1272 = const()[name = tensor<string, []>("op_1272"), val = tensor<fp32, []>(0x1.555556p-3)];
            tensor<fp32, [1, 384, 30, 30]> var_1273 = mul(x = x_215, y = var_1272)[name = tensor<string, []>("op_1273")];
            tensor<fp32, []> var_1274 = const()[name = tensor<string, []>("op_1274"), val = tensor<fp32, []>(0x1p-1)];
            tensor<fp32, [1, 384, 30, 30]> var_1275 = add(x = var_1273, y = var_1274)[name = tensor<string, []>("op_1275")];
            tensor<fp32, [1, 384, 30, 30]> clip_19 = clip(alpha = var_1270, beta = var_1269, x = var_1275)[name = tensor<string, []>("clip_19")];
            tensor<fp32, [1, 384, 30, 30]> second_217 = mul(x = clip_19, y = x_215)[name = tensor<string, []>("second_217")];
            tensor<fp32, [1, 384, 30, 30]> x_217 = mul(x = initializers_onnx_initializer_107, y = second_217)[name = tensor<string, []>("x_217")];
            tensor<fp32, [1, 384, 30, 30]> x_219 = add(x = x_217, y = initializers_onnx_initializer_108)[name = tensor<string, []>("x_219")];
            tensor<int32, [2]> input_55_axes_0 = const()[name = tensor<string, []>("input_55_axes_0"), val = tensor<int32, [2]>([2, 3])];
            tensor<bool, []> input_55_keep_dims_0 = const()[name = tensor<string, []>("input_55_keep_dims_0"), val = tensor<bool, []>(true)];
            tensor<fp32, [1, 384, 1, 1]> input_55 = reduce_mean(axes = input_55_axes_0, keep_dims = input_55_keep_dims_0, x = x_219)[name = tensor<string, []>("input_55")];
            tensor<string, []> first_257_pad_type_0 = const()[name = tensor<string, []>("first_257_pad_type_0"), val = tensor<string, []>("valid")];
            tensor<int32, [2]> first_257_strides_0 = const()[name = tensor<string, []>("first_257_strides_0"), val = tensor<int32, [2]>([1, 1])];
            tensor<int32, [4]> first_257_pad_0 = const()[name = tensor<string, []>("first_257_pad_0"), val = tensor<int32, [4]>([0, 0, 0, 0])];
            tensor<int32, [2]> first_257_dilations_0 = const()[name = tensor<string, []>("first_257_dilations_0"), val = tensor<int32, [2]>([1, 1])];
            tensor<int32, []> first_257_groups_0 = const()[name = tensor<string, []>("first_257_groups_0"), val = tensor<int32, []>(1)];
            tensor<fp32, [96]> const_25 = const()[name = tensor<string, []>("const_25"), val = tensor<fp32, [96]>(BLOBFILE(path = tensor<string, []>("@model_path/weights/weight.bin"), offset = tensor<uint64, []>(2551424)))];
            tensor<fp32, [1, 96, 1, 1]> x_221 = conv(bias = const_25, dilations = first_257_dilations_0, groups = first_257_groups_0, pad = first_257_pad_0, pad_type = first_257_pad_type_0, strides = first_257_strides_0, weight = Conv_26_weight, x = input_55)[name = tensor<string, []>("x_221")];
            tensor<fp32, [1, 96, 1, 1]> input_59 = relu(x = x_221)[name = tensor<string, []>("input_59")];
            tensor<string, []> first_259_pad_type_0 = const()[name = tensor<string, []>("first_259_pad_type_0"), val = tensor<string, []>("valid")];
            tensor<int32, [2]> first_259_strides_0 = const()[name = tensor<string, []>("first_259_strides_0"), val = tensor<int32, [2]>([1, 1])];
            tensor<int32, [4]> first_259_pad_0 = const()[name = tensor<string, []>("first_259_pad_0"), val = tensor<int32, [4]>([0, 0, 0, 0])];
            tensor<int32, [2]> first_259_dilations_0 = const()[name = tensor<string, []>("first_259_dilations_0"), val = tensor<int32, [2]>([1, 1])];
            tensor<int32, []> first_259_groups_0 = const()[name = tensor<string, []>("first_259_groups_0"), val = tensor<int32, []>(1)];
            tensor<fp32, [384, 96, 1, 1]> var_1326_weight_0 = const()[name = tensor<string, []>("op_1326_weight_0"), val = tensor<fp32, [384, 96, 1, 1]>(BLOBFILE(path = tensor<string, []>("@model_path/weights/weight.bin"), offset = tensor<uint64, []>(2551872)))];
            tensor<fp32, [384]> const_84 = const()[name = tensor<string, []>("const_84"), val = tensor<fp32, [384]>(BLOBFILE(path = tensor<string, []>("@model_path/weights/weight.bin"), offset = tensor<uint64, []>(2699392)))];
            tensor<fp32, [1, 384, 1, 1]> var_1328 = conv(bias = const_84, dilations = first_259_dilations_0, groups = first_259_groups_0, pad = first_259_pad_0, pad_type = first_259_pad_type_0, strides = first_259_strides_0, weight = var_1326_weight_0, x = input_59)[name = tensor<string, []>("op_1328")];
            tensor<fp32, []> var_1322 = const()[name = tensor<string, []>("op_1322"), val = tensor<fp32, []>(0x1p+0)];
            tensor<fp32, []> var_1323 = const()[name = tensor<string, []>("op_1323"), val = tensor<fp32, []>(0x0p+0)];
            tensor<fp32, [1, 384, 1, 1]> clip_20 = clip(alpha = var_1323, beta = var_1322, x = var_1328)[name = tensor<string, []>("clip_20")];
            tensor<fp32, [1, 384, 30, 30]> x_225 = mul(x = x_219, y = clip_20)[name = tensor<string, []>("x_225")];
            tensor<string, []> first_261_pad_type_0 = const()[name = tensor<string, []>("first_261_pad_type_0"), val = tensor<string, []>("valid")];
            tensor<int32, [2]> first_261_strides_0 = const()[name = tensor<string, []>("first_261_strides_0"), val = tensor<int32, [2]>([1, 1])];
            tensor<int32, [4]> first_261_pad_0 = const()[name = tensor<string, []>("first_261_pad_0"), val = tensor<int32, [4]>([0, 0, 0, 0])];
            tensor<int32, [2]> first_261_dilations_0 = const()[name = tensor<string, []>("first_261_dilations_0"), val = tensor<int32, [2]>([1, 1])];
            tensor<int32, []> first_261_groups_0 = const()[name = tensor<string, []>("first_261_groups_0"), val = tensor<int32, []>(1)];
            tensor<fp32, [384, 384, 1, 1]> x_229_weight_0 = const()[name = tensor<string, []>("x_229_weight_0"), val = tensor<fp32, [384, 384, 1, 1]>(BLOBFILE(path = tensor<string, []>("@model_path/weights/weight.bin"), offset = tensor<uint64, []>(2700992)))];
            tensor<fp32, [384]> const_85 = const()[name = tensor<string, []>("const_85"), val = tensor<fp32, [384]>(BLOBFILE(path = tensor<string, []>("@model_path/weights/weight.bin"), offset = tensor<uint64, []>(3290880)))];
            tensor<fp32, [1, 384, 30, 30]> x_231 = conv(bias = const_85, dilations = first_261_dilations_0, groups = first_261_groups_0, pad = first_261_pad_0, pad_type = first_261_pad_type_0, strides = first_261_strides_0, weight = x_229_weight_0, x = x_225)[name = tensor<string, []>("x_231")];
            tensor<fp32, []> var_1355 = const()[name = tensor<string, []>("op_1355"), val = tensor<fp32, []>(0x1p+0)];
            tensor<fp32, []> var_1356 = const()[name = tensor<string, []>("op_1356"), val = tensor<fp32, []>(0x0p+0)];
            tensor<fp32, []> var_1358 = const()[name = tensor<string, []>("op_1358"), val = tensor<fp32, []>(0x1.555556p-3)];
            tensor<fp32, [1, 384, 30, 30]> var_1359 = mul(x = x_231, y = var_1358)[name = tensor<string, []>("op_1359")];
            tensor<fp32, []> var_1360 = const()[name = tensor<string, []>("op_1360"), val = tensor<fp32, []>(0x1p-1)];
            tensor<fp32, [1, 384, 30, 30]> var_1361 = add(x = var_1359, y = var_1360)[name = tensor<string, []>("op_1361")];
            tensor<fp32, [1, 384, 30, 30]> clip_21 = clip(alpha = var_1356, beta = var_1355, x = var_1361)[name = tensor<string, []>("clip_21")];
            tensor<fp32, [1, 384, 30, 30]> second_233 = mul(x = clip_21, y = x_231)[name = tensor<string, []>("second_233")];
            tensor<fp32, [1, 384, 30, 30]> x_233 = mul(x = initializers_onnx_initializer_114, y = second_233)[name = tensor<string, []>("x_233")];
            tensor<fp32, [1, 384, 30, 30]> x_235 = add(x = x_233, y = initializers_onnx_initializer_115)[name = tensor<string, []>("x_235")];
            tensor<string, []> first_273_pad_type_0 = const()[name = tensor<string, []>("first_273_pad_type_0"), val = tensor<string, []>("custom")];
            tensor<int32, [4]> first_273_pad_0 = const()[name = tensor<string, []>("first_273_pad_0"), val = tensor<int32, [4]>([2, 2, 2, 2])];
            tensor<int32, []> first_273_groups_0 = const()[name = tensor<string, []>("first_273_groups_0"), val = tensor<int32, []>(384)];
            tensor<int32, [2]> first_273_strides_0 = const()[name = tensor<string, []>("first_273_strides_0"), val = tensor<int32, [2]>([1, 1])];
            tensor<int32, [2]> first_273_dilations_0 = const()[name = tensor<string, []>("first_273_dilations_0"), val = tensor<int32, [2]>([1, 1])];
            tensor<fp32, [384, 1, 5, 5]> x_239_weight_0 = const()[name = tensor<string, []>("x_239_weight_0"), val = tensor<fp32, [384, 1, 5, 5]>(BLOBFILE(path = tensor<string, []>("@model_path/weights/weight.bin"), offset = tensor<uint64, []>(3292480)))];
            tensor<fp32, [384]> const_86 = const()[name = tensor<string, []>("const_86"), val = tensor<fp32, [384]>(BLOBFILE(path = tensor<string, []>("@model_path/weights/weight.bin"), offset = tensor<uint64, []>(3330944)))];
            tensor<fp32, [1, 384, 30, 30]> x_241 = conv(bias = const_86, dilations = first_273_dilations_0, groups = first_273_groups_0, pad = first_273_pad_0, pad_type = first_273_pad_type_0, strides = first_273_strides_0, weight = x_239_weight_0, x = x_235)[name = tensor<string, []>("x_241")];
            tensor<fp32, []> var_1395 = const()[name = tensor<string, []>("op_1395"), val = tensor<fp32, []>(0x1p+0)];
            tensor<fp32, []> var_1396 = const()[name = tensor<string, []>("op_1396"), val = tensor<fp32, []>(0x0p+0)];
            tensor<fp32, []> var_1398 = const()[name = tensor<string, []>("op_1398"), val = tensor<fp32, []>(0x1.555556p-3)];
            tensor<fp32, [1, 384, 30, 30]> var_1399 = mul(x = x_241, y = var_1398)[name = tensor<string, []>("op_1399")];
            tensor<fp32, []> var_1400 = const()[name = tensor<string, []>("op_1400"), val = tensor<fp32, []>(0x1p-1)];
            tensor<fp32, [1, 384, 30, 30]> var_1401 = add(x = var_1399, y = var_1400)[name = tensor<string, []>("op_1401")];
            tensor<fp32, [1, 384, 30, 30]> clip_22 = clip(alpha = var_1396, beta = var_1395, x = var_1401)[name = tensor<string, []>("clip_22")];
            tensor<fp32, [1, 384, 30, 30]> second_243 = mul(x = clip_22, y = x_241)[name = tensor<string, []>("second_243")];
            tensor<fp32, [1, 384, 30, 30]> x_243 = mul(x = initializers_onnx_initializer_119, y = second_243)[name = tensor<string, []>("x_243")];
            tensor<fp32, [1, 384, 30, 30]> x_245 = add(x = x_243, y = initializers_onnx_initializer_120)[name = tensor<string, []>("x_245")];
            tensor<string, []> first_285_pad_type_0 = const()[name = tensor<string, []>("first_285_pad_type_0"), val = tensor<string, []>("valid")];
            tensor<int32, [2]> first_285_strides_0 = const()[name = tensor<string, []>("first_285_strides_0"), val = tensor<int32, [2]>([1, 1])];
            tensor<int32, [4]> first_285_pad_0 = const()[name = tensor<string, []>("first_285_pad_0"), val = tensor<int32, [4]>([0, 0, 0, 0])];
            tensor<int32, [2]> first_285_dilations_0 = const()[name = tensor<string, []>("first_285_dilations_0"), val = tensor<int32, [2]>([1, 1])];
            tensor<int32, []> first_285_groups_0 = const()[name = tensor<string, []>("first_285_groups_0"), val = tensor<int32, []>(1)];
            tensor<fp32, [384, 384, 1, 1]> x_249_weight_0 = const()[name = tensor<string, []>("x_249_weight_0"), val = tensor<fp32, [384, 384, 1, 1]>(BLOBFILE(path = tensor<string, []>("@model_path/weights/weight.bin"), offset = tensor<uint64, []>(3332544)))];
            tensor<fp32, [384]> const_87 = const()[name = tensor<string, []>("const_87"), val = tensor<fp32, [384]>(BLOBFILE(path = tensor<string, []>("@model_path/weights/weight.bin"), offset = tensor<uint64, []>(3922432)))];
            tensor<fp32, [1, 384, 30, 30]> x_251 = conv(bias = const_87, dilations = first_285_dilations_0, groups = first_285_groups_0, pad = first_285_pad_0, pad_type = first_285_pad_type_0, strides = first_285_strides_0, weight = x_249_weight_0, x = x_245)[name = tensor<string, []>("x_251")];
            tensor<fp32, []> var_1433 = const()[name = tensor<string, []>("op_1433"), val = tensor<fp32, []>(0x1p+0)];
            tensor<fp32, []> var_1434 = const()[name = tensor<string, []>("op_1434"), val = tensor<fp32, []>(0x0p+0)];
            tensor<fp32, []> var_1436 = const()[name = tensor<string, []>("op_1436"), val = tensor<fp32, []>(0x1.555556p-3)];
            tensor<fp32, [1, 384, 30, 30]> var_1437 = mul(x = x_251, y = var_1436)[name = tensor<string, []>("op_1437")];
            tensor<fp32, []> var_1438 = const()[name = tensor<string, []>("op_1438"), val = tensor<fp32, []>(0x1p-1)];
            tensor<fp32, [1, 384, 30, 30]> var_1439 = add(x = var_1437, y = var_1438)[name = tensor<string, []>("op_1439")];
            tensor<fp32, [1, 384, 30, 30]> clip_23 = clip(alpha = var_1434, beta = var_1433, x = var_1439)[name = tensor<string, []>("clip_23")];
            tensor<fp32, [1, 384, 30, 30]> second_253 = mul(x = clip_23, y = x_251)[name = tensor<string, []>("second_253")];
            tensor<fp32, [1, 384, 30, 30]> x_253 = mul(x = initializers_onnx_initializer_124, y = second_253)[name = tensor<string, []>("x_253")];
            tensor<fp32, [1, 384, 30, 30]> x_255 = add(x = x_253, y = initializers_onnx_initializer_125)[name = tensor<string, []>("x_255")];
            tensor<string, []> first_297_pad_type_0 = const()[name = tensor<string, []>("first_297_pad_type_0"), val = tensor<string, []>("custom")];
            tensor<int32, [4]> first_297_pad_0 = const()[name = tensor<string, []>("first_297_pad_0"), val = tensor<int32, [4]>([2, 2, 2, 2])];
            tensor<int32, []> first_297_groups_0 = const()[name = tensor<string, []>("first_297_groups_0"), val = tensor<int32, []>(384)];
            tensor<int32, [2]> first_297_strides_0 = const()[name = tensor<string, []>("first_297_strides_0"), val = tensor<int32, [2]>([1, 1])];
            tensor<int32, [2]> first_297_dilations_0 = const()[name = tensor<string, []>("first_297_dilations_0"), val = tensor<int32, [2]>([1, 1])];
            tensor<fp32, [384, 1, 5, 5]> x_259_weight_0 = const()[name = tensor<string, []>("x_259_weight_0"), val = tensor<fp32, [384, 1, 5, 5]>(BLOBFILE(path = tensor<string, []>("@model_path/weights/weight.bin"), offset = tensor<uint64, []>(3924032)))];
            tensor<fp32, [384]> const_88 = const()[name = tensor<string, []>("const_88"), val = tensor<fp32, [384]>(BLOBFILE(path = tensor<string, []>("@model_path/weights/weight.bin"), offset = tensor<uint64, []>(3962496)))];
            tensor<fp32, [1, 384, 30, 30]> x_261 = conv(bias = const_88, dilations = first_297_dilations_0, groups = first_297_groups_0, pad = first_297_pad_0, pad_type = first_297_pad_type_0, strides = first_297_strides_0, weight = x_259_weight_0, x = x_255)[name = tensor<string, []>("x_261")];
            tensor<fp32, []> var_1473 = const()[name = tensor<string, []>("op_1473"), val = tensor<fp32, []>(0x1p+0)];
            tensor<fp32, []> var_1474 = const()[name = tensor<string, []>("op_1474"), val = tensor<fp32, []>(0x0p+0)];
            tensor<fp32, []> var_1476 = const()[name = tensor<string, []>("op_1476"), val = tensor<fp32, []>(0x1.555556p-3)];
            tensor<fp32, [1, 384, 30, 30]> var_1477 = mul(x = x_261, y = var_1476)[name = tensor<string, []>("op_1477")];
            tensor<fp32, []> var_1478 = const()[name = tensor<string, []>("op_1478"), val = tensor<fp32, []>(0x1p-1)];
            tensor<fp32, [1, 384, 30, 30]> var_1479 = add(x = var_1477, y = var_1478)[name = tensor<string, []>("op_1479")];
            tensor<fp32, [1, 384, 30, 30]> clip_24 = clip(alpha = var_1474, beta = var_1473, x = var_1479)[name = tensor<string, []>("clip_24")];
            tensor<fp32, [1, 384, 30, 30]> second_263 = mul(x = clip_24, y = x_261)[name = tensor<string, []>("second_263")];
            tensor<fp32, [1, 384, 30, 30]> x_263 = mul(x = initializers_onnx_initializer_129, y = second_263)[name = tensor<string, []>("x_263")];
            tensor<fp32, [1, 384, 30, 30]> x_265 = add(x = x_263, y = initializers_onnx_initializer_130)[name = tensor<string, []>("x_265")];
            tensor<string, []> first_309_pad_type_0 = const()[name = tensor<string, []>("first_309_pad_type_0"), val = tensor<string, []>("valid")];
            tensor<int32, [2]> first_309_strides_0 = const()[name = tensor<string, []>("first_309_strides_0"), val = tensor<int32, [2]>([1, 1])];
            tensor<int32, [4]> first_309_pad_0 = const()[name = tensor<string, []>("first_309_pad_0"), val = tensor<int32, [4]>([0, 0, 0, 0])];
            tensor<int32, [2]> first_309_dilations_0 = const()[name = tensor<string, []>("first_309_dilations_0"), val = tensor<int32, [2]>([1, 1])];
            tensor<int32, []> first_309_groups_0 = const()[name = tensor<string, []>("first_309_groups_0"), val = tensor<int32, []>(1)];
            tensor<fp32, [384, 384, 1, 1]> x_269_weight_0 = const()[name = tensor<string, []>("x_269_weight_0"), val = tensor<fp32, [384, 384, 1, 1]>(BLOBFILE(path = tensor<string, []>("@model_path/weights/weight.bin"), offset = tensor<uint64, []>(3964096)))];
            tensor<fp32, [384]> const_89 = const()[name = tensor<string, []>("const_89"), val = tensor<fp32, [384]>(BLOBFILE(path = tensor<string, []>("@model_path/weights/weight.bin"), offset = tensor<uint64, []>(4553984)))];
            tensor<fp32, [1, 384, 30, 30]> x_271 = conv(bias = const_89, dilations = first_309_dilations_0, groups = first_309_groups_0, pad = first_309_pad_0, pad_type = first_309_pad_type_0, strides = first_309_strides_0, weight = x_269_weight_0, x = x_265)[name = tensor<string, []>("x_271")];
            tensor<fp32, []> var_1511 = const()[name = tensor<string, []>("op_1511"), val = tensor<fp32, []>(0x1p+0)];
            tensor<fp32, []> var_1512 = const()[name = tensor<string, []>("op_1512"), val = tensor<fp32, []>(0x0p+0)];
            tensor<fp32, []> var_1514 = const()[name = tensor<string, []>("op_1514"), val = tensor<fp32, []>(0x1.555556p-3)];
            tensor<fp32, [1, 384, 30, 30]> var_1515 = mul(x = x_271, y = var_1514)[name = tensor<string, []>("op_1515")];
            tensor<fp32, []> var_1516 = const()[name = tensor<string, []>("op_1516"), val = tensor<fp32, []>(0x1p-1)];
            tensor<fp32, [1, 384, 30, 30]> var_1517 = add(x = var_1515, y = var_1516)[name = tensor<string, []>("op_1517")];
            tensor<fp32, [1, 384, 30, 30]> clip_25 = clip(alpha = var_1512, beta = var_1511, x = var_1517)[name = tensor<string, []>("clip_25")];
            tensor<fp32, [1, 384, 30, 30]> second_273 = mul(x = clip_25, y = x_271)[name = tensor<string, []>("second_273")];
            tensor<fp32, [1, 384, 30, 30]> x_273 = mul(x = initializers_onnx_initializer_134, y = second_273)[name = tensor<string, []>("x_273")];
            tensor<fp32, [1, 384, 30, 30]> x_275 = add(x = x_273, y = initializers_onnx_initializer_135)[name = tensor<string, []>("x_275")];
            tensor<string, []> first_321_pad_type_0 = const()[name = tensor<string, []>("first_321_pad_type_0"), val = tensor<string, []>("valid")];
            tensor<int32, [2]> first_321_strides_0 = const()[name = tensor<string, []>("first_321_strides_0"), val = tensor<int32, [2]>([1, 1])];
            tensor<int32, [4]> first_321_pad_0 = const()[name = tensor<string, []>("first_321_pad_0"), val = tensor<int32, [4]>([0, 0, 0, 0])];
            tensor<int32, [2]> first_321_dilations_0 = const()[name = tensor<string, []>("first_321_dilations_0"), val = tensor<int32, [2]>([1, 1])];
            tensor<int32, []> first_321_groups_0 = const()[name = tensor<string, []>("first_321_groups_0"), val = tensor<int32, []>(1)];
            tensor<fp32, [12]> const_32 = const()[name = tensor<string, []>("const_32"), val = tensor<fp32, [12]>(BLOBFILE(path = tensor<string, []>("@model_path/weights/weight.bin"), offset = tensor<uint64, []>(4555584)))];
            tensor<fp32, [1, 12, 240, 240]> x_277 = conv(bias = const_32, dilations = first_321_dilations_0, groups = first_321_groups_0, pad = first_321_pad_0, pad_type = first_321_pad_type_0, strides = first_321_strides_0, weight = Conv_33_weight, x = x_55)[name = tensor<string, []>("x_277")];
            tensor<string, []> first_323_pad_type_0 = const()[name = tensor<string, []>("first_323_pad_type_0"), val = tensor<string, []>("valid")];
            tensor<int32, [2]> first_323_strides_0 = const()[name = tensor<string, []>("first_323_strides_0"), val = tensor<int32, [2]>([1, 1])];
            tensor<int32, [4]> first_323_pad_0 = const()[name = tensor<string, []>("first_323_pad_0"), val = tensor<int32, [4]>([0, 0, 0, 0])];
            tensor<int32, [2]> first_323_dilations_0 = const()[name = tensor<string, []>("first_323_dilations_0"), val = tensor<int32, [2]>([1, 1])];
            tensor<int32, []> first_323_groups_0 = const()[name = tensor<string, []>("first_323_groups_0"), val = tensor<int32, []>(1)];
            tensor<fp32, [18]> const_33 = const()[name = tensor<string, []>("const_33"), val = tensor<fp32, [18]>(BLOBFILE(path = tensor<string, []>("@model_path/weights/weight.bin"), offset = tensor<uint64, []>(4555712)))];
            tensor<fp32, [1, 18, 120, 120]> x_279 = conv(bias = const_33, dilations = first_323_dilations_0, groups = first_323_groups_0, pad = first_323_pad_0, pad_type = first_323_pad_type_0, strides = first_323_strides_0, weight = Conv_34_weight, x = x_91)[name = tensor<string, []>("x_279")];
            tensor<string, []> first_325_pad_type_0 = const()[name = tensor<string, []>("first_325_pad_type_0"), val = tensor<string, []>("valid")];
            tensor<int32, [2]> first_325_strides_0 = const()[name = tensor<string, []>("first_325_strides_0"), val = tensor<int32, [2]>([1, 1])];
            tensor<int32, [4]> first_325_pad_0 = const()[name = tensor<string, []>("first_325_pad_0"), val = tensor<int32, [4]>([0, 0, 0, 0])];
            tensor<int32, [2]> first_325_dilations_0 = const()[name = tensor<string, []>("first_325_dilations_0"), val = tensor<int32, [2]>([1, 1])];
            tensor<int32, []> first_325_groups_0 = const()[name = tensor<string, []>("first_325_groups_0"), val = tensor<int32, []>(1)];
            tensor<fp32, [42]> const_34 = const()[name = tensor<string, []>("const_34"), val = tensor<fp32, [42]>(BLOBFILE(path = tensor<string, []>("@model_path/weights/weight.bin"), offset = tensor<uint64, []>(4555904)))];
            tensor<fp32, [1, 42, 60, 60]> x_281 = conv(bias = const_34, dilations = first_325_dilations_0, groups = first_325_groups_0, pad = first_325_pad_0, pad_type = first_325_pad_type_0, strides = first_325_strides_0, weight = Conv_35_weight, x = x_187)[name = tensor<string, []>("x_281")];
            tensor<string, []> first_327_pad_type_0 = const()[name = tensor<string, []>("first_327_pad_type_0"), val = tensor<string, []>("valid")];
            tensor<int32, [2]> first_327_strides_0 = const()[name = tensor<string, []>("first_327_strides_0"), val = tensor<int32, [2]>([1, 1])];
            tensor<int32, [4]> first_327_pad_0 = const()[name = tensor<string, []>("first_327_pad_0"), val = tensor<int32, [4]>([0, 0, 0, 0])];
            tensor<int32, [2]> first_327_dilations_0 = const()[name = tensor<string, []>("first_327_dilations_0"), val = tensor<int32, [2]>([1, 1])];
            tensor<int32, []> first_327_groups_0 = const()[name = tensor<string, []>("first_327_groups_0"), val = tensor<int32, []>(1)];
            tensor<fp32, [360]> const_35 = const()[name = tensor<string, []>("const_35"), val = tensor<fp32, [360]>(BLOBFILE(path = tensor<string, []>("@model_path/weights/weight.bin"), offset = tensor<uint64, []>(4556160)))];
            tensor<fp32, [1, 360, 30, 30]> x_283 = conv(bias = const_35, dilations = first_327_dilations_0, groups = first_327_groups_0, pad = first_327_pad_0, pad_type = first_327_pad_type_0, strides = first_327_strides_0, weight = Conv_36_weight, x = x_275)[name = tensor<string, []>("x_283")];
            tensor<string, []> input_tensor_57_pad_type_0 = const()[name = tensor<string, []>("input_tensor_57_pad_type_0"), val = tensor<string, []>("valid")];
            tensor<int32, [2]> input_tensor_57_strides_0 = const()[name = tensor<string, []>("input_tensor_57_strides_0"), val = tensor<int32, [2]>([1, 1])];
            tensor<int32, [4]> input_tensor_57_pad_0 = const()[name = tensor<string, []>("input_tensor_57_pad_0"), val = tensor<int32, [4]>([0, 0, 0, 0])];
            tensor<int32, [2]> input_tensor_57_dilations_0 = const()[name = tensor<string, []>("input_tensor_57_dilations_0"), val = tensor<int32, [2]>([1, 1])];
            tensor<int32, []> input_tensor_57_groups_0 = const()[name = tensor<string, []>("input_tensor_57_groups_0"), val = tensor<int32, []>(1)];
            tensor<fp32, [1, 96, 30, 30]> input_tensor_57 = conv(dilations = input_tensor_57_dilations_0, groups = input_tensor_57_groups_0, pad = input_tensor_57_pad_0, pad_type = input_tensor_57_pad_type_0, strides = input_tensor_57_strides_0, weight = Conv_37_weight, x = x_283)[name = tensor<string, []>("input_tensor_57")];
            tensor<int32, [2]> input_75_axes_0 = const()[name = tensor<string, []>("input_75_axes_0"), val = tensor<int32, [2]>([2, 3])];
            tensor<bool, []> input_75_keep_dims_0 = const()[name = tensor<string, []>("input_75_keep_dims_0"), val = tensor<bool, []>(true)];
            tensor<fp32, [1, 96, 1, 1]> input_75 = reduce_mean(axes = input_75_axes_0, keep_dims = input_75_keep_dims_0, x = input_tensor_57)[name = tensor<string, []>("input_75")];
            tensor<string, []> first_329_pad_type_0 = const()[name = tensor<string, []>("first_329_pad_type_0"), val = tensor<string, []>("valid")];
            tensor<int32, [2]> first_329_strides_0 = const()[name = tensor<string, []>("first_329_strides_0"), val = tensor<int32, [2]>([1, 1])];
            tensor<int32, [4]> first_329_pad_0 = const()[name = tensor<string, []>("first_329_pad_0"), val = tensor<int32, [4]>([0, 0, 0, 0])];
            tensor<int32, [2]> first_329_dilations_0 = const()[name = tensor<string, []>("first_329_dilations_0"), val = tensor<int32, [2]>([1, 1])];
            tensor<int32, []> first_329_groups_0 = const()[name = tensor<string, []>("first_329_groups_0"), val = tensor<int32, []>(1)];
            tensor<fp32, [24]> const_36 = const()[name = tensor<string, []>("const_36"), val = tensor<fp32, [24]>(BLOBFILE(path = tensor<string, []>("@model_path/weights/weight.bin"), offset = tensor<uint64, []>(4557696)))];
            tensor<fp32, [1, 24, 1, 1]> x_285 = conv(bias = const_36, dilations = first_329_dilations_0, groups = first_329_groups_0, pad = first_329_pad_0, pad_type = first_329_pad_type_0, strides = first_329_strides_0, weight = Conv_38_weight, x = input_75)[name = tensor<string, []>("x_285")];
            tensor<fp32, [1, 24, 1, 1]> input_79 = relu(x = x_285)[name = tensor<string, []>("input_79")];
            tensor<string, []> first_331_pad_type_0 = const()[name = tensor<string, []>("first_331_pad_type_0"), val = tensor<string, []>("valid")];
            tensor<int32, [2]> first_331_strides_0 = const()[name = tensor<string, []>("first_331_strides_0"), val = tensor<int32, [2]>([1, 1])];
            tensor<int32, [4]> first_331_pad_0 = const()[name = tensor<string, []>("first_331_pad_0"), val = tensor<int32, [4]>([0, 0, 0, 0])];
            tensor<int32, [2]> first_331_dilations_0 = const()[name = tensor<string, []>("first_331_dilations_0"), val = tensor<int32, [2]>([1, 1])];
            tensor<int32, []> first_331_groups_0 = const()[name = tensor<string, []>("first_331_groups_0"), val = tensor<int32, []>(1)];
            tensor<fp32, [96, 24, 1, 1]> var_1639_weight_0 = const()[name = tensor<string, []>("op_1639_weight_0"), val = tensor<fp32, [96, 24, 1, 1]>(BLOBFILE(path = tensor<string, []>("@model_path/weights/weight.bin"), offset = tensor<uint64, []>(4557888)))];
            tensor<fp32, [96]> const_90 = const()[name = tensor<string, []>("const_90"), val = tensor<fp32, [96]>(BLOBFILE(path = tensor<string, []>("@model_path/weights/weight.bin"), offset = tensor<uint64, []>(4567168)))];
            tensor<fp32, [1, 96, 1, 1]> var_1641 = conv(bias = const_90, dilations = first_331_dilations_0, groups = first_331_groups_0, pad = first_331_pad_0, pad_type = first_331_pad_type_0, strides = first_331_strides_0, weight = var_1639_weight_0, x = input_79)[name = tensor<string, []>("op_1641")];
            tensor<fp32, []> var_1635 = const()[name = tensor<string, []>("op_1635"), val = tensor<fp32, []>(0x1p+0)];
            tensor<fp32, []> var_1636 = const()[name = tensor<string, []>("op_1636"), val = tensor<fp32, []>(0x0p+0)];
            tensor<fp32, [1, 96, 1, 1]> clip_26 = clip(alpha = var_1636, beta = var_1635, x = var_1641)[name = tensor<string, []>("clip_26")];
            tensor<fp32, [1, 96, 30, 30]> x_289 = mul(x = input_tensor_57, y = clip_26)[name = tensor<string, []>("x_289")];
            tensor<fp32, [1, 96, 30, 30]> x_291 = add(x = input_tensor_57, y = x_289)[name = tensor<string, []>("x_291")];
            tensor<string, []> input_tensor_61_pad_type_0 = const()[name = tensor<string, []>("input_tensor_61_pad_type_0"), val = tensor<string, []>("valid")];
            tensor<int32, [2]> input_tensor_61_strides_0 = const()[name = tensor<string, []>("input_tensor_61_strides_0"), val = tensor<int32, [2]>([1, 1])];
            tensor<int32, [4]> input_tensor_61_pad_0 = const()[name = tensor<string, []>("input_tensor_61_pad_0"), val = tensor<int32, [4]>([0, 0, 0, 0])];
            tensor<int32, [2]> input_tensor_61_dilations_0 = const()[name = tensor<string, []>("input_tensor_61_dilations_0"), val = tensor<int32, [2]>([1, 1])];
            tensor<int32, []> input_tensor_61_groups_0 = const()[name = tensor<string, []>("input_tensor_61_groups_0"), val = tensor<int32, []>(1)];
            tensor<fp32, [1, 96, 60, 60]> input_tensor_61 = conv(dilations = input_tensor_61_dilations_0, groups = input_tensor_61_groups_0, pad = input_tensor_61_pad_0, pad_type = input_tensor_61_pad_type_0, strides = input_tensor_61_strides_0, weight = Conv_40_weight, x = x_281)[name = tensor<string, []>("input_tensor_61")];
            tensor<int32, [2]> input_83_axes_0 = const()[name = tensor<string, []>("input_83_axes_0"), val = tensor<int32, [2]>([2, 3])];
            tensor<bool, []> input_83_keep_dims_0 = const()[name = tensor<string, []>("input_83_keep_dims_0"), val = tensor<bool, []>(true)];
            tensor<fp32, [1, 96, 1, 1]> input_83 = reduce_mean(axes = input_83_axes_0, keep_dims = input_83_keep_dims_0, x = input_tensor_61)[name = tensor<string, []>("input_83")];
            tensor<string, []> first_333_pad_type_0 = const()[name = tensor<string, []>("first_333_pad_type_0"), val = tensor<string, []>("valid")];
            tensor<int32, [2]> first_333_strides_0 = const()[name = tensor<string, []>("first_333_strides_0"), val = tensor<int32, [2]>([1, 1])];
            tensor<int32, [4]> first_333_pad_0 = const()[name = tensor<string, []>("first_333_pad_0"), val = tensor<int32, [4]>([0, 0, 0, 0])];
            tensor<int32, [2]> first_333_dilations_0 = const()[name = tensor<string, []>("first_333_dilations_0"), val = tensor<int32, [2]>([1, 1])];
            tensor<int32, []> first_333_groups_0 = const()[name = tensor<string, []>("first_333_groups_0"), val = tensor<int32, []>(1)];
            tensor<fp32, [24]> const_38 = const()[name = tensor<string, []>("const_38"), val = tensor<fp32, [24]>(BLOBFILE(path = tensor<string, []>("@model_path/weights/weight.bin"), offset = tensor<uint64, []>(4567616)))];
            tensor<fp32, [1, 24, 1, 1]> x_293 = conv(bias = const_38, dilations = first_333_dilations_0, groups = first_333_groups_0, pad = first_333_pad_0, pad_type = first_333_pad_type_0, strides = first_333_strides_0, weight = Conv_41_weight, x = input_83)[name = tensor<string, []>("x_293")];
            tensor<fp32, [1, 24, 1, 1]> input_87 = relu(x = x_293)[name = tensor<string, []>("input_87")];
            tensor<string, []> first_335_pad_type_0 = const()[name = tensor<string, []>("first_335_pad_type_0"), val = tensor<string, []>("valid")];
            tensor<int32, [2]> first_335_strides_0 = const()[name = tensor<string, []>("first_335_strides_0"), val = tensor<int32, [2]>([1, 1])];
            tensor<int32, [4]> first_335_pad_0 = const()[name = tensor<string, []>("first_335_pad_0"), val = tensor<int32, [4]>([0, 0, 0, 0])];
            tensor<int32, [2]> first_335_dilations_0 = const()[name = tensor<string, []>("first_335_dilations_0"), val = tensor<int32, [2]>([1, 1])];
            tensor<int32, []> first_335_groups_0 = const()[name = tensor<string, []>("first_335_groups_0"), val = tensor<int32, []>(1)];
            tensor<fp32, [96, 24, 1, 1]> var_1702_weight_0 = const()[name = tensor<string, []>("op_1702_weight_0"), val = tensor<fp32, [96, 24, 1, 1]>(BLOBFILE(path = tensor<string, []>("@model_path/weights/weight.bin"), offset = tensor<uint64, []>(4567808)))];
            tensor<fp32, [96]> const_91 = const()[name = tensor<string, []>("const_91"), val = tensor<fp32, [96]>(BLOBFILE(path = tensor<string, []>("@model_path/weights/weight.bin"), offset = tensor<uint64, []>(4577088)))];
            tensor<fp32, [1, 96, 1, 1]> var_1704 = conv(bias = const_91, dilations = first_335_dilations_0, groups = first_335_groups_0, pad = first_335_pad_0, pad_type = first_335_pad_type_0, strides = first_335_strides_0, weight = var_1702_weight_0, x = input_87)[name = tensor<string, []>("op_1704")];
            tensor<fp32, []> var_1698 = const()[name = tensor<string, []>("op_1698"), val = tensor<fp32, []>(0x1p+0)];
            tensor<fp32, []> var_1699 = const()[name = tensor<string, []>("op_1699"), val = tensor<fp32, []>(0x0p+0)];
            tensor<fp32, [1, 96, 1, 1]> clip_27 = clip(alpha = var_1699, beta = var_1698, x = var_1704)[name = tensor<string, []>("clip_27")];
            tensor<fp32, [1, 96, 60, 60]> x_297 = mul(x = input_tensor_61, y = clip_27)[name = tensor<string, []>("x_297")];
            tensor<fp32, [1, 96, 60, 60]> x_299 = add(x = input_tensor_61, y = x_297)[name = tensor<string, []>("x_299")];
            tensor<string, []> input_tensor_65_pad_type_0 = const()[name = tensor<string, []>("input_tensor_65_pad_type_0"), val = tensor<string, []>("valid")];
            tensor<int32, [2]> input_tensor_65_strides_0 = const()[name = tensor<string, []>("input_tensor_65_strides_0"), val = tensor<int32, [2]>([1, 1])];
            tensor<int32, [4]> input_tensor_65_pad_0 = const()[name = tensor<string, []>("input_tensor_65_pad_0"), val = tensor<int32, [4]>([0, 0, 0, 0])];
            tensor<int32, [2]> input_tensor_65_dilations_0 = const()[name = tensor<string, []>("input_tensor_65_dilations_0"), val = tensor<int32, [2]>([1, 1])];
            tensor<int32, []> input_tensor_65_groups_0 = const()[name = tensor<string, []>("input_tensor_65_groups_0"), val = tensor<int32, []>(1)];
            tensor<fp32, [1, 96, 120, 120]> input_tensor_65 = conv(dilations = input_tensor_65_dilations_0, groups = input_tensor_65_groups_0, pad = input_tensor_65_pad_0, pad_type = input_tensor_65_pad_type_0, strides = input_tensor_65_strides_0, weight = Conv_43_weight, x = x_279)[name = tensor<string, []>("input_tensor_65")];
            tensor<int32, [2]> input_91_axes_0 = const()[name = tensor<string, []>("input_91_axes_0"), val = tensor<int32, [2]>([2, 3])];
            tensor<bool, []> input_91_keep_dims_0 = const()[name = tensor<string, []>("input_91_keep_dims_0"), val = tensor<bool, []>(true)];
            tensor<fp32, [1, 96, 1, 1]> input_91 = reduce_mean(axes = input_91_axes_0, keep_dims = input_91_keep_dims_0, x = input_tensor_65)[name = tensor<string, []>("input_91")];
            tensor<string, []> first_337_pad_type_0 = const()[name = tensor<string, []>("first_337_pad_type_0"), val = tensor<string, []>("valid")];
            tensor<int32, [2]> first_337_strides_0 = const()[name = tensor<string, []>("first_337_strides_0"), val = tensor<int32, [2]>([1, 1])];
            tensor<int32, [4]> first_337_pad_0 = const()[name = tensor<string, []>("first_337_pad_0"), val = tensor<int32, [4]>([0, 0, 0, 0])];
            tensor<int32, [2]> first_337_dilations_0 = const()[name = tensor<string, []>("first_337_dilations_0"), val = tensor<int32, [2]>([1, 1])];
            tensor<int32, []> first_337_groups_0 = const()[name = tensor<string, []>("first_337_groups_0"), val = tensor<int32, []>(1)];
            tensor<fp32, [24]> const_40 = const()[name = tensor<string, []>("const_40"), val = tensor<fp32, [24]>(BLOBFILE(path = tensor<string, []>("@model_path/weights/weight.bin"), offset = tensor<uint64, []>(4577536)))];
            tensor<fp32, [1, 24, 1, 1]> x_301 = conv(bias = const_40, dilations = first_337_dilations_0, groups = first_337_groups_0, pad = first_337_pad_0, pad_type = first_337_pad_type_0, strides = first_337_strides_0, weight = Conv_44_weight, x = input_91)[name = tensor<string, []>("x_301")];
            tensor<fp32, [1, 24, 1, 1]> input_95 = relu(x = x_301)[name = tensor<string, []>("input_95")];
            tensor<string, []> first_339_pad_type_0 = const()[name = tensor<string, []>("first_339_pad_type_0"), val = tensor<string, []>("valid")];
            tensor<int32, [2]> first_339_strides_0 = const()[name = tensor<string, []>("first_339_strides_0"), val = tensor<int32, [2]>([1, 1])];
            tensor<int32, [4]> first_339_pad_0 = const()[name = tensor<string, []>("first_339_pad_0"), val = tensor<int32, [4]>([0, 0, 0, 0])];
            tensor<int32, [2]> first_339_dilations_0 = const()[name = tensor<string, []>("first_339_dilations_0"), val = tensor<int32, [2]>([1, 1])];
            tensor<int32, []> first_339_groups_0 = const()[name = tensor<string, []>("first_339_groups_0"), val = tensor<int32, []>(1)];
            tensor<fp32, [96, 24, 1, 1]> var_1765_weight_0 = const()[name = tensor<string, []>("op_1765_weight_0"), val = tensor<fp32, [96, 24, 1, 1]>(BLOBFILE(path = tensor<string, []>("@model_path/weights/weight.bin"), offset = tensor<uint64, []>(4577728)))];
            tensor<fp32, [96]> const_92 = const()[name = tensor<string, []>("const_92"), val = tensor<fp32, [96]>(BLOBFILE(path = tensor<string, []>("@model_path/weights/weight.bin"), offset = tensor<uint64, []>(4587008)))];
            tensor<fp32, [1, 96, 1, 1]> var_1767 = conv(bias = const_92, dilations = first_339_dilations_0, groups = first_339_groups_0, pad = first_339_pad_0, pad_type = first_339_pad_type_0, strides = first_339_strides_0, weight = var_1765_weight_0, x = input_95)[name = tensor<string, []>("op_1767")];
            tensor<fp32, []> var_1761 = const()[name = tensor<string, []>("op_1761"), val = tensor<fp32, []>(0x1p+0)];
            tensor<fp32, []> var_1762 = const()[name = tensor<string, []>("op_1762"), val = tensor<fp32, []>(0x0p+0)];
            tensor<fp32, [1, 96, 1, 1]> clip_28 = clip(alpha = var_1762, beta = var_1761, x = var_1767)[name = tensor<string, []>("clip_28")];
            tensor<fp32, [1, 96, 120, 120]> x_305 = mul(x = input_tensor_65, y = clip_28)[name = tensor<string, []>("x_305")];
            tensor<fp32, [1, 96, 120, 120]> x_307 = add(x = input_tensor_65, y = x_305)[name = tensor<string, []>("x_307")];
            tensor<string, []> input_tensor_69_pad_type_0 = const()[name = tensor<string, []>("input_tensor_69_pad_type_0"), val = tensor<string, []>("valid")];
            tensor<int32, [2]> input_tensor_69_strides_0 = const()[name = tensor<string, []>("input_tensor_69_strides_0"), val = tensor<int32, [2]>([1, 1])];
            tensor<int32, [4]> input_tensor_69_pad_0 = const()[name = tensor<string, []>("input_tensor_69_pad_0"), val = tensor<int32, [4]>([0, 0, 0, 0])];
            tensor<int32, [2]> input_tensor_69_dilations_0 = const()[name = tensor<string, []>("input_tensor_69_dilations_0"), val = tensor<int32, [2]>([1, 1])];
            tensor<int32, []> input_tensor_69_groups_0 = const()[name = tensor<string, []>("input_tensor_69_groups_0"), val = tensor<int32, []>(1)];
            tensor<fp32, [1, 96, 240, 240]> input_tensor_69 = conv(dilations = input_tensor_69_dilations_0, groups = input_tensor_69_groups_0, pad = input_tensor_69_pad_0, pad_type = input_tensor_69_pad_type_0, strides = input_tensor_69_strides_0, weight = Conv_46_weight, x = x_277)[name = tensor<string, []>("input_tensor_69")];
            tensor<int32, [2]> input_99_axes_0 = const()[name = tensor<string, []>("input_99_axes_0"), val = tensor<int32, [2]>([2, 3])];
            tensor<bool, []> input_99_keep_dims_0 = const()[name = tensor<string, []>("input_99_keep_dims_0"), val = tensor<bool, []>(true)];
            tensor<fp32, [1, 96, 1, 1]> input_99 = reduce_mean(axes = input_99_axes_0, keep_dims = input_99_keep_dims_0, x = input_tensor_69)[name = tensor<string, []>("input_99")];
            tensor<string, []> first_341_pad_type_0 = const()[name = tensor<string, []>("first_341_pad_type_0"), val = tensor<string, []>("valid")];
            tensor<int32, [2]> first_341_strides_0 = const()[name = tensor<string, []>("first_341_strides_0"), val = tensor<int32, [2]>([1, 1])];
            tensor<int32, [4]> first_341_pad_0 = const()[name = tensor<string, []>("first_341_pad_0"), val = tensor<int32, [4]>([0, 0, 0, 0])];
            tensor<int32, [2]> first_341_dilations_0 = const()[name = tensor<string, []>("first_341_dilations_0"), val = tensor<int32, [2]>([1, 1])];
            tensor<int32, []> first_341_groups_0 = const()[name = tensor<string, []>("first_341_groups_0"), val = tensor<int32, []>(1)];
            tensor<fp32, [24]> const_42 = const()[name = tensor<string, []>("const_42"), val = tensor<fp32, [24]>(BLOBFILE(path = tensor<string, []>("@model_path/weights/weight.bin"), offset = tensor<uint64, []>(4587456)))];
            tensor<fp32, [1, 24, 1, 1]> x_309 = conv(bias = const_42, dilations = first_341_dilations_0, groups = first_341_groups_0, pad = first_341_pad_0, pad_type = first_341_pad_type_0, strides = first_341_strides_0, weight = Conv_47_weight, x = input_99)[name = tensor<string, []>("x_309")];
            tensor<fp32, [1, 24, 1, 1]> input_103 = relu(x = x_309)[name = tensor<string, []>("input_103")];
            tensor<string, []> first_343_pad_type_0 = const()[name = tensor<string, []>("first_343_pad_type_0"), val = tensor<string, []>("valid")];
            tensor<int32, [2]> first_343_strides_0 = const()[name = tensor<string, []>("first_343_strides_0"), val = tensor<int32, [2]>([1, 1])];
            tensor<int32, [4]> first_343_pad_0 = const()[name = tensor<string, []>("first_343_pad_0"), val = tensor<int32, [4]>([0, 0, 0, 0])];
            tensor<int32, [2]> first_343_dilations_0 = const()[name = tensor<string, []>("first_343_dilations_0"), val = tensor<int32, [2]>([1, 1])];
            tensor<int32, []> first_343_groups_0 = const()[name = tensor<string, []>("first_343_groups_0"), val = tensor<int32, []>(1)];
            tensor<fp32, [96, 24, 1, 1]> var_1828_weight_0 = const()[name = tensor<string, []>("op_1828_weight_0"), val = tensor<fp32, [96, 24, 1, 1]>(BLOBFILE(path = tensor<string, []>("@model_path/weights/weight.bin"), offset = tensor<uint64, []>(4587648)))];
            tensor<fp32, [96]> const_93 = const()[name = tensor<string, []>("const_93"), val = tensor<fp32, [96]>(BLOBFILE(path = tensor<string, []>("@model_path/weights/weight.bin"), offset = tensor<uint64, []>(4596928)))];
            tensor<fp32, [1, 96, 1, 1]> var_1830 = conv(bias = const_93, dilations = first_343_dilations_0, groups = first_343_groups_0, pad = first_343_pad_0, pad_type = first_343_pad_type_0, strides = first_343_strides_0, weight = var_1828_weight_0, x = input_103)[name = tensor<string, []>("op_1830")];
            tensor<fp32, []> var_1824 = const()[name = tensor<string, []>("op_1824"), val = tensor<fp32, []>(0x1p+0)];
            tensor<fp32, []> var_1825 = const()[name = tensor<string, []>("op_1825"), val = tensor<fp32, []>(0x0p+0)];
            tensor<fp32, [1, 96, 1, 1]> clip_29 = clip(alpha = var_1825, beta = var_1824, x = var_1830)[name = tensor<string, []>("clip_29")];
            tensor<fp32, [1, 96, 240, 240]> x_313 = mul(x = input_tensor_69, y = clip_29)[name = tensor<string, []>("x_313")];
            tensor<fp32, [1, 96, 240, 240]> x_315 = add(x = input_tensor_69, y = x_313)[name = tensor<string, []>("x_315")];
            tensor<fp32, []> second_317_scale_factor_height_0 = const()[name = tensor<string, []>("second_317_scale_factor_height_0"), val = tensor<fp32, []>(0x1p+1)];
            tensor<fp32, []> second_317_scale_factor_width_0 = const()[name = tensor<string, []>("second_317_scale_factor_width_0"), val = tensor<fp32, []>(0x1p+1)];
            tensor<fp32, [1, 96, 60, 60]> second_317 = upsample_nearest_neighbor(scale_factor_height = second_317_scale_factor_height_0, scale_factor_width = second_317_scale_factor_width_0, x = x_291)[name = tensor<string, []>("second_317")];
            tensor<fp32, [1, 96, 60, 60]> x_317 = add(x = x_299, y = second_317)[name = tensor<string, []>("x_317")];
            tensor<fp32, []> second_319_scale_factor_height_0 = const()[name = tensor<string, []>("second_319_scale_factor_height_0"), val = tensor<fp32, []>(0x1p+1)];
            tensor<fp32, []> second_319_scale_factor_width_0 = const()[name = tensor<string, []>("second_319_scale_factor_width_0"), val = tensor<fp32, []>(0x1p+1)];
            tensor<fp32, [1, 96, 120, 120]> second_319 = upsample_nearest_neighbor(scale_factor_height = second_319_scale_factor_height_0, scale_factor_width = second_319_scale_factor_width_0, x = x_317)[name = tensor<string, []>("second_319")];
            tensor<fp32, [1, 96, 120, 120]> x_319 = add(x = x_307, y = second_319)[name = tensor<string, []>("x_319")];
            tensor<fp32, []> second_321_scale_factor_height_0 = const()[name = tensor<string, []>("second_321_scale_factor_height_0"), val = tensor<fp32, []>(0x1p+1)];
            tensor<fp32, []> second_321_scale_factor_width_0 = const()[name = tensor<string, []>("second_321_scale_factor_width_0"), val = tensor<fp32, []>(0x1p+1)];
            tensor<fp32, [1, 96, 240, 240]> second_321 = upsample_nearest_neighbor(scale_factor_height = second_321_scale_factor_height_0, scale_factor_width = second_321_scale_factor_width_0, x = x_319)[name = tensor<string, []>("second_321")];
            tensor<fp32, [1, 96, 240, 240]> x_321 = add(x = x_315, y = second_321)[name = tensor<string, []>("x_321")];
            tensor<string, []> input_tensor_73_pad_type_0 = const()[name = tensor<string, []>("input_tensor_73_pad_type_0"), val = tensor<string, []>("custom")];
            tensor<int32, [4]> input_tensor_73_pad_0 = const()[name = tensor<string, []>("input_tensor_73_pad_0"), val = tensor<int32, [4]>([1, 1, 1, 1])];
            tensor<int32, [2]> input_tensor_73_strides_0 = const()[name = tensor<string, []>("input_tensor_73_strides_0"), val = tensor<int32, [2]>([1, 1])];
            tensor<int32, [2]> input_tensor_73_dilations_0 = const()[name = tensor<string, []>("input_tensor_73_dilations_0"), val = tensor<int32, [2]>([1, 1])];
            tensor<int32, []> input_tensor_73_groups_0 = const()[name = tensor<string, []>("input_tensor_73_groups_0"), val = tensor<int32, []>(1)];
            tensor<fp32, [1, 24, 30, 30]> input_tensor_73 = conv(dilations = input_tensor_73_dilations_0, groups = input_tensor_73_groups_0, pad = input_tensor_73_pad_0, pad_type = input_tensor_73_pad_type_0, strides = input_tensor_73_strides_0, weight = Conv_49_weight, x = x_291)[name = tensor<string, []>("input_tensor_73")];
            tensor<int32, [2]> input_111_axes_0 = const()[name = tensor<string, []>("input_111_axes_0"), val = tensor<int32, [2]>([2, 3])];
            tensor<bool, []> input_111_keep_dims_0 = const()[name = tensor<string, []>("input_111_keep_dims_0"), val = tensor<bool, []>(true)];
            tensor<fp32, [1, 24, 1, 1]> input_111 = reduce_mean(axes = input_111_axes_0, keep_dims = input_111_keep_dims_0, x = input_tensor_73)[name = tensor<string, []>("input_111")];
            tensor<string, []> first_351_pad_type_0 = const()[name = tensor<string, []>("first_351_pad_type_0"), val = tensor<string, []>("valid")];
            tensor<int32, [2]> first_351_strides_0 = const()[name = tensor<string, []>("first_351_strides_0"), val = tensor<int32, [2]>([1, 1])];
            tensor<int32, [4]> first_351_pad_0 = const()[name = tensor<string, []>("first_351_pad_0"), val = tensor<int32, [4]>([0, 0, 0, 0])];
            tensor<int32, [2]> first_351_dilations_0 = const()[name = tensor<string, []>("first_351_dilations_0"), val = tensor<int32, [2]>([1, 1])];
            tensor<int32, []> first_351_groups_0 = const()[name = tensor<string, []>("first_351_groups_0"), val = tensor<int32, []>(1)];
            tensor<fp32, [6]> const_44 = const()[name = tensor<string, []>("const_44"), val = tensor<fp32, [6]>([0x1.137bd4p-7, 0x1.948ccep-63, 0x1.047f1ep-14, 0x1.ad57dcp-6, 0x1.fdc73ap-65, -0x1.4c4e6ep-11])];
            tensor<fp32, [1, 6, 1, 1]> x_323 = conv(bias = const_44, dilations = first_351_dilations_0, groups = first_351_groups_0, pad = first_351_pad_0, pad_type = first_351_pad_type_0, strides = first_351_strides_0, weight = Conv_50_weight, x = input_111)[name = tensor<string, []>("x_323")];
            tensor<fp32, [1, 6, 1, 1]> input_115 = relu(x = x_323)[name = tensor<string, []>("input_115")];
            tensor<string, []> first_353_pad_type_0 = const()[name = tensor<string, []>("first_353_pad_type_0"), val = tensor<string, []>("valid")];
            tensor<int32, [2]> first_353_strides_0 = const()[name = tensor<string, []>("first_353_strides_0"), val = tensor<int32, [2]>([1, 1])];
            tensor<int32, [4]> first_353_pad_0 = const()[name = tensor<string, []>("first_353_pad_0"), val = tensor<int32, [4]>([0, 0, 0, 0])];
            tensor<int32, [2]> first_353_dilations_0 = const()[name = tensor<string, []>("first_353_dilations_0"), val = tensor<int32, [2]>([1, 1])];
            tensor<int32, []> first_353_groups_0 = const()[name = tensor<string, []>("first_353_groups_0"), val = tensor<int32, []>(1)];
            tensor<fp32, [24, 6, 1, 1]> var_1915_weight_0 = const()[name = tensor<string, []>("op_1915_weight_0"), val = tensor<fp32, [24, 6, 1, 1]>(BLOBFILE(path = tensor<string, []>("@model_path/weights/weight.bin"), offset = tensor<uint64, []>(4597376)))];
            tensor<fp32, [24]> const_94 = const()[name = tensor<string, []>("const_94"), val = tensor<fp32, [24]>(BLOBFILE(path = tensor<string, []>("@model_path/weights/weight.bin"), offset = tensor<uint64, []>(4598016)))];
            tensor<fp32, [1, 24, 1, 1]> var_1917 = conv(bias = const_94, dilations = first_353_dilations_0, groups = first_353_groups_0, pad = first_353_pad_0, pad_type = first_353_pad_type_0, strides = first_353_strides_0, weight = var_1915_weight_0, x = input_115)[name = tensor<string, []>("op_1917")];
            tensor<fp32, []> var_1911 = const()[name = tensor<string, []>("op_1911"), val = tensor<fp32, []>(0x1p+0)];
            tensor<fp32, []> var_1912 = const()[name = tensor<string, []>("op_1912"), val = tensor<fp32, []>(0x0p+0)];
            tensor<fp32, [1, 24, 1, 1]> clip_30 = clip(alpha = var_1912, beta = var_1911, x = var_1917)[name = tensor<string, []>("clip_30")];
            tensor<fp32, [1, 24, 30, 30]> x_327 = mul(x = input_tensor_73, y = clip_30)[name = tensor<string, []>("x_327")];
            tensor<fp32, [1, 24, 30, 30]> x_329 = add(x = input_tensor_73, y = x_327)[name = tensor<string, []>("x_329")];
            tensor<string, []> input_tensor_77_pad_type_0 = const()[name = tensor<string, []>("input_tensor_77_pad_type_0"), val = tensor<string, []>("custom")];
            tensor<int32, [4]> input_tensor_77_pad_0 = const()[name = tensor<string, []>("input_tensor_77_pad_0"), val = tensor<int32, [4]>([1, 1, 1, 1])];
            tensor<int32, [2]> input_tensor_77_strides_0 = const()[name = tensor<string, []>("input_tensor_77_strides_0"), val = tensor<int32, [2]>([1, 1])];
            tensor<int32, [2]> input_tensor_77_dilations_0 = const()[name = tensor<string, []>("input_tensor_77_dilations_0"), val = tensor<int32, [2]>([1, 1])];
            tensor<int32, []> input_tensor_77_groups_0 = const()[name = tensor<string, []>("input_tensor_77_groups_0"), val = tensor<int32, []>(1)];
            tensor<fp32, [1, 24, 60, 60]> input_tensor_77 = conv(dilations = input_tensor_77_dilations_0, groups = input_tensor_77_groups_0, pad = input_tensor_77_pad_0, pad_type = input_tensor_77_pad_type_0, strides = input_tensor_77_strides_0, weight = Conv_52_weight, x = x_317)[name = tensor<string, []>("input_tensor_77")];
            tensor<int32, [2]> input_117_axes_0 = const()[name = tensor<string, []>("input_117_axes_0"), val = tensor<int32, [2]>([2, 3])];
            tensor<bool, []> input_117_keep_dims_0 = const()[name = tensor<string, []>("input_117_keep_dims_0"), val = tensor<bool, []>(true)];
            tensor<fp32, [1, 24, 1, 1]> input_117 = reduce_mean(axes = input_117_axes_0, keep_dims = input_117_keep_dims_0, x = input_tensor_77)[name = tensor<string, []>("input_117")];
            tensor<string, []> first_355_pad_type_0 = const()[name = tensor<string, []>("first_355_pad_type_0"), val = tensor<string, []>("valid")];
            tensor<int32, [2]> first_355_strides_0 = const()[name = tensor<string, []>("first_355_strides_0"), val = tensor<int32, [2]>([1, 1])];
            tensor<int32, [4]> first_355_pad_0 = const()[name = tensor<string, []>("first_355_pad_0"), val = tensor<int32, [4]>([0, 0, 0, 0])];
            tensor<int32, [2]> first_355_dilations_0 = const()[name = tensor<string, []>("first_355_dilations_0"), val = tensor<int32, [2]>([1, 1])];
            tensor<int32, []> first_355_groups_0 = const()[name = tensor<string, []>("first_355_groups_0"), val = tensor<int32, []>(1)];
            tensor<fp32, [6]> const_46 = const()[name = tensor<string, []>("const_46"), val = tensor<fp32, [6]>([0x1.186cb8p-6, 0x1.5d0958p-6, -0x1.a551bep-36, -0x1.03a4c2p-62, 0x1.10b9ap-4, 0x1.d93c3ap-5])];
            tensor<fp32, [1, 6, 1, 1]> x_331 = conv(bias = const_46, dilations = first_355_dilations_0, groups = first_355_groups_0, pad = first_355_pad_0, pad_type = first_355_pad_type_0, strides = first_355_strides_0, weight = Conv_53_weight, x = input_117)[name = tensor<string, []>("x_331")];
            tensor<fp32, [1, 6, 1, 1]> input_121 = relu(x = x_331)[name = tensor<string, []>("input_121")];
            tensor<string, []> first_357_pad_type_0 = const()[name = tensor<string, []>("first_357_pad_type_0"), val = tensor<string, []>("valid")];
            tensor<int32, [2]> first_357_strides_0 = const()[name = tensor<string, []>("first_357_strides_0"), val = tensor<int32, [2]>([1, 1])];
            tensor<int32, [4]> first_357_pad_0 = const()[name = tensor<string, []>("first_357_pad_0"), val = tensor<int32, [4]>([0, 0, 0, 0])];
            tensor<int32, [2]> first_357_dilations_0 = const()[name = tensor<string, []>("first_357_dilations_0"), val = tensor<int32, [2]>([1, 1])];
            tensor<int32, []> first_357_groups_0 = const()[name = tensor<string, []>("first_357_groups_0"), val = tensor<int32, []>(1)];
            tensor<fp32, [24, 6, 1, 1]> var_1978_weight_0 = const()[name = tensor<string, []>("op_1978_weight_0"), val = tensor<fp32, [24, 6, 1, 1]>(BLOBFILE(path = tensor<string, []>("@model_path/weights/weight.bin"), offset = tensor<uint64, []>(4598208)))];
            tensor<fp32, [24]> const_95 = const()[name = tensor<string, []>("const_95"), val = tensor<fp32, [24]>(BLOBFILE(path = tensor<string, []>("@model_path/weights/weight.bin"), offset = tensor<uint64, []>(4598848)))];
            tensor<fp32, [1, 24, 1, 1]> var_1980 = conv(bias = const_95, dilations = first_357_dilations_0, groups = first_357_groups_0, pad = first_357_pad_0, pad_type = first_357_pad_type_0, strides = first_357_strides_0, weight = var_1978_weight_0, x = input_121)[name = tensor<string, []>("op_1980")];
            tensor<fp32, []> var_1974 = const()[name = tensor<string, []>("op_1974"), val = tensor<fp32, []>(0x1p+0)];
            tensor<fp32, []> var_1975 = const()[name = tensor<string, []>("op_1975"), val = tensor<fp32, []>(0x0p+0)];
            tensor<fp32, [1, 24, 1, 1]> clip_31 = clip(alpha = var_1975, beta = var_1974, x = var_1980)[name = tensor<string, []>("clip_31")];
            tensor<fp32, [1, 24, 60, 60]> x_335 = mul(x = input_tensor_77, y = clip_31)[name = tensor<string, []>("x_335")];
            tensor<fp32, [1, 24, 60, 60]> x_337 = add(x = input_tensor_77, y = x_335)[name = tensor<string, []>("x_337")];
            tensor<string, []> input_tensor_81_pad_type_0 = const()[name = tensor<string, []>("input_tensor_81_pad_type_0"), val = tensor<string, []>("custom")];
            tensor<int32, [4]> input_tensor_81_pad_0 = const()[name = tensor<string, []>("input_tensor_81_pad_0"), val = tensor<int32, [4]>([1, 1, 1, 1])];
            tensor<int32, [2]> input_tensor_81_strides_0 = const()[name = tensor<string, []>("input_tensor_81_strides_0"), val = tensor<int32, [2]>([1, 1])];
            tensor<int32, [2]> input_tensor_81_dilations_0 = const()[name = tensor<string, []>("input_tensor_81_dilations_0"), val = tensor<int32, [2]>([1, 1])];
            tensor<int32, []> input_tensor_81_groups_0 = const()[name = tensor<string, []>("input_tensor_81_groups_0"), val = tensor<int32, []>(1)];
            tensor<fp32, [1, 24, 120, 120]> input_tensor_81 = conv(dilations = input_tensor_81_dilations_0, groups = input_tensor_81_groups_0, pad = input_tensor_81_pad_0, pad_type = input_tensor_81_pad_type_0, strides = input_tensor_81_strides_0, weight = Conv_55_weight, x = x_319)[name = tensor<string, []>("input_tensor_81")];
            tensor<int32, [2]> input_123_axes_0 = const()[name = tensor<string, []>("input_123_axes_0"), val = tensor<int32, [2]>([2, 3])];
            tensor<bool, []> input_123_keep_dims_0 = const()[name = tensor<string, []>("input_123_keep_dims_0"), val = tensor<bool, []>(true)];
            tensor<fp32, [1, 24, 1, 1]> input_123 = reduce_mean(axes = input_123_axes_0, keep_dims = input_123_keep_dims_0, x = input_tensor_81)[name = tensor<string, []>("input_123")];
            tensor<string, []> first_359_pad_type_0 = const()[name = tensor<string, []>("first_359_pad_type_0"), val = tensor<string, []>("valid")];
            tensor<int32, [2]> first_359_strides_0 = const()[name = tensor<string, []>("first_359_strides_0"), val = tensor<int32, [2]>([1, 1])];
            tensor<int32, [4]> first_359_pad_0 = const()[name = tensor<string, []>("first_359_pad_0"), val = tensor<int32, [4]>([0, 0, 0, 0])];
            tensor<int32, [2]> first_359_dilations_0 = const()[name = tensor<string, []>("first_359_dilations_0"), val = tensor<int32, [2]>([1, 1])];
            tensor<int32, []> first_359_groups_0 = const()[name = tensor<string, []>("first_359_groups_0"), val = tensor<int32, []>(1)];
            tensor<fp32, [6]> const_48 = const()[name = tensor<string, []>("const_48"), val = tensor<fp32, [6]>([0x1.89537p-5, 0x1.2451c6p-5, -0x1.456eap-7, 0x1.80b378p-9, 0x1.621208p-5, 0x1.21b3ecp-4])];
            tensor<fp32, [1, 6, 1, 1]> x_339 = conv(bias = const_48, dilations = first_359_dilations_0, groups = first_359_groups_0, pad = first_359_pad_0, pad_type = first_359_pad_type_0, strides = first_359_strides_0, weight = Conv_56_weight, x = input_123)[name = tensor<string, []>("x_339")];
            tensor<fp32, [1, 6, 1, 1]> input_127 = relu(x = x_339)[name = tensor<string, []>("input_127")];
            tensor<string, []> first_361_pad_type_0 = const()[name = tensor<string, []>("first_361_pad_type_0"), val = tensor<string, []>("valid")];
            tensor<int32, [2]> first_361_strides_0 = const()[name = tensor<string, []>("first_361_strides_0"), val = tensor<int32, [2]>([1, 1])];
            tensor<int32, [4]> first_361_pad_0 = const()[name = tensor<string, []>("first_361_pad_0"), val = tensor<int32, [4]>([0, 0, 0, 0])];
            tensor<int32, [2]> first_361_dilations_0 = const()[name = tensor<string, []>("first_361_dilations_0"), val = tensor<int32, [2]>([1, 1])];
            tensor<int32, []> first_361_groups_0 = const()[name = tensor<string, []>("first_361_groups_0"), val = tensor<int32, []>(1)];
            tensor<fp32, [24, 6, 1, 1]> var_2041_weight_0 = const()[name = tensor<string, []>("op_2041_weight_0"), val = tensor<fp32, [24, 6, 1, 1]>(BLOBFILE(path = tensor<string, []>("@model_path/weights/weight.bin"), offset = tensor<uint64, []>(4599040)))];
            tensor<fp32, [24]> const_96 = const()[name = tensor<string, []>("const_96"), val = tensor<fp32, [24]>(BLOBFILE(path = tensor<string, []>("@model_path/weights/weight.bin"), offset = tensor<uint64, []>(4599680)))];
            tensor<fp32, [1, 24, 1, 1]> var_2043 = conv(bias = const_96, dilations = first_361_dilations_0, groups = first_361_groups_0, pad = first_361_pad_0, pad_type = first_361_pad_type_0, strides = first_361_strides_0, weight = var_2041_weight_0, x = input_127)[name = tensor<string, []>("op_2043")];
            tensor<fp32, []> var_2037 = const()[name = tensor<string, []>("op_2037"), val = tensor<fp32, []>(0x1p+0)];
            tensor<fp32, []> var_2038 = const()[name = tensor<string, []>("op_2038"), val = tensor<fp32, []>(0x0p+0)];
            tensor<fp32, [1, 24, 1, 1]> clip_32 = clip(alpha = var_2038, beta = var_2037, x = var_2043)[name = tensor<string, []>("clip_32")];
            tensor<fp32, [1, 24, 120, 120]> x_343 = mul(x = input_tensor_81, y = clip_32)[name = tensor<string, []>("x_343")];
            tensor<fp32, [1, 24, 120, 120]> x_345 = add(x = input_tensor_81, y = x_343)[name = tensor<string, []>("x_345")];
            tensor<string, []> input_tensor_85_pad_type_0 = const()[name = tensor<string, []>("input_tensor_85_pad_type_0"), val = tensor<string, []>("custom")];
            tensor<int32, [4]> input_tensor_85_pad_0 = const()[name = tensor<string, []>("input_tensor_85_pad_0"), val = tensor<int32, [4]>([1, 1, 1, 1])];
            tensor<int32, [2]> input_tensor_85_strides_0 = const()[name = tensor<string, []>("input_tensor_85_strides_0"), val = tensor<int32, [2]>([1, 1])];
            tensor<int32, [2]> input_tensor_85_dilations_0 = const()[name = tensor<string, []>("input_tensor_85_dilations_0"), val = tensor<int32, [2]>([1, 1])];
            tensor<int32, []> input_tensor_85_groups_0 = const()[name = tensor<string, []>("input_tensor_85_groups_0"), val = tensor<int32, []>(1)];
            tensor<fp32, [1, 24, 240, 240]> input_tensor_85 = conv(dilations = input_tensor_85_dilations_0, groups = input_tensor_85_groups_0, pad = input_tensor_85_pad_0, pad_type = input_tensor_85_pad_type_0, strides = input_tensor_85_strides_0, weight = Conv_58_weight, x = x_321)[name = tensor<string, []>("input_tensor_85")];
            tensor<int32, [2]> input_131_axes_0 = const()[name = tensor<string, []>("input_131_axes_0"), val = tensor<int32, [2]>([2, 3])];
            tensor<bool, []> input_131_keep_dims_0 = const()[name = tensor<string, []>("input_131_keep_dims_0"), val = tensor<bool, []>(true)];
            tensor<fp32, [1, 24, 1, 1]> input_131 = reduce_mean(axes = input_131_axes_0, keep_dims = input_131_keep_dims_0, x = input_tensor_85)[name = tensor<string, []>("input_131")];
            tensor<string, []> first_363_pad_type_0 = const()[name = tensor<string, []>("first_363_pad_type_0"), val = tensor<string, []>("valid")];
            tensor<int32, [2]> first_363_strides_0 = const()[name = tensor<string, []>("first_363_strides_0"), val = tensor<int32, [2]>([1, 1])];
            tensor<int32, [4]> first_363_pad_0 = const()[name = tensor<string, []>("first_363_pad_0"), val = tensor<int32, [4]>([0, 0, 0, 0])];
            tensor<int32, [2]> first_363_dilations_0 = const()[name = tensor<string, []>("first_363_dilations_0"), val = tensor<int32, [2]>([1, 1])];
            tensor<int32, []> first_363_groups_0 = const()[name = tensor<string, []>("first_363_groups_0"), val = tensor<int32, []>(1)];
            tensor<fp32, [6]> const_50 = const()[name = tensor<string, []>("const_50"), val = tensor<fp32, [6]>([0x1.ac0fbp-5, 0x1.4c9902p-6, 0x1.8818bep-5, 0x1.add52ap-5, 0x1.207236p-7, 0x1.da0626p-5])];
            tensor<fp32, [1, 6, 1, 1]> x_347 = conv(bias = const_50, dilations = first_363_dilations_0, groups = first_363_groups_0, pad = first_363_pad_0, pad_type = first_363_pad_type_0, strides = first_363_strides_0, weight = Conv_59_weight, x = input_131)[name = tensor<string, []>("x_347")];
            tensor<fp32, [1, 6, 1, 1]> input_135 = relu(x = x_347)[name = tensor<string, []>("input_135")];
            tensor<string, []> first_365_pad_type_0 = const()[name = tensor<string, []>("first_365_pad_type_0"), val = tensor<string, []>("valid")];
            tensor<int32, [2]> first_365_strides_0 = const()[name = tensor<string, []>("first_365_strides_0"), val = tensor<int32, [2]>([1, 1])];
            tensor<int32, [4]> first_365_pad_0 = const()[name = tensor<string, []>("first_365_pad_0"), val = tensor<int32, [4]>([0, 0, 0, 0])];
            tensor<int32, [2]> first_365_dilations_0 = const()[name = tensor<string, []>("first_365_dilations_0"), val = tensor<int32, [2]>([1, 1])];
            tensor<int32, []> first_365_groups_0 = const()[name = tensor<string, []>("first_365_groups_0"), val = tensor<int32, []>(1)];
            tensor<fp32, [24, 6, 1, 1]> var_2104_weight_0 = const()[name = tensor<string, []>("op_2104_weight_0"), val = tensor<fp32, [24, 6, 1, 1]>(BLOBFILE(path = tensor<string, []>("@model_path/weights/weight.bin"), offset = tensor<uint64, []>(4599872)))];
            tensor<fp32, [24]> const_97 = const()[name = tensor<string, []>("const_97"), val = tensor<fp32, [24]>(BLOBFILE(path = tensor<string, []>("@model_path/weights/weight.bin"), offset = tensor<uint64, []>(4600512)))];
            tensor<fp32, [1, 24, 1, 1]> var_2106 = conv(bias = const_97, dilations = first_365_dilations_0, groups = first_365_groups_0, pad = first_365_pad_0, pad_type = first_365_pad_type_0, strides = first_365_strides_0, weight = var_2104_weight_0, x = input_135)[name = tensor<string, []>("op_2106")];
            tensor<fp32, []> var_2100 = const()[name = tensor<string, []>("op_2100"), val = tensor<fp32, []>(0x1p+0)];
            tensor<fp32, []> var_2101 = const()[name = tensor<string, []>("op_2101"), val = tensor<fp32, []>(0x0p+0)];
            tensor<fp32, [1, 24, 1, 1]> clip_33 = clip(alpha = var_2101, beta = var_2100, x = var_2106)[name = tensor<string, []>("clip_33")];
            tensor<fp32, [1, 24, 240, 240]> x_351 = mul(x = input_tensor_85, y = clip_33)[name = tensor<string, []>("x_351")];
            tensor<fp32, [1, 24, 240, 240]> x_353 = add(x = input_tensor_85, y = x_351)[name = tensor<string, []>("x_353")];
            tensor<fp32, []> x_355_scale_factor_height_0 = const()[name = tensor<string, []>("x_355_scale_factor_height_0"), val = tensor<fp32, []>(0x1p+3)];
            tensor<fp32, []> x_355_scale_factor_width_0 = const()[name = tensor<string, []>("x_355_scale_factor_width_0"), val = tensor<fp32, []>(0x1p+3)];
            tensor<fp32, [1, 24, 240, 240]> x_355 = upsample_nearest_neighbor(scale_factor_height = x_355_scale_factor_height_0, scale_factor_width = x_355_scale_factor_width_0, x = x_329)[name = tensor<string, []>("x_355")];
            tensor<fp32, []> x_357_scale_factor_height_0 = const()[name = tensor<string, []>("x_357_scale_factor_height_0"), val = tensor<fp32, []>(0x1p+2)];
            tensor<fp32, []> x_357_scale_factor_width_0 = const()[name = tensor<string, []>("x_357_scale_factor_width_0"), val = tensor<fp32, []>(0x1p+2)];
            tensor<fp32, [1, 24, 240, 240]> x_357 = upsample_nearest_neighbor(scale_factor_height = x_357_scale_factor_height_0, scale_factor_width = x_357_scale_factor_width_0, x = x_337)[name = tensor<string, []>("x_357")];
            tensor<fp32, []> x_359_scale_factor_height_0 = const()[name = tensor<string, []>("x_359_scale_factor_height_0"), val = tensor<fp32, []>(0x1p+1)];
            tensor<fp32, []> x_359_scale_factor_width_0 = const()[name = tensor<string, []>("x_359_scale_factor_width_0"), val = tensor<fp32, []>(0x1p+1)];
            tensor<fp32, [1, 24, 240, 240]> x_359 = upsample_nearest_neighbor(scale_factor_height = x_359_scale_factor_height_0, scale_factor_width = x_359_scale_factor_width_0, x = x_345)[name = tensor<string, []>("x_359")];
            tensor<int32, []> var_2143 = const()[name = tensor<string, []>("op_2143"), val = tensor<int32, []>(1)];
            tensor<bool, []> x_371_interleave_0 = const()[name = tensor<string, []>("x_371_interleave_0"), val = tensor<bool, []>(false)];
            tensor<fp32, [1, 96, 240, 240]> x_371 = concat(axis = var_2143, interleave = x_371_interleave_0, values = (x_355, x_357, x_359, x_353))[name = tensor<string, []>("x_371")];
            tensor<string, []> input_145_pad_type_0 = const()[name = tensor<string, []>("input_145_pad_type_0"), val = tensor<string, []>("custom")];
            tensor<int32, [4]> input_145_pad_0 = const()[name = tensor<string, []>("input_145_pad_0"), val = tensor<int32, [4]>([1, 1, 1, 1])];
            tensor<int32, [2]> input_145_strides_0 = const()[name = tensor<string, []>("input_145_strides_0"), val = tensor<int32, [2]>([1, 1])];
            tensor<int32, [2]> input_145_dilations_0 = const()[name = tensor<string, []>("input_145_dilations_0"), val = tensor<int32, [2]>([1, 1])];
            tensor<int32, []> input_145_groups_0 = const()[name = tensor<string, []>("input_145_groups_0"), val = tensor<int32, []>(1)];
            tensor<fp32, [24, 96, 3, 3]> const_56 = const()[name = tensor<string, []>("const_56"), val = tensor<fp32, [24, 96, 3, 3]>(BLOBFILE(path = tensor<string, []>("@model_path/weights/weight.bin"), offset = tensor<uint64, []>(4600704)))];
            tensor<fp32, [24]> const_57 = const()[name = tensor<string, []>("const_57"), val = tensor<fp32, [24]>(BLOBFILE(path = tensor<string, []>("@model_path/weights/weight.bin"), offset = tensor<uint64, []>(4683712)))];
            tensor<fp32, [1, 24, 240, 240]> input_147 = conv(bias = const_57, dilations = input_145_dilations_0, groups = input_145_groups_0, pad = input_145_pad_0, pad_type = input_145_pad_type_0, strides = input_145_strides_0, weight = const_56, x = x_371)[name = tensor<string, []>("input_147")];
            tensor<fp32, [1, 24, 240, 240]> x_373 = relu(x = input_147)[name = tensor<string, []>("x_373")];
            tensor<string, []> x_375_pad_type_0 = const()[name = tensor<string, []>("x_375_pad_type_0"), val = tensor<string, []>("valid")];
            tensor<int32, [2]> x_375_strides_0 = const()[name = tensor<string, []>("x_375_strides_0"), val = tensor<int32, [2]>([2, 2])];
            tensor<int32, [4]> x_375_pad_0 = const()[name = tensor<string, []>("x_375_pad_0"), val = tensor<int32, [4]>([0, 0, 0, 0])];
            tensor<int32, [2]> x_375_dilations_0 = const()[name = tensor<string, []>("x_375_dilations_0"), val = tensor<int32, [2]>([1, 1])];
            tensor<int32, []> x_375_groups_0 = const()[name = tensor<string, []>("x_375_groups_0"), val = tensor<int32, []>(1)];
            tensor<int32, [4]> x_375_has_output_shape_output_shape_0 = const()[name = tensor<string, []>("x_375_has_output_shape_output_shape_0"), val = tensor<int32, [4]>([1, 24, 480, 480])];
            tensor<fp32, [24, 24, 2, 2]> const_58 = const()[name = tensor<string, []>("const_58"), val = tensor<fp32, [24, 24, 2, 2]>(BLOBFILE(path = tensor<string, []>("@model_path/weights/weight.bin"), offset = tensor<uint64, []>(4683904)))];
            tensor<fp32, [24]> const_59 = const()[name = tensor<string, []>("const_59"), val = tensor<fp32, [24]>(BLOBFILE(path = tensor<string, []>("@model_path/weights/weight.bin"), offset = tensor<uint64, []>(4693184)))];
            tensor<fp32, [1, 24, 480, 480]> input_153 = conv_transpose(bias = const_59, dilations = x_375_dilations_0, groups = x_375_groups_0, output_shape = x_375_has_output_shape_output_shape_0, pad = x_375_pad_0, pad_type = x_375_pad_type_0, strides = x_375_strides_0, weight = const_58, x = x_373)[name = tensor<string, []>("input_153")];
            tensor<fp32, [1, 24, 480, 480]> x_379 = relu(x = input_153)[name = tensor<string, []>("x_379")];
            tensor<string, []> x_381_pad_type_0 = const()[name = tensor<string, []>("x_381_pad_type_0"), val = tensor<string, []>("valid")];
            tensor<int32, [2]> x_381_strides_0 = const()[name = tensor<string, []>("x_381_strides_0"), val = tensor<int32, [2]>([2, 2])];
            tensor<int32, [4]> x_381_pad_0 = const()[name = tensor<string, []>("x_381_pad_0"), val = tensor<int32, [4]>([0, 0, 0, 0])];
            tensor<int32, [2]> x_381_dilations_0 = const()[name = tensor<string, []>("x_381_dilations_0"), val = tensor<int32, [2]>([1, 1])];
            tensor<int32, []> x_381_groups_0 = const()[name = tensor<string, []>("x_381_groups_0"), val = tensor<int32, []>(1)];
            tensor<int32, [4]> x_381_has_output_shape_output_shape_0 = const()[name = tensor<string, []>("x_381_has_output_shape_output_shape_0"), val = tensor<int32, [4]>([1, 1, 960, 960])];
            tensor<fp32, [1]> const_53 = const()[name = tensor<string, []>("const_53"), val = tensor<fp32, [1]>([-0x1.dde63p-3])];
            tensor<fp32, [1, 1, 960, 960]> x_1 = conv_transpose(bias = const_53, dilations = x_381_dilations_0, groups = x_381_groups_0, output_shape = x_381_has_output_shape_output_shape_0, pad = x_381_pad_0, pad_type = x_381_pad_type_0, strides = x_381_strides_0, weight = ConvTranspose_2_weight, x = x_379)[name = tensor<string, []>("x")];
            tensor<fp32, [1, 1, 960, 960]> var_2219 = sigmoid(x = x_1)[name = tensor<string, []>("op_2219")];
        } -> (var_2219);
}