program(1.0)
[buildInfo = dict<tensor<string, []>, tensor<string, []>>({{"coremlc-component-MIL", "3520.4.1"}, {"coremlc-version", "3520.5.1"}, {"coremltools-component-torch", "2.11.0"}, {"coremltools-source-dialect", "TorchScript"}, {"coremltools-version", "9.0"}})]
{
    func main<ios16>(tensor<fp32, [32, 3, 48, 320]> x) {
            tensor<fp32, [120]> initializers_onnx_initializer_218 = const()[name = tensor<string, []>("initializers_onnx_initializer_218"), val = tensor<fp32, [120]>(BLOBFILE(path = tensor<string, []>("@model_path/weights/weight.bin"), offset = tensor<uint64, []>(64)))];
            tensor<fp32, [120]> initializers_onnx_initializer_217 = const()[name = tensor<string, []>("initializers_onnx_initializer_217"), val = tensor<fp32, [120]>(BLOBFILE(path = tensor<string, []>("@model_path/weights/weight.bin"), offset = tensor<uint64, []>(640)))];
            tensor<fp32, []> initializers_onnx_initializer_216 = const()[name = tensor<string, []>("initializers_onnx_initializer_216"), val = tensor<fp32, []>(0x1.0c6f7ap-20)];
            tensor<fp32, []> initializers_onnx_initializer_215 = const()[name = tensor<string, []>("initializers_onnx_initializer_215"), val = tensor<fp32, []>(0x1p+1)];
            tensor<fp32, [120]> initializers_onnx_initializer_210 = const()[name = tensor<string, []>("initializers_onnx_initializer_210"), val = tensor<fp32, [120]>(BLOBFILE(path = tensor<string, []>("@model_path/weights/weight.bin"), offset = tensor<uint64, []>(1216)))];
            tensor<fp32, [120]> initializers_onnx_initializer_209 = const()[name = tensor<string, []>("initializers_onnx_initializer_209"), val = tensor<fp32, [120]>(BLOBFILE(path = tensor<string, []>("@model_path/weights/weight.bin"), offset = tensor<uint64, []>(1792)))];
            tensor<fp32, []> initializers_onnx_initializer_208 = const()[name = tensor<string, []>("initializers_onnx_initializer_208"), val = tensor<fp32, []>(0x1.4f8b58p-17)];
            tensor<fp32, []> initializers_onnx_initializer_207 = const()[name = tensor<string, []>("initializers_onnx_initializer_207"), val = tensor<fp32, []>(0x1p+1)];
            tensor<fp32, [1]> initializers_onnx_initializer_195 = const()[name = tensor<string, []>("initializers_onnx_initializer_195"), val = tensor<fp32, [1]>([0x1.08654ap-2])];
            tensor<fp32, [120]> initializers_onnx_initializer_187 = const()[name = tensor<string, []>("initializers_onnx_initializer_187"), val = tensor<fp32, [120]>(BLOBFILE(path = tensor<string, []>("@model_path/weights/weight.bin"), offset = tensor<uint64, []>(2368)))];
            tensor<fp32, [120]> initializers_onnx_initializer_186 = const()[name = tensor<string, []>("initializers_onnx_initializer_186"), val = tensor<fp32, [120]>(BLOBFILE(path = tensor<string, []>("@model_path/weights/weight.bin"), offset = tensor<uint64, []>(2944)))];
            tensor<fp32, []> initializers_onnx_initializer_185 = const()[name = tensor<string, []>("initializers_onnx_initializer_185"), val = tensor<fp32, []>(0x1.4f8b58p-17)];
            tensor<fp32, []> initializers_onnx_initializer_184 = const()[name = tensor<string, []>("initializers_onnx_initializer_184"), val = tensor<fp32, []>(0x1p+1)];
            tensor<fp32, [120]> initializers_onnx_initializer_179 = const()[name = tensor<string, []>("initializers_onnx_initializer_179"), val = tensor<fp32, [120]>(BLOBFILE(path = tensor<string, []>("@model_path/weights/weight.bin"), offset = tensor<uint64, []>(3520)))];
            tensor<fp32, [120]> initializers_onnx_initializer_178 = const()[name = tensor<string, []>("initializers_onnx_initializer_178"), val = tensor<fp32, [120]>(BLOBFILE(path = tensor<string, []>("@model_path/weights/weight.bin"), offset = tensor<uint64, []>(4096)))];
            tensor<fp32, []> initializers_onnx_initializer_177 = const()[name = tensor<string, []>("initializers_onnx_initializer_177"), val = tensor<fp32, []>(0x1.4f8b58p-17)];
            tensor<fp32, []> initializers_onnx_initializer_176 = const()[name = tensor<string, []>("initializers_onnx_initializer_176"), val = tensor<fp32, []>(0x1p+1)];
            tensor<fp32, [1]> initializers_onnx_initializer_164 = const()[name = tensor<string, []>("initializers_onnx_initializer_164"), val = tensor<fp32, [1]>([0x1.08654ap-2])];
            tensor<fp32, [120]> initializers_onnx_initializer_156 = const()[name = tensor<string, []>("initializers_onnx_initializer_156"), val = tensor<fp32, [120]>(BLOBFILE(path = tensor<string, []>("@model_path/weights/weight.bin"), offset = tensor<uint64, []>(4672)))];
            tensor<fp32, [120]> initializers_onnx_initializer_155 = const()[name = tensor<string, []>("initializers_onnx_initializer_155"), val = tensor<fp32, [120]>(BLOBFILE(path = tensor<string, []>("@model_path/weights/weight.bin"), offset = tensor<uint64, []>(5248)))];
            tensor<fp32, []> initializers_onnx_initializer_154 = const()[name = tensor<string, []>("initializers_onnx_initializer_154"), val = tensor<fp32, []>(0x1.4f8b58p-17)];
            tensor<fp32, []> initializers_onnx_initializer_153 = const()[name = tensor<string, []>("initializers_onnx_initializer_153"), val = tensor<fp32, []>(0x1p+1)];
            tensor<fp32, [1]> initializers_onnx_initializer_143 = const()[name = tensor<string, []>("initializers_onnx_initializer_143"), val = tensor<fp32, [1]>([-0x1.f51604p-2])];
            tensor<fp32, [1]> initializers_onnx_initializer_142 = const()[name = tensor<string, []>("initializers_onnx_initializer_142"), val = tensor<fp32, [1]>([0x1.0839acp+2])];
            tensor<fp32, [1]> initializers_onnx_initializer_138 = const()[name = tensor<string, []>("initializers_onnx_initializer_138"), val = tensor<fp32, [1]>([0x1.d67868p-14])];
            tensor<fp32, [1]> initializers_onnx_initializer_137 = const()[name = tensor<string, []>("initializers_onnx_initializer_137"), val = tensor<fp32, [1]>([0x1.f5e726p-5])];
            tensor<fp32, [1]> initializers_onnx_initializer_133 = const()[name = tensor<string, []>("initializers_onnx_initializer_133"), val = tensor<fp32, [1]>([0x1.ccbafap-4])];
            tensor<fp32, [1]> initializers_onnx_initializer_132 = const()[name = tensor<string, []>("initializers_onnx_initializer_132"), val = tensor<fp32, [1]>([0x1.66192ap-2])];
            tensor<fp32, [1]> initializers_onnx_initializer_128 = const()[name = tensor<string, []>("initializers_onnx_initializer_128"), val = tensor<fp32, [1]>([0x1.53dddp-18])];
            tensor<fp32, [1]> initializers_onnx_initializer_127 = const()[name = tensor<string, []>("initializers_onnx_initializer_127"), val = tensor<fp32, [1]>([0x1.0988b2p-7])];
            tensor<fp32, [1]> initializers_onnx_initializer_123 = const()[name = tensor<string, []>("initializers_onnx_initializer_123"), val = tensor<fp32, [1]>([0x1.6ea31ep-3])];
            tensor<fp32, [1]> initializers_onnx_initializer_122 = const()[name = tensor<string, []>("initializers_onnx_initializer_122"), val = tensor<fp32, [1]>([0x1.35babp-1])];
            tensor<fp32, [1]> initializers_onnx_initializer_116 = const()[name = tensor<string, []>("initializers_onnx_initializer_116"), val = tensor<fp32, [1]>([-0x1.af610ap+0])];
            tensor<fp32, [1]> initializers_onnx_initializer_115 = const()[name = tensor<string, []>("initializers_onnx_initializer_115"), val = tensor<fp32, [1]>([0x1.94ee36p+0])];
            tensor<fp32, [1]> initializers_onnx_initializer_111 = const()[name = tensor<string, []>("initializers_onnx_initializer_111"), val = tensor<fp32, [1]>([0x1.86422p-5])];
            tensor<fp32, [1]> initializers_onnx_initializer_110 = const()[name = tensor<string, []>("initializers_onnx_initializer_110"), val = tensor<fp32, [1]>([0x1.48f3d2p-1])];
            tensor<fp32, [1]> initializers_onnx_initializer_104 = const()[name = tensor<string, []>("initializers_onnx_initializer_104"), val = tensor<fp32, [1]>([-0x1.ff05e2p-1])];
            tensor<fp32, [1]> initializers_onnx_initializer_103 = const()[name = tensor<string, []>("initializers_onnx_initializer_103"), val = tensor<fp32, [1]>([0x1.1a3ffp+0])];
            tensor<fp32, [1]> initializers_onnx_initializer_99 = const()[name = tensor<string, []>("initializers_onnx_initializer_99"), val = tensor<fp32, [1]>([0x1.638f1ep-3])];
            tensor<fp32, [1]> initializers_onnx_initializer_98 = const()[name = tensor<string, []>("initializers_onnx_initializer_98"), val = tensor<fp32, [1]>([0x1.108902p-1])];
            tensor<fp32, [1]> initializers_onnx_initializer_94 = const()[name = tensor<string, []>("initializers_onnx_initializer_94"), val = tensor<fp32, [1]>([-0x1.197dc2p-16])];
            tensor<fp32, [1]> initializers_onnx_initializer_93 = const()[name = tensor<string, []>("initializers_onnx_initializer_93"), val = tensor<fp32, [1]>([0x1.dec192p-7])];
            tensor<fp32, [1]> initializers_onnx_initializer_89 = const()[name = tensor<string, []>("initializers_onnx_initializer_89"), val = tensor<fp32, [1]>([0x1.6d769p-3])];
            tensor<fp32, [1]> initializers_onnx_initializer_88 = const()[name = tensor<string, []>("initializers_onnx_initializer_88"), val = tensor<fp32, [1]>([0x1.3e843ap-1])];
            tensor<fp32, [1]> initializers_onnx_initializer_84 = const()[name = tensor<string, []>("initializers_onnx_initializer_84"), val = tensor<fp32, [1]>([-0x1.4b9c2p-16])];
            tensor<fp32, [1]> initializers_onnx_initializer_83 = const()[name = tensor<string, []>("initializers_onnx_initializer_83"), val = tensor<fp32, [1]>([0x1.e46c1ep-7])];
            tensor<fp32, [1]> initializers_onnx_initializer_79 = const()[name = tensor<string, []>("initializers_onnx_initializer_79"), val = tensor<fp32, [1]>([0x1.44b5bcp-4])];
            tensor<fp32, [1]> initializers_onnx_initializer_78 = const()[name = tensor<string, []>("initializers_onnx_initializer_78"), val = tensor<fp32, [1]>([0x1.16999p-1])];
            tensor<fp32, [1]> initializers_onnx_initializer_74 = const()[name = tensor<string, []>("initializers_onnx_initializer_74"), val = tensor<fp32, [1]>([-0x1.b24ee2p-16])];
            tensor<fp32, [1]> initializers_onnx_initializer_73 = const()[name = tensor<string, []>("initializers_onnx_initializer_73"), val = tensor<fp32, [1]>([0x1.ff4f74p-7])];
            tensor<fp32, [1]> initializers_onnx_initializer_69 = const()[name = tensor<string, []>("initializers_onnx_initializer_69"), val = tensor<fp32, [1]>([-0x1.41d63cp-3])];
            tensor<fp32, [1]> initializers_onnx_initializer_68 = const()[name = tensor<string, []>("initializers_onnx_initializer_68"), val = tensor<fp32, [1]>([0x1.cb6e74p-2])];
            tensor<fp32, [1]> initializers_onnx_initializer_64 = const()[name = tensor<string, []>("initializers_onnx_initializer_64"), val = tensor<fp32, [1]>([-0x1.5701aap-16])];
            tensor<fp32, [1]> initializers_onnx_initializer_63 = const()[name = tensor<string, []>("initializers_onnx_initializer_63"), val = tensor<fp32, [1]>([0x1.dfd004p-7])];
            tensor<fp32, [1]> initializers_onnx_initializer_59 = const()[name = tensor<string, []>("initializers_onnx_initializer_59"), val = tensor<fp32, [1]>([-0x1.06acd4p-2])];
            tensor<fp32, [1]> initializers_onnx_initializer_58 = const()[name = tensor<string, []>("initializers_onnx_initializer_58"), val = tensor<fp32, [1]>([0x1.c8c9ccp-2])];
            tensor<fp32, [1]> initializers_onnx_initializer_54 = const()[name = tensor<string, []>("initializers_onnx_initializer_54"), val = tensor<fp32, [1]>([-0x1.2925bep-21])];
            tensor<fp32, [1]> initializers_onnx_initializer_53 = const()[name = tensor<string, []>("initializers_onnx_initializer_53"), val = tensor<fp32, [1]>([0x1.1d1cf4p-5])];
            tensor<fp32, [1]> initializers_onnx_initializer_49 = const()[name = tensor<string, []>("initializers_onnx_initializer_49"), val = tensor<fp32, [1]>([-0x1.19552cp-6])];
            tensor<fp32, [1]> initializers_onnx_initializer_48 = const()[name = tensor<string, []>("initializers_onnx_initializer_48"), val = tensor<fp32, [1]>([0x1.710decp-2])];
            tensor<fp32, [1]> initializers_onnx_initializer_44 = const()[name = tensor<string, []>("initializers_onnx_initializer_44"), val = tensor<fp32, [1]>([0x1.e14022p-17])];
            tensor<fp32, [1]> initializers_onnx_initializer_43 = const()[name = tensor<string, []>("initializers_onnx_initializer_43"), val = tensor<fp32, [1]>([0x1.81d5b6p-6])];
            tensor<fp32, [1]> initializers_onnx_initializer_39 = const()[name = tensor<string, []>("initializers_onnx_initializer_39"), val = tensor<fp32, [1]>([-0x1.8602fp-2])];
            tensor<fp32, [1]> initializers_onnx_initializer_38 = const()[name = tensor<string, []>("initializers_onnx_initializer_38"), val = tensor<fp32, [1]>([0x1.fa91fcp-3])];
            tensor<fp32, [1]> initializers_onnx_initializer_34 = const()[name = tensor<string, []>("initializers_onnx_initializer_34"), val = tensor<fp32, [1]>([-0x1.1eec24p-17])];
            tensor<fp32, [1]> initializers_onnx_initializer_33 = const()[name = tensor<string, []>("initializers_onnx_initializer_33"), val = tensor<fp32, [1]>([0x1.5c5e0ep-5])];
            tensor<fp32, [1]> initializers_onnx_initializer_29 = const()[name = tensor<string, []>("initializers_onnx_initializer_29"), val = tensor<fp32, [1]>([-0x1.2cf3d4p-3])];
            tensor<fp32, [1]> initializers_onnx_initializer_28 = const()[name = tensor<string, []>("initializers_onnx_initializer_28"), val = tensor<fp32, [1]>([0x1.8e283cp-3])];
            tensor<fp32, [1]> initializers_onnx_initializer_24 = const()[name = tensor<string, []>("initializers_onnx_initializer_24"), val = tensor<fp32, [1]>([0x1.462feep-15])];
            tensor<fp32, [1]> initializers_onnx_initializer_23 = const()[name = tensor<string, []>("initializers_onnx_initializer_23"), val = tensor<fp32, [1]>([0x1.7f2acep-7])];
            tensor<fp32, [1]> initializers_onnx_initializer_19 = const()[name = tensor<string, []>("initializers_onnx_initializer_19"), val = tensor<fp32, [1]>([-0x1.a6864ap-2])];
            tensor<fp32, [1]> initializers_onnx_initializer_18 = const()[name = tensor<string, []>("initializers_onnx_initializer_18"), val = tensor<fp32, [1]>([0x1.49c8f8p-3])];
            tensor<fp32, [1]> initializers_onnx_initializer_14 = const()[name = tensor<string, []>("initializers_onnx_initializer_14"), val = tensor<fp32, [1]>([-0x1.87f5ccp-17])];
            tensor<fp32, [1]> initializers_onnx_initializer_13 = const()[name = tensor<string, []>("initializers_onnx_initializer_13"), val = tensor<fp32, [1]>([0x1.3dbcep-3])];
            tensor<fp32, [1]> initializers_onnx_initializer_9 = const()[name = tensor<string, []>("initializers_onnx_initializer_9"), val = tensor<fp32, [1]>([-0x1.01f50ep-2])];
            tensor<fp32, [1]> initializers_onnx_initializer_8 = const()[name = tensor<string, []>("initializers_onnx_initializer_8"), val = tensor<fp32, [1]>([0x1.308fccp-3])];
            tensor<fp32, [1]> initializers_onnx_initializer_4 = const()[name = tensor<string, []>("initializers_onnx_initializer_4"), val = tensor<fp32, [1]>([0x1.15d54cp-15])];
            tensor<fp32, [1]> initializers_onnx_initializer_3 = const()[name = tensor<string, []>("initializers_onnx_initializer_3"), val = tensor<fp32, [1]>([0x1.e5e99p-7])];
            tensor<fp32, [60, 240, 1, 1]> Conv_22_weight = const()[name = tensor<string, []>("Conv_22_weight"), val = tensor<fp32, [60, 240, 1, 1]>(BLOBFILE(path = tensor<string, []>("@model_path/weights/weight.bin"), offset = tensor<uint64, []>(5824)))];
            tensor<fp32, [120, 480, 1, 1]> Conv_26_weight = const()[name = tensor<string, []>("Conv_26_weight"), val = tensor<fp32, [120, 480, 1, 1]>(BLOBFILE(path = tensor<string, []>("@model_path/weights/weight.bin"), offset = tensor<uint64, []>(63488)))];
            tensor<string, []> input_1_pad_type_0 = const()[name = tensor<string, []>("input_1_pad_type_0"), val = tensor<string, []>("custom")];
            tensor<int32, [4]> input_1_pad_0 = const()[name = tensor<string, []>("input_1_pad_0"), val = tensor<int32, [4]>([1, 1, 1, 1])];
            tensor<int32, [2]> input_1_strides_0 = const()[name = tensor<string, []>("input_1_strides_0"), val = tensor<int32, [2]>([2, 2])];
            tensor<int32, [2]> input_1_dilations_0 = const()[name = tensor<string, []>("input_1_dilations_0"), val = tensor<int32, [2]>([1, 1])];
            tensor<int32, []> input_1_groups_0 = const()[name = tensor<string, []>("input_1_groups_0"), val = tensor<int32, []>(1)];
            tensor<fp32, [16, 3, 3, 3]> const_52 = const()[name = tensor<string, []>("const_52"), val = tensor<fp32, [16, 3, 3, 3]>(BLOBFILE(path = tensor<string, []>("@model_path/weights/weight.bin"), offset = tensor<uint64, []>(293952)))];
            tensor<fp32, [16]> const_53 = const()[name = tensor<string, []>("const_53"), val = tensor<fp32, [16]>(BLOBFILE(path = tensor<string, []>("@model_path/weights/weight.bin"), offset = tensor<uint64, []>(295744)))];
            tensor<fp32, [32, 16, 24, 160]> input_3 = conv(bias = const_53, dilations = input_1_dilations_0, groups = input_1_groups_0, pad = input_1_pad_0, pad_type = input_1_pad_type_0, strides = input_1_strides_0, weight = const_52, x = x)[name = tensor<string, []>("input_3")];
            tensor<string, []> first_1_pad_type_0 = const()[name = tensor<string, []>("first_1_pad_type_0"), val = tensor<string, []>("custom")];
            tensor<int32, [4]> first_1_pad_0 = const()[name = tensor<string, []>("first_1_pad_0"), val = tensor<int32, [4]>([1, 1, 1, 1])];
            tensor<int32, []> first_1_groups_0 = const()[name = tensor<string, []>("first_1_groups_0"), val = tensor<int32, []>(16)];
            tensor<int32, [2]> first_1_strides_0 = const()[name = tensor<string, []>("first_1_strides_0"), val = tensor<int32, [2]>([1, 1])];
            tensor<int32, [2]> first_1_dilations_0 = const()[name = tensor<string, []>("first_1_dilations_0"), val = tensor<int32, [2]>([1, 1])];
            tensor<fp32, [16, 1, 3, 3]> x_3_weight_0 = const()[name = tensor<string, []>("x_3_weight_0"), val = tensor<fp32, [16, 1, 3, 3]>(BLOBFILE(path = tensor<string, []>("@model_path/weights/weight.bin"), offset = tensor<uint64, []>(295872)))];
            tensor<fp32, [16]> const_64 = const()[name = tensor<string, []>("const_64"), val = tensor<fp32, [16]>(BLOBFILE(path = tensor<string, []>("@model_path/weights/weight.bin"), offset = tensor<uint64, []>(296512)))];
            tensor<fp32, [32, 16, 24, 160]> x_5 = conv(bias = const_64, dilations = first_1_dilations_0, groups = first_1_groups_0, pad = first_1_pad_0, pad_type = first_1_pad_type_0, strides = first_1_strides_0, weight = x_3_weight_0, x = input_3)[name = tensor<string, []>("x_5")];
            tensor<fp32, []> var_508 = const()[name = tensor<string, []>("op_508"), val = tensor<fp32, []>(0x1p+0)];
            tensor<fp32, []> var_509 = const()[name = tensor<string, []>("op_509"), val = tensor<fp32, []>(0x0p+0)];
            tensor<fp32, []> var_511 = const()[name = tensor<string, []>("op_511"), val = tensor<fp32, []>(0x1.555556p-3)];
            tensor<fp32, [32, 16, 24, 160]> var_512 = mul(x = x_5, y = var_511)[name = tensor<string, []>("op_512")];
            tensor<fp32, []> var_513 = const()[name = tensor<string, []>("op_513"), val = tensor<fp32, []>(0x1p-1)];
            tensor<fp32, [32, 16, 24, 160]> var_514 = add(x = var_512, y = var_513)[name = tensor<string, []>("op_514")];
            tensor<fp32, [32, 16, 24, 160]> clip_0 = clip(alpha = var_509, beta = var_508, x = var_514)[name = tensor<string, []>("clip_0")];
            tensor<fp32, [32, 16, 24, 160]> second_7 = mul(x = clip_0, y = x_5)[name = tensor<string, []>("second_7")];
            tensor<fp32, [32, 16, 24, 160]> x_7 = mul(x = initializers_onnx_initializer_3, y = second_7)[name = tensor<string, []>("x_7")];
            tensor<fp32, [32, 16, 24, 160]> x_9 = add(x = x_7, y = initializers_onnx_initializer_4)[name = tensor<string, []>("x_9")];
            tensor<string, []> first_13_pad_type_0 = const()[name = tensor<string, []>("first_13_pad_type_0"), val = tensor<string, []>("valid")];
            tensor<int32, [2]> first_13_strides_0 = const()[name = tensor<string, []>("first_13_strides_0"), val = tensor<int32, [2]>([1, 1])];
            tensor<int32, [4]> first_13_pad_0 = const()[name = tensor<string, []>("first_13_pad_0"), val = tensor<int32, [4]>([0, 0, 0, 0])];
            tensor<int32, [2]> first_13_dilations_0 = const()[name = tensor<string, []>("first_13_dilations_0"), val = tensor<int32, [2]>([1, 1])];
            tensor<int32, []> first_13_groups_0 = const()[name = tensor<string, []>("first_13_groups_0"), val = tensor<int32, []>(1)];
            tensor<fp32, [32, 16, 1, 1]> x_13_weight_0 = const()[name = tensor<string, []>("x_13_weight_0"), val = tensor<fp32, [32, 16, 1, 1]>(BLOBFILE(path = tensor<string, []>("@model_path/weights/weight.bin"), offset = tensor<uint64, []>(296640)))];
            tensor<fp32, [32]> const_65 = const()[name = tensor<string, []>("const_65"), val = tensor<fp32, [32]>(BLOBFILE(path = tensor<string, []>("@model_path/weights/weight.bin"), offset = tensor<uint64, []>(298752)))];
            tensor<fp32, [32, 32, 24, 160]> x_15 = conv(bias = const_65, dilations = first_13_dilations_0, groups = first_13_groups_0, pad = first_13_pad_0, pad_type = first_13_pad_type_0, strides = first_13_strides_0, weight = x_13_weight_0, x = x_9)[name = tensor<string, []>("x_15")];
            tensor<fp32, []> var_546 = const()[name = tensor<string, []>("op_546"), val = tensor<fp32, []>(0x1p+0)];
            tensor<fp32, []> var_547 = const()[name = tensor<string, []>("op_547"), val = tensor<fp32, []>(0x0p+0)];
            tensor<fp32, []> var_549 = const()[name = tensor<string, []>("op_549"), val = tensor<fp32, []>(0x1.555556p-3)];
            tensor<fp32, [32, 32, 24, 160]> var_550 = mul(x = x_15, y = var_549)[name = tensor<string, []>("op_550")];
            tensor<fp32, []> var_551 = const()[name = tensor<string, []>("op_551"), val = tensor<fp32, []>(0x1p-1)];
            tensor<fp32, [32, 32, 24, 160]> var_552 = add(x = var_550, y = var_551)[name = tensor<string, []>("op_552")];
            tensor<fp32, [32, 32, 24, 160]> clip_1 = clip(alpha = var_547, beta = var_546, x = var_552)[name = tensor<string, []>("clip_1")];
            tensor<fp32, [32, 32, 24, 160]> second_17 = mul(x = clip_1, y = x_15)[name = tensor<string, []>("second_17")];
            tensor<fp32, [32, 32, 24, 160]> x_17 = mul(x = initializers_onnx_initializer_8, y = second_17)[name = tensor<string, []>("x_17")];
            tensor<fp32, [32, 32, 24, 160]> x_19 = add(x = x_17, y = initializers_onnx_initializer_9)[name = tensor<string, []>("x_19")];
            tensor<string, []> first_25_pad_type_0 = const()[name = tensor<string, []>("first_25_pad_type_0"), val = tensor<string, []>("custom")];
            tensor<int32, [4]> first_25_pad_0 = const()[name = tensor<string, []>("first_25_pad_0"), val = tensor<int32, [4]>([1, 1, 1, 1])];
            tensor<int32, []> first_25_groups_0 = const()[name = tensor<string, []>("first_25_groups_0"), val = tensor<int32, []>(32)];
            tensor<int32, [2]> first_25_strides_0 = const()[name = tensor<string, []>("first_25_strides_0"), val = tensor<int32, [2]>([1, 1])];
            tensor<int32, [2]> first_25_dilations_0 = const()[name = tensor<string, []>("first_25_dilations_0"), val = tensor<int32, [2]>([1, 1])];
            tensor<fp32, [32, 1, 3, 3]> x_23_weight_0 = const()[name = tensor<string, []>("x_23_weight_0"), val = tensor<fp32, [32, 1, 3, 3]>(BLOBFILE(path = tensor<string, []>("@model_path/weights/weight.bin"), offset = tensor<uint64, []>(298944)))];
            tensor<fp32, [32]> const_66 = const()[name = tensor<string, []>("const_66"), val = tensor<fp32, [32]>(BLOBFILE(path = tensor<string, []>("@model_path/weights/weight.bin"), offset = tensor<uint64, []>(300160)))];
            tensor<fp32, [32, 32, 24, 160]> x_25 = conv(bias = const_66, dilations = first_25_dilations_0, groups = first_25_groups_0, pad = first_25_pad_0, pad_type = first_25_pad_type_0, strides = first_25_strides_0, weight = x_23_weight_0, x = x_19)[name = tensor<string, []>("x_25")];
            tensor<fp32, []> var_585 = const()[name = tensor<string, []>("op_585"), val = tensor<fp32, []>(0x1p+0)];
            tensor<fp32, []> var_586 = const()[name = tensor<string, []>("op_586"), val = tensor<fp32, []>(0x0p+0)];
            tensor<fp32, []> var_588 = const()[name = tensor<string, []>("op_588"), val = tensor<fp32, []>(0x1.555556p-3)];
            tensor<fp32, [32, 32, 24, 160]> var_589 = mul(x = x_25, y = var_588)[name = tensor<string, []>("op_589")];
            tensor<fp32, []> var_590 = const()[name = tensor<string, []>("op_590"), val = tensor<fp32, []>(0x1p-1)];
            tensor<fp32, [32, 32, 24, 160]> var_591 = add(x = var_589, y = var_590)[name = tensor<string, []>("op_591")];
            tensor<fp32, [32, 32, 24, 160]> clip_2 = clip(alpha = var_586, beta = var_585, x = var_591)[name = tensor<string, []>("clip_2")];
            tensor<fp32, [32, 32, 24, 160]> second_27 = mul(x = clip_2, y = x_25)[name = tensor<string, []>("second_27")];
            tensor<fp32, [32, 32, 24, 160]> x_27 = mul(x = initializers_onnx_initializer_13, y = second_27)[name = tensor<string, []>("x_27")];
            tensor<fp32, [32, 32, 24, 160]> x_29 = add(x = x_27, y = initializers_onnx_initializer_14)[name = tensor<string, []>("x_29")];
            tensor<string, []> first_37_pad_type_0 = const()[name = tensor<string, []>("first_37_pad_type_0"), val = tensor<string, []>("valid")];
            tensor<int32, [2]> first_37_strides_0 = const()[name = tensor<string, []>("first_37_strides_0"), val = tensor<int32, [2]>([1, 1])];
            tensor<int32, [4]> first_37_pad_0 = const()[name = tensor<string, []>("first_37_pad_0"), val = tensor<int32, [4]>([0, 0, 0, 0])];
            tensor<int32, [2]> first_37_dilations_0 = const()[name = tensor<string, []>("first_37_dilations_0"), val = tensor<int32, [2]>([1, 1])];
            tensor<int32, []> first_37_groups_0 = const()[name = tensor<string, []>("first_37_groups_0"), val = tensor<int32, []>(1)];
            tensor<fp32, [64, 32, 1, 1]> x_33_weight_0 = const()[name = tensor<string, []>("x_33_weight_0"), val = tensor<fp32, [64, 32, 1, 1]>(BLOBFILE(path = tensor<string, []>("@model_path/weights/weight.bin"), offset = tensor<uint64, []>(300352)))];
            tensor<fp32, [64]> const_67 = const()[name = tensor<string, []>("const_67"), val = tensor<fp32, [64]>(BLOBFILE(path = tensor<string, []>("@model_path/weights/weight.bin"), offset = tensor<uint64, []>(308608)))];
            tensor<fp32, [32, 64, 24, 160]> x_35 = conv(bias = const_67, dilations = first_37_dilations_0, groups = first_37_groups_0, pad = first_37_pad_0, pad_type = first_37_pad_type_0, strides = first_37_strides_0, weight = x_33_weight_0, x = x_29)[name = tensor<string, []>("x_35")];
            tensor<fp32, []> var_623 = const()[name = tensor<string, []>("op_623"), val = tensor<fp32, []>(0x1p+0)];
            tensor<fp32, []> var_624 = const()[name = tensor<string, []>("op_624"), val = tensor<fp32, []>(0x0p+0)];
            tensor<fp32, []> var_626 = const()[name = tensor<string, []>("op_626"), val = tensor<fp32, []>(0x1.555556p-3)];
            tensor<fp32, [32, 64, 24, 160]> var_627 = mul(x = x_35, y = var_626)[name = tensor<string, []>("op_627")];
            tensor<fp32, []> var_628 = const()[name = tensor<string, []>("op_628"), val = tensor<fp32, []>(0x1p-1)];
            tensor<fp32, [32, 64, 24, 160]> var_629 = add(x = var_627, y = var_628)[name = tensor<string, []>("op_629")];
            tensor<fp32, [32, 64, 24, 160]> clip_3 = clip(alpha = var_624, beta = var_623, x = var_629)[name = tensor<string, []>("clip_3")];
            tensor<fp32, [32, 64, 24, 160]> second_37 = mul(x = clip_3, y = x_35)[name = tensor<string, []>("second_37")];
            tensor<fp32, [32, 64, 24, 160]> x_37 = mul(x = initializers_onnx_initializer_18, y = second_37)[name = tensor<string, []>("x_37")];
            tensor<fp32, [32, 64, 24, 160]> x_39 = add(x = x_37, y = initializers_onnx_initializer_19)[name = tensor<string, []>("x_39")];
            tensor<string, []> first_49_pad_type_0 = const()[name = tensor<string, []>("first_49_pad_type_0"), val = tensor<string, []>("custom")];
            tensor<int32, [4]> first_49_pad_0 = const()[name = tensor<string, []>("first_49_pad_0"), val = tensor<int32, [4]>([1, 1, 1, 1])];
            tensor<int32, []> first_49_groups_0 = const()[name = tensor<string, []>("first_49_groups_0"), val = tensor<int32, []>(64)];
            tensor<int32, [2]> first_49_strides_0 = const()[name = tensor<string, []>("first_49_strides_0"), val = tensor<int32, [2]>([1, 1])];
            tensor<int32, [2]> first_49_dilations_0 = const()[name = tensor<string, []>("first_49_dilations_0"), val = tensor<int32, [2]>([1, 1])];
            tensor<fp32, [64, 1, 3, 3]> x_43_weight_0 = const()[name = tensor<string, []>("x_43_weight_0"), val = tensor<fp32, [64, 1, 3, 3]>(BLOBFILE(path = tensor<string, []>("@model_path/weights/weight.bin"), offset = tensor<uint64, []>(308928)))];
            tensor<fp32, [64]> const_68 = const()[name = tensor<string, []>("const_68"), val = tensor<fp32, [64]>(BLOBFILE(path = tensor<string, []>("@model_path/weights/weight.bin"), offset = tensor<uint64, []>(311296)))];
            tensor<fp32, [32, 64, 24, 160]> x_45 = conv(bias = const_68, dilations = first_49_dilations_0, groups = first_49_groups_0, pad = first_49_pad_0, pad_type = first_49_pad_type_0, strides = first_49_strides_0, weight = x_43_weight_0, x = x_39)[name = tensor<string, []>("x_45")];
            tensor<fp32, []> var_662 = const()[name = tensor<string, []>("op_662"), val = tensor<fp32, []>(0x1p+0)];
            tensor<fp32, []> var_663 = const()[name = tensor<string, []>("op_663"), val = tensor<fp32, []>(0x0p+0)];
            tensor<fp32, []> var_665 = const()[name = tensor<string, []>("op_665"), val = tensor<fp32, []>(0x1.555556p-3)];
            tensor<fp32, [32, 64, 24, 160]> var_666 = mul(x = x_45, y = var_665)[name = tensor<string, []>("op_666")];
            tensor<fp32, []> var_667 = const()[name = tensor<string, []>("op_667"), val = tensor<fp32, []>(0x1p-1)];
            tensor<fp32, [32, 64, 24, 160]> var_668 = add(x = var_666, y = var_667)[name = tensor<string, []>("op_668")];
            tensor<fp32, [32, 64, 24, 160]> clip_4 = clip(alpha = var_663, beta = var_662, x = var_668)[name = tensor<string, []>("clip_4")];
            tensor<fp32, [32, 64, 24, 160]> second_47 = mul(x = clip_4, y = x_45)[name = tensor<string, []>("second_47")];
            tensor<fp32, [32, 64, 24, 160]> x_47 = mul(x = initializers_onnx_initializer_23, y = second_47)[name = tensor<string, []>("x_47")];
            tensor<fp32, [32, 64, 24, 160]> x_49 = add(x = x_47, y = initializers_onnx_initializer_24)[name = tensor<string, []>("x_49")];
            tensor<string, []> first_61_pad_type_0 = const()[name = tensor<string, []>("first_61_pad_type_0"), val = tensor<string, []>("valid")];
            tensor<int32, [2]> first_61_strides_0 = const()[name = tensor<string, []>("first_61_strides_0"), val = tensor<int32, [2]>([1, 1])];
            tensor<int32, [4]> first_61_pad_0 = const()[name = tensor<string, []>("first_61_pad_0"), val = tensor<int32, [4]>([0, 0, 0, 0])];
            tensor<int32, [2]> first_61_dilations_0 = const()[name = tensor<string, []>("first_61_dilations_0"), val = tensor<int32, [2]>([1, 1])];
            tensor<int32, []> first_61_groups_0 = const()[name = tensor<string, []>("first_61_groups_0"), val = tensor<int32, []>(1)];
            tensor<fp32, [64, 64, 1, 1]> x_53_weight_0 = const()[name = tensor<string, []>("x_53_weight_0"), val = tensor<fp32, [64, 64, 1, 1]>(BLOBFILE(path = tensor<string, []>("@model_path/weights/weight.bin"), offset = tensor<uint64, []>(311616)))];
            tensor<fp32, [64]> const_69 = const()[name = tensor<string, []>("const_69"), val = tensor<fp32, [64]>(BLOBFILE(path = tensor<string, []>("@model_path/weights/weight.bin"), offset = tensor<uint64, []>(328064)))];
            tensor<fp32, [32, 64, 24, 160]> x_55 = conv(bias = const_69, dilations = first_61_dilations_0, groups = first_61_groups_0, pad = first_61_pad_0, pad_type = first_61_pad_type_0, strides = first_61_strides_0, weight = x_53_weight_0, x = x_49)[name = tensor<string, []>("x_55")];
            tensor<fp32, []> var_700 = const()[name = tensor<string, []>("op_700"), val = tensor<fp32, []>(0x1p+0)];
            tensor<fp32, []> var_701 = const()[name = tensor<string, []>("op_701"), val = tensor<fp32, []>(0x0p+0)];
            tensor<fp32, []> var_703 = const()[name = tensor<string, []>("op_703"), val = tensor<fp32, []>(0x1.555556p-3)];
            tensor<fp32, [32, 64, 24, 160]> var_704 = mul(x = x_55, y = var_703)[name = tensor<string, []>("op_704")];
            tensor<fp32, []> var_705 = const()[name = tensor<string, []>("op_705"), val = tensor<fp32, []>(0x1p-1)];
            tensor<fp32, [32, 64, 24, 160]> var_706 = add(x = var_704, y = var_705)[name = tensor<string, []>("op_706")];
            tensor<fp32, [32, 64, 24, 160]> clip_5 = clip(alpha = var_701, beta = var_700, x = var_706)[name = tensor<string, []>("clip_5")];
            tensor<fp32, [32, 64, 24, 160]> second_57 = mul(x = clip_5, y = x_55)[name = tensor<string, []>("second_57")];
            tensor<fp32, [32, 64, 24, 160]> x_57 = mul(x = initializers_onnx_initializer_28, y = second_57)[name = tensor<string, []>("x_57")];
            tensor<fp32, [32, 64, 24, 160]> x_59 = add(x = x_57, y = initializers_onnx_initializer_29)[name = tensor<string, []>("x_59")];
            tensor<string, []> first_73_pad_type_0 = const()[name = tensor<string, []>("first_73_pad_type_0"), val = tensor<string, []>("custom")];
            tensor<int32, [4]> first_73_pad_0 = const()[name = tensor<string, []>("first_73_pad_0"), val = tensor<int32, [4]>([1, 1, 1, 1])];
            tensor<int32, [2]> first_73_strides_0 = const()[name = tensor<string, []>("first_73_strides_0"), val = tensor<int32, [2]>([2, 1])];
            tensor<int32, []> first_73_groups_0 = const()[name = tensor<string, []>("first_73_groups_0"), val = tensor<int32, []>(64)];
            tensor<int32, [2]> first_73_dilations_0 = const()[name = tensor<string, []>("first_73_dilations_0"), val = tensor<int32, [2]>([1, 1])];
            tensor<fp32, [64, 1, 3, 3]> x_63_weight_0 = const()[name = tensor<string, []>("x_63_weight_0"), val = tensor<fp32, [64, 1, 3, 3]>(BLOBFILE(path = tensor<string, []>("@model_path/weights/weight.bin"), offset = tensor<uint64, []>(328384)))];
            tensor<fp32, [64]> const_70 = const()[name = tensor<string, []>("const_70"), val = tensor<fp32, [64]>(BLOBFILE(path = tensor<string, []>("@model_path/weights/weight.bin"), offset = tensor<uint64, []>(330752)))];
            tensor<fp32, [32, 64, 12, 160]> x_65 = conv(bias = const_70, dilations = first_73_dilations_0, groups = first_73_groups_0, pad = first_73_pad_0, pad_type = first_73_pad_type_0, strides = first_73_strides_0, weight = x_63_weight_0, x = x_59)[name = tensor<string, []>("x_65")];
            tensor<fp32, []> var_740 = const()[name = tensor<string, []>("op_740"), val = tensor<fp32, []>(0x1p+0)];
            tensor<fp32, []> var_741 = const()[name = tensor<string, []>("op_741"), val = tensor<fp32, []>(0x0p+0)];
            tensor<fp32, []> var_743 = const()[name = tensor<string, []>("op_743"), val = tensor<fp32, []>(0x1.555556p-3)];
            tensor<fp32, [32, 64, 12, 160]> var_744 = mul(x = x_65, y = var_743)[name = tensor<string, []>("op_744")];
            tensor<fp32, []> var_745 = const()[name = tensor<string, []>("op_745"), val = tensor<fp32, []>(0x1p-1)];
            tensor<fp32, [32, 64, 12, 160]> var_746 = add(x = var_744, y = var_745)[name = tensor<string, []>("op_746")];
            tensor<fp32, [32, 64, 12, 160]> clip_6 = clip(alpha = var_741, beta = var_740, x = var_746)[name = tensor<string, []>("clip_6")];
            tensor<fp32, [32, 64, 12, 160]> second_67 = mul(x = clip_6, y = x_65)[name = tensor<string, []>("second_67")];
            tensor<fp32, [32, 64, 12, 160]> x_67 = mul(x = initializers_onnx_initializer_33, y = second_67)[name = tensor<string, []>("x_67")];
            tensor<fp32, [32, 64, 12, 160]> x_69 = add(x = x_67, y = initializers_onnx_initializer_34)[name = tensor<string, []>("x_69")];
            tensor<string, []> first_85_pad_type_0 = const()[name = tensor<string, []>("first_85_pad_type_0"), val = tensor<string, []>("valid")];
            tensor<int32, [2]> first_85_strides_0 = const()[name = tensor<string, []>("first_85_strides_0"), val = tensor<int32, [2]>([1, 1])];
            tensor<int32, [4]> first_85_pad_0 = const()[name = tensor<string, []>("first_85_pad_0"), val = tensor<int32, [4]>([0, 0, 0, 0])];
            tensor<int32, [2]> first_85_dilations_0 = const()[name = tensor<string, []>("first_85_dilations_0"), val = tensor<int32, [2]>([1, 1])];
            tensor<int32, []> first_85_groups_0 = const()[name = tensor<string, []>("first_85_groups_0"), val = tensor<int32, []>(1)];
            tensor<fp32, [128, 64, 1, 1]> x_73_weight_0 = const()[name = tensor<string, []>("x_73_weight_0"), val = tensor<fp32, [128, 64, 1, 1]>(BLOBFILE(path = tensor<string, []>("@model_path/weights/weight.bin"), offset = tensor<uint64, []>(331072)))];
            tensor<fp32, [128]> const_71 = const()[name = tensor<string, []>("const_71"), val = tensor<fp32, [128]>(BLOBFILE(path = tensor<string, []>("@model_path/weights/weight.bin"), offset = tensor<uint64, []>(363904)))];
            tensor<fp32, [32, 128, 12, 160]> x_75 = conv(bias = const_71, dilations = first_85_dilations_0, groups = first_85_groups_0, pad = first_85_pad_0, pad_type = first_85_pad_type_0, strides = first_85_strides_0, weight = x_73_weight_0, x = x_69)[name = tensor<string, []>("x_75")];
            tensor<fp32, []> var_778 = const()[name = tensor<string, []>("op_778"), val = tensor<fp32, []>(0x1p+0)];
            tensor<fp32, []> var_779 = const()[name = tensor<string, []>("op_779"), val = tensor<fp32, []>(0x0p+0)];
            tensor<fp32, []> var_781 = const()[name = tensor<string, []>("op_781"), val = tensor<fp32, []>(0x1.555556p-3)];
            tensor<fp32, [32, 128, 12, 160]> var_782 = mul(x = x_75, y = var_781)[name = tensor<string, []>("op_782")];
            tensor<fp32, []> var_783 = const()[name = tensor<string, []>("op_783"), val = tensor<fp32, []>(0x1p-1)];
            tensor<fp32, [32, 128, 12, 160]> var_784 = add(x = var_782, y = var_783)[name = tensor<string, []>("op_784")];
            tensor<fp32, [32, 128, 12, 160]> clip_7 = clip(alpha = var_779, beta = var_778, x = var_784)[name = tensor<string, []>("clip_7")];
            tensor<fp32, [32, 128, 12, 160]> second_77 = mul(x = clip_7, y = x_75)[name = tensor<string, []>("second_77")];
            tensor<fp32, [32, 128, 12, 160]> x_77 = mul(x = initializers_onnx_initializer_38, y = second_77)[name = tensor<string, []>("x_77")];
            tensor<fp32, [32, 128, 12, 160]> x_79 = add(x = x_77, y = initializers_onnx_initializer_39)[name = tensor<string, []>("x_79")];
            tensor<string, []> first_97_pad_type_0 = const()[name = tensor<string, []>("first_97_pad_type_0"), val = tensor<string, []>("custom")];
            tensor<int32, [4]> first_97_pad_0 = const()[name = tensor<string, []>("first_97_pad_0"), val = tensor<int32, [4]>([1, 1, 1, 1])];
            tensor<int32, []> first_97_groups_0 = const()[name = tensor<string, []>("first_97_groups_0"), val = tensor<int32, []>(128)];
            tensor<int32, [2]> first_97_strides_0 = const()[name = tensor<string, []>("first_97_strides_0"), val = tensor<int32, [2]>([1, 1])];
            tensor<int32, [2]> first_97_dilations_0 = const()[name = tensor<string, []>("first_97_dilations_0"), val = tensor<int32, [2]>([1, 1])];
            tensor<fp32, [128, 1, 3, 3]> x_83_weight_0 = const()[name = tensor<string, []>("x_83_weight_0"), val = tensor<fp32, [128, 1, 3, 3]>(BLOBFILE(path = tensor<string, []>("@model_path/weights/weight.bin"), offset = tensor<uint64, []>(364480)))];
            tensor<fp32, [128]> const_72 = const()[name = tensor<string, []>("const_72"), val = tensor<fp32, [128]>(BLOBFILE(path = tensor<string, []>("@model_path/weights/weight.bin"), offset = tensor<uint64, []>(369152)))];
            tensor<fp32, [32, 128, 12, 160]> x_85 = conv(bias = const_72, dilations = first_97_dilations_0, groups = first_97_groups_0, pad = first_97_pad_0, pad_type = first_97_pad_type_0, strides = first_97_strides_0, weight = x_83_weight_0, x = x_79)[name = tensor<string, []>("x_85")];
            tensor<fp32, []> var_817 = const()[name = tensor<string, []>("op_817"), val = tensor<fp32, []>(0x1p+0)];
            tensor<fp32, []> var_818 = const()[name = tensor<string, []>("op_818"), val = tensor<fp32, []>(0x0p+0)];
            tensor<fp32, []> var_820 = const()[name = tensor<string, []>("op_820"), val = tensor<fp32, []>(0x1.555556p-3)];
            tensor<fp32, [32, 128, 12, 160]> var_821 = mul(x = x_85, y = var_820)[name = tensor<string, []>("op_821")];
            tensor<fp32, []> var_822 = const()[name = tensor<string, []>("op_822"), val = tensor<fp32, []>(0x1p-1)];
            tensor<fp32, [32, 128, 12, 160]> var_823 = add(x = var_821, y = var_822)[name = tensor<string, []>("op_823")];
            tensor<fp32, [32, 128, 12, 160]> clip_8 = clip(alpha = var_818, beta = var_817, x = var_823)[name = tensor<string, []>("clip_8")];
            tensor<fp32, [32, 128, 12, 160]> second_87 = mul(x = clip_8, y = x_85)[name = tensor<string, []>("second_87")];
            tensor<fp32, [32, 128, 12, 160]> x_87 = mul(x = initializers_onnx_initializer_43, y = second_87)[name = tensor<string, []>("x_87")];
            tensor<fp32, [32, 128, 12, 160]> x_89 = add(x = x_87, y = initializers_onnx_initializer_44)[name = tensor<string, []>("x_89")];
            tensor<string, []> first_109_pad_type_0 = const()[name = tensor<string, []>("first_109_pad_type_0"), val = tensor<string, []>("valid")];
            tensor<int32, [2]> first_109_strides_0 = const()[name = tensor<string, []>("first_109_strides_0"), val = tensor<int32, [2]>([1, 1])];
            tensor<int32, [4]> first_109_pad_0 = const()[name = tensor<string, []>("first_109_pad_0"), val = tensor<int32, [4]>([0, 0, 0, 0])];
            tensor<int32, [2]> first_109_dilations_0 = const()[name = tensor<string, []>("first_109_dilations_0"), val = tensor<int32, [2]>([1, 1])];
            tensor<int32, []> first_109_groups_0 = const()[name = tensor<string, []>("first_109_groups_0"), val = tensor<int32, []>(1)];
            tensor<fp32, [128, 128, 1, 1]> x_93_weight_0 = const()[name = tensor<string, []>("x_93_weight_0"), val = tensor<fp32, [128, 128, 1, 1]>(BLOBFILE(path = tensor<string, []>("@model_path/weights/weight.bin"), offset = tensor<uint64, []>(369728)))];
            tensor<fp32, [128]> const_73 = const()[name = tensor<string, []>("const_73"), val = tensor<fp32, [128]>(BLOBFILE(path = tensor<string, []>("@model_path/weights/weight.bin"), offset = tensor<uint64, []>(435328)))];
            tensor<fp32, [32, 128, 12, 160]> x_95 = conv(bias = const_73, dilations = first_109_dilations_0, groups = first_109_groups_0, pad = first_109_pad_0, pad_type = first_109_pad_type_0, strides = first_109_strides_0, weight = x_93_weight_0, x = x_89)[name = tensor<string, []>("x_95")];
            tensor<fp32, []> var_855 = const()[name = tensor<string, []>("op_855"), val = tensor<fp32, []>(0x1p+0)];
            tensor<fp32, []> var_856 = const()[name = tensor<string, []>("op_856"), val = tensor<fp32, []>(0x0p+0)];
            tensor<fp32, []> var_858 = const()[name = tensor<string, []>("op_858"), val = tensor<fp32, []>(0x1.555556p-3)];
            tensor<fp32, [32, 128, 12, 160]> var_859 = mul(x = x_95, y = var_858)[name = tensor<string, []>("op_859")];
            tensor<fp32, []> var_860 = const()[name = tensor<string, []>("op_860"), val = tensor<fp32, []>(0x1p-1)];
            tensor<fp32, [32, 128, 12, 160]> var_861 = add(x = var_859, y = var_860)[name = tensor<string, []>("op_861")];
            tensor<fp32, [32, 128, 12, 160]> clip_9 = clip(alpha = var_856, beta = var_855, x = var_861)[name = tensor<string, []>("clip_9")];
            tensor<fp32, [32, 128, 12, 160]> second_97 = mul(x = clip_9, y = x_95)[name = tensor<string, []>("second_97")];
            tensor<fp32, [32, 128, 12, 160]> x_97 = mul(x = initializers_onnx_initializer_48, y = second_97)[name = tensor<string, []>("x_97")];
            tensor<fp32, [32, 128, 12, 160]> x_99 = add(x = x_97, y = initializers_onnx_initializer_49)[name = tensor<string, []>("x_99")];
            tensor<string, []> first_121_pad_type_0 = const()[name = tensor<string, []>("first_121_pad_type_0"), val = tensor<string, []>("custom")];
            tensor<int32, [4]> first_121_pad_0 = const()[name = tensor<string, []>("first_121_pad_0"), val = tensor<int32, [4]>([1, 1, 1, 1])];
            tensor<int32, [2]> first_121_strides_0 = const()[name = tensor<string, []>("first_121_strides_0"), val = tensor<int32, [2]>([1, 2])];
            tensor<int32, []> first_121_groups_0 = const()[name = tensor<string, []>("first_121_groups_0"), val = tensor<int32, []>(128)];
            tensor<int32, [2]> first_121_dilations_0 = const()[name = tensor<string, []>("first_121_dilations_0"), val = tensor<int32, [2]>([1, 1])];
            tensor<fp32, [128, 1, 3, 3]> x_103_weight_0 = const()[name = tensor<string, []>("x_103_weight_0"), val = tensor<fp32, [128, 1, 3, 3]>(BLOBFILE(path = tensor<string, []>("@model_path/weights/weight.bin"), offset = tensor<uint64, []>(435904)))];
            tensor<fp32, [128]> const_74 = const()[name = tensor<string, []>("const_74"), val = tensor<fp32, [128]>(BLOBFILE(path = tensor<string, []>("@model_path/weights/weight.bin"), offset = tensor<uint64, []>(440576)))];
            tensor<fp32, [32, 128, 12, 80]> x_105 = conv(bias = const_74, dilations = first_121_dilations_0, groups = first_121_groups_0, pad = first_121_pad_0, pad_type = first_121_pad_type_0, strides = first_121_strides_0, weight = x_103_weight_0, x = x_99)[name = tensor<string, []>("x_105")];
            tensor<fp32, []> var_895 = const()[name = tensor<string, []>("op_895"), val = tensor<fp32, []>(0x1p+0)];
            tensor<fp32, []> var_896 = const()[name = tensor<string, []>("op_896"), val = tensor<fp32, []>(0x0p+0)];
            tensor<fp32, []> var_898 = const()[name = tensor<string, []>("op_898"), val = tensor<fp32, []>(0x1.555556p-3)];
            tensor<fp32, [32, 128, 12, 80]> var_899 = mul(x = x_105, y = var_898)[name = tensor<string, []>("op_899")];
            tensor<fp32, []> var_900 = const()[name = tensor<string, []>("op_900"), val = tensor<fp32, []>(0x1p-1)];
            tensor<fp32, [32, 128, 12, 80]> var_901 = add(x = var_899, y = var_900)[name = tensor<string, []>("op_901")];
            tensor<fp32, [32, 128, 12, 80]> clip_10 = clip(alpha = var_896, beta = var_895, x = var_901)[name = tensor<string, []>("clip_10")];
            tensor<fp32, [32, 128, 12, 80]> second_107 = mul(x = clip_10, y = x_105)[name = tensor<string, []>("second_107")];
            tensor<fp32, [32, 128, 12, 80]> x_107 = mul(x = initializers_onnx_initializer_53, y = second_107)[name = tensor<string, []>("x_107")];
            tensor<fp32, [32, 128, 12, 80]> x_109 = add(x = x_107, y = initializers_onnx_initializer_54)[name = tensor<string, []>("x_109")];
            tensor<string, []> first_133_pad_type_0 = const()[name = tensor<string, []>("first_133_pad_type_0"), val = tensor<string, []>("valid")];
            tensor<int32, [2]> first_133_strides_0 = const()[name = tensor<string, []>("first_133_strides_0"), val = tensor<int32, [2]>([1, 1])];
            tensor<int32, [4]> first_133_pad_0 = const()[name = tensor<string, []>("first_133_pad_0"), val = tensor<int32, [4]>([0, 0, 0, 0])];
            tensor<int32, [2]> first_133_dilations_0 = const()[name = tensor<string, []>("first_133_dilations_0"), val = tensor<int32, [2]>([1, 1])];
            tensor<int32, []> first_133_groups_0 = const()[name = tensor<string, []>("first_133_groups_0"), val = tensor<int32, []>(1)];
            tensor<fp32, [240, 128, 1, 1]> x_113_weight_0 = const()[name = tensor<string, []>("x_113_weight_0"), val = tensor<fp32, [240, 128, 1, 1]>(BLOBFILE(path = tensor<string, []>("@model_path/weights/weight.bin"), offset = tensor<uint64, []>(441152)))];
            tensor<fp32, [240]> const_75 = const()[name = tensor<string, []>("const_75"), val = tensor<fp32, [240]>(BLOBFILE(path = tensor<string, []>("@model_path/weights/weight.bin"), offset = tensor<uint64, []>(564096)))];
            tensor<fp32, [32, 240, 12, 80]> x_115 = conv(bias = const_75, dilations = first_133_dilations_0, groups = first_133_groups_0, pad = first_133_pad_0, pad_type = first_133_pad_type_0, strides = first_133_strides_0, weight = x_113_weight_0, x = x_109)[name = tensor<string, []>("x_115")];
            tensor<fp32, []> var_933 = const()[name = tensor<string, []>("op_933"), val = tensor<fp32, []>(0x1p+0)];
            tensor<fp32, []> var_934 = const()[name = tensor<string, []>("op_934"), val = tensor<fp32, []>(0x0p+0)];
            tensor<fp32, []> var_936 = const()[name = tensor<string, []>("op_936"), val = tensor<fp32, []>(0x1.555556p-3)];
            tensor<fp32, [32, 240, 12, 80]> var_937 = mul(x = x_115, y = var_936)[name = tensor<string, []>("op_937")];
            tensor<fp32, []> var_938 = const()[name = tensor<string, []>("op_938"), val = tensor<fp32, []>(0x1p-1)];
            tensor<fp32, [32, 240, 12, 80]> var_939 = add(x = var_937, y = var_938)[name = tensor<string, []>("op_939")];
            tensor<fp32, [32, 240, 12, 80]> clip_11 = clip(alpha = var_934, beta = var_933, x = var_939)[name = tensor<string, []>("clip_11")];
            tensor<fp32, [32, 240, 12, 80]> second_117 = mul(x = clip_11, y = x_115)[name = tensor<string, []>("second_117")];
            tensor<fp32, [32, 240, 12, 80]> x_117 = mul(x = initializers_onnx_initializer_58, y = second_117)[name = tensor<string, []>("x_117")];
            tensor<fp32, [32, 240, 12, 80]> x_119 = add(x = x_117, y = initializers_onnx_initializer_59)[name = tensor<string, []>("x_119")];
            tensor<string, []> first_145_pad_type_0 = const()[name = tensor<string, []>("first_145_pad_type_0"), val = tensor<string, []>("custom")];
            tensor<int32, [4]> first_145_pad_0 = const()[name = tensor<string, []>("first_145_pad_0"), val = tensor<int32, [4]>([2, 2, 2, 2])];
            tensor<int32, []> first_145_groups_0 = const()[name = tensor<string, []>("first_145_groups_0"), val = tensor<int32, []>(240)];
            tensor<int32, [2]> first_145_strides_0 = const()[name = tensor<string, []>("first_145_strides_0"), val = tensor<int32, [2]>([1, 1])];
            tensor<int32, [2]> first_145_dilations_0 = const()[name = tensor<string, []>("first_145_dilations_0"), val = tensor<int32, [2]>([1, 1])];
            tensor<fp32, [240, 1, 5, 5]> x_123_weight_0 = const()[name = tensor<string, []>("x_123_weight_0"), val = tensor<fp32, [240, 1, 5, 5]>(BLOBFILE(path = tensor<string, []>("@model_path/weights/weight.bin"), offset = tensor<uint64, []>(565120)))];
            tensor<fp32, [240]> const_76 = const()[name = tensor<string, []>("const_76"), val = tensor<fp32, [240]>(BLOBFILE(path = tensor<string, []>("@model_path/weights/weight.bin"), offset = tensor<uint64, []>(589184)))];
            tensor<fp32, [32, 240, 12, 80]> x_125 = conv(bias = const_76, dilations = first_145_dilations_0, groups = first_145_groups_0, pad = first_145_pad_0, pad_type = first_145_pad_type_0, strides = first_145_strides_0, weight = x_123_weight_0, x = x_119)[name = tensor<string, []>("x_125")];
            tensor<fp32, []> var_973 = const()[name = tensor<string, []>("op_973"), val = tensor<fp32, []>(0x1p+0)];
            tensor<fp32, []> var_974 = const()[name = tensor<string, []>("op_974"), val = tensor<fp32, []>(0x0p+0)];
            tensor<fp32, []> var_976 = const()[name = tensor<string, []>("op_976"), val = tensor<fp32, []>(0x1.555556p-3)];
            tensor<fp32, [32, 240, 12, 80]> var_977 = mul(x = x_125, y = var_976)[name = tensor<string, []>("op_977")];
            tensor<fp32, []> var_978 = const()[name = tensor<string, []>("op_978"), val = tensor<fp32, []>(0x1p-1)];
            tensor<fp32, [32, 240, 12, 80]> var_979 = add(x = var_977, y = var_978)[name = tensor<string, []>("op_979")];
            tensor<fp32, [32, 240, 12, 80]> clip_12 = clip(alpha = var_974, beta = var_973, x = var_979)[name = tensor<string, []>("clip_12")];
            tensor<fp32, [32, 240, 12, 80]> second_127 = mul(x = clip_12, y = x_125)[name = tensor<string, []>("second_127")];
            tensor<fp32, [32, 240, 12, 80]> x_127 = mul(x = initializers_onnx_initializer_63, y = second_127)[name = tensor<string, []>("x_127")];
            tensor<fp32, [32, 240, 12, 80]> x_129 = add(x = x_127, y = initializers_onnx_initializer_64)[name = tensor<string, []>("x_129")];
            tensor<string, []> first_157_pad_type_0 = const()[name = tensor<string, []>("first_157_pad_type_0"), val = tensor<string, []>("valid")];
            tensor<int32, [2]> first_157_strides_0 = const()[name = tensor<string, []>("first_157_strides_0"), val = tensor<int32, [2]>([1, 1])];
            tensor<int32, [4]> first_157_pad_0 = const()[name = tensor<string, []>("first_157_pad_0"), val = tensor<int32, [4]>([0, 0, 0, 0])];
            tensor<int32, [2]> first_157_dilations_0 = const()[name = tensor<string, []>("first_157_dilations_0"), val = tensor<int32, [2]>([1, 1])];
            tensor<int32, []> first_157_groups_0 = const()[name = tensor<string, []>("first_157_groups_0"), val = tensor<int32, []>(1)];
            tensor<fp32, [240, 240, 1, 1]> x_133_weight_0 = const()[name = tensor<string, []>("x_133_weight_0"), val = tensor<fp32, [240, 240, 1, 1]>(BLOBFILE(path = tensor<string, []>("@model_path/weights/weight.bin"), offset = tensor<uint64, []>(590208)))];
            tensor<fp32, [240]> const_77 = const()[name = tensor<string, []>("const_77"), val = tensor<fp32, [240]>(BLOBFILE(path = tensor<string, []>("@model_path/weights/weight.bin"), offset = tensor<uint64, []>(820672)))];
            tensor<fp32, [32, 240, 12, 80]> x_135 = conv(bias = const_77, dilations = first_157_dilations_0, groups = first_157_groups_0, pad = first_157_pad_0, pad_type = first_157_pad_type_0, strides = first_157_strides_0, weight = x_133_weight_0, x = x_129)[name = tensor<string, []>("x_135")];
            tensor<fp32, []> var_1011 = const()[name = tensor<string, []>("op_1011"), val = tensor<fp32, []>(0x1p+0)];
            tensor<fp32, []> var_1012 = const()[name = tensor<string, []>("op_1012"), val = tensor<fp32, []>(0x0p+0)];
            tensor<fp32, []> var_1014 = const()[name = tensor<string, []>("op_1014"), val = tensor<fp32, []>(0x1.555556p-3)];
            tensor<fp32, [32, 240, 12, 80]> var_1015 = mul(x = x_135, y = var_1014)[name = tensor<string, []>("op_1015")];
            tensor<fp32, []> var_1016 = const()[name = tensor<string, []>("op_1016"), val = tensor<fp32, []>(0x1p-1)];
            tensor<fp32, [32, 240, 12, 80]> var_1017 = add(x = var_1015, y = var_1016)[name = tensor<string, []>("op_1017")];
            tensor<fp32, [32, 240, 12, 80]> clip_13 = clip(alpha = var_1012, beta = var_1011, x = var_1017)[name = tensor<string, []>("clip_13")];
            tensor<fp32, [32, 240, 12, 80]> second_137 = mul(x = clip_13, y = x_135)[name = tensor<string, []>("second_137")];
            tensor<fp32, [32, 240, 12, 80]> x_137 = mul(x = initializers_onnx_initializer_68, y = second_137)[name = tensor<string, []>("x_137")];
            tensor<fp32, [32, 240, 12, 80]> x_139 = add(x = x_137, y = initializers_onnx_initializer_69)[name = tensor<string, []>("x_139")];
            tensor<string, []> first_169_pad_type_0 = const()[name = tensor<string, []>("first_169_pad_type_0"), val = tensor<string, []>("custom")];
            tensor<int32, [4]> first_169_pad_0 = const()[name = tensor<string, []>("first_169_pad_0"), val = tensor<int32, [4]>([2, 2, 2, 2])];
            tensor<int32, []> first_169_groups_0 = const()[name = tensor<string, []>("first_169_groups_0"), val = tensor<int32, []>(240)];
            tensor<int32, [2]> first_169_strides_0 = const()[name = tensor<string, []>("first_169_strides_0"), val = tensor<int32, [2]>([1, 1])];
            tensor<int32, [2]> first_169_dilations_0 = const()[name = tensor<string, []>("first_169_dilations_0"), val = tensor<int32, [2]>([1, 1])];
            tensor<fp32, [240, 1, 5, 5]> x_143_weight_0 = const()[name = tensor<string, []>("x_143_weight_0"), val = tensor<fp32, [240, 1, 5, 5]>(BLOBFILE(path = tensor<string, []>("@model_path/weights/weight.bin"), offset = tensor<uint64, []>(821696)))];
            tensor<fp32, [240]> const_78 = const()[name = tensor<string, []>("const_78"), val = tensor<fp32, [240]>(BLOBFILE(path = tensor<string, []>("@model_path/weights/weight.bin"), offset = tensor<uint64, []>(845760)))];
            tensor<fp32, [32, 240, 12, 80]> x_145 = conv(bias = const_78, dilations = first_169_dilations_0, groups = first_169_groups_0, pad = first_169_pad_0, pad_type = first_169_pad_type_0, strides = first_169_strides_0, weight = x_143_weight_0, x = x_139)[name = tensor<string, []>("x_145")];
            tensor<fp32, []> var_1051 = const()[name = tensor<string, []>("op_1051"), val = tensor<fp32, []>(0x1p+0)];
            tensor<fp32, []> var_1052 = const()[name = tensor<string, []>("op_1052"), val = tensor<fp32, []>(0x0p+0)];
            tensor<fp32, []> var_1054 = const()[name = tensor<string, []>("op_1054"), val = tensor<fp32, []>(0x1.555556p-3)];
            tensor<fp32, [32, 240, 12, 80]> var_1055 = mul(x = x_145, y = var_1054)[name = tensor<string, []>("op_1055")];
            tensor<fp32, []> var_1056 = const()[name = tensor<string, []>("op_1056"), val = tensor<fp32, []>(0x1p-1)];
            tensor<fp32, [32, 240, 12, 80]> var_1057 = add(x = var_1055, y = var_1056)[name = tensor<string, []>("op_1057")];
            tensor<fp32, [32, 240, 12, 80]> clip_14 = clip(alpha = var_1052, beta = var_1051, x = var_1057)[name = tensor<string, []>("clip_14")];
            tensor<fp32, [32, 240, 12, 80]> second_147 = mul(x = clip_14, y = x_145)[name = tensor<string, []>("second_147")];
            tensor<fp32, [32, 240, 12, 80]> x_147 = mul(x = initializers_onnx_initializer_73, y = second_147)[name = tensor<string, []>("x_147")];
            tensor<fp32, [32, 240, 12, 80]> x_149 = add(x = x_147, y = initializers_onnx_initializer_74)[name = tensor<string, []>("x_149")];
            tensor<string, []> first_181_pad_type_0 = const()[name = tensor<string, []>("first_181_pad_type_0"), val = tensor<string, []>("valid")];
            tensor<int32, [2]> first_181_strides_0 = const()[name = tensor<string, []>("first_181_strides_0"), val = tensor<int32, [2]>([1, 1])];
            tensor<int32, [4]> first_181_pad_0 = const()[name = tensor<string, []>("first_181_pad_0"), val = tensor<int32, [4]>([0, 0, 0, 0])];
            tensor<int32, [2]> first_181_dilations_0 = const()[name = tensor<string, []>("first_181_dilations_0"), val = tensor<int32, [2]>([1, 1])];
            tensor<int32, []> first_181_groups_0 = const()[name = tensor<string, []>("first_181_groups_0"), val = tensor<int32, []>(1)];
            tensor<fp32, [240, 240, 1, 1]> x_153_weight_0 = const()[name = tensor<string, []>("x_153_weight_0"), val = tensor<fp32, [240, 240, 1, 1]>(BLOBFILE(path = tensor<string, []>("@model_path/weights/weight.bin"), offset = tensor<uint64, []>(846784)))];
            tensor<fp32, [240]> const_79 = const()[name = tensor<string, []>("const_79"), val = tensor<fp32, [240]>(BLOBFILE(path = tensor<string, []>("@model_path/weights/weight.bin"), offset = tensor<uint64, []>(1077248)))];
            tensor<fp32, [32, 240, 12, 80]> x_155 = conv(bias = const_79, dilations = first_181_dilations_0, groups = first_181_groups_0, pad = first_181_pad_0, pad_type = first_181_pad_type_0, strides = first_181_strides_0, weight = x_153_weight_0, x = x_149)[name = tensor<string, []>("x_155")];
            tensor<fp32, []> var_1089 = const()[name = tensor<string, []>("op_1089"), val = tensor<fp32, []>(0x1p+0)];
            tensor<fp32, []> var_1090 = const()[name = tensor<string, []>("op_1090"), val = tensor<fp32, []>(0x0p+0)];
            tensor<fp32, []> var_1092 = const()[name = tensor<string, []>("op_1092"), val = tensor<fp32, []>(0x1.555556p-3)];
            tensor<fp32, [32, 240, 12, 80]> var_1093 = mul(x = x_155, y = var_1092)[name = tensor<string, []>("op_1093")];
            tensor<fp32, []> var_1094 = const()[name = tensor<string, []>("op_1094"), val = tensor<fp32, []>(0x1p-1)];
            tensor<fp32, [32, 240, 12, 80]> var_1095 = add(x = var_1093, y = var_1094)[name = tensor<string, []>("op_1095")];
            tensor<fp32, [32, 240, 12, 80]> clip_15 = clip(alpha = var_1090, beta = var_1089, x = var_1095)[name = tensor<string, []>("clip_15")];
            tensor<fp32, [32, 240, 12, 80]> second_157 = mul(x = clip_15, y = x_155)[name = tensor<string, []>("second_157")];
            tensor<fp32, [32, 240, 12, 80]> x_157 = mul(x = initializers_onnx_initializer_78, y = second_157)[name = tensor<string, []>("x_157")];
            tensor<fp32, [32, 240, 12, 80]> x_159 = add(x = x_157, y = initializers_onnx_initializer_79)[name = tensor<string, []>("x_159")];
            tensor<string, []> first_193_pad_type_0 = const()[name = tensor<string, []>("first_193_pad_type_0"), val = tensor<string, []>("custom")];
            tensor<int32, [4]> first_193_pad_0 = const()[name = tensor<string, []>("first_193_pad_0"), val = tensor<int32, [4]>([2, 2, 2, 2])];
            tensor<int32, []> first_193_groups_0 = const()[name = tensor<string, []>("first_193_groups_0"), val = tensor<int32, []>(240)];
            tensor<int32, [2]> first_193_strides_0 = const()[name = tensor<string, []>("first_193_strides_0"), val = tensor<int32, [2]>([1, 1])];
            tensor<int32, [2]> first_193_dilations_0 = const()[name = tensor<string, []>("first_193_dilations_0"), val = tensor<int32, [2]>([1, 1])];
            tensor<fp32, [240, 1, 5, 5]> x_163_weight_0 = const()[name = tensor<string, []>("x_163_weight_0"), val = tensor<fp32, [240, 1, 5, 5]>(BLOBFILE(path = tensor<string, []>("@model_path/weights/weight.bin"), offset = tensor<uint64, []>(1078272)))];
            tensor<fp32, [240]> const_80 = const()[name = tensor<string, []>("const_80"), val = tensor<fp32, [240]>(BLOBFILE(path = tensor<string, []>("@model_path/weights/weight.bin"), offset = tensor<uint64, []>(1102336)))];
            tensor<fp32, [32, 240, 12, 80]> x_165 = conv(bias = const_80, dilations = first_193_dilations_0, groups = first_193_groups_0, pad = first_193_pad_0, pad_type = first_193_pad_type_0, strides = first_193_strides_0, weight = x_163_weight_0, x = x_159)[name = tensor<string, []>("x_165")];
            tensor<fp32, []> var_1129 = const()[name = tensor<string, []>("op_1129"), val = tensor<fp32, []>(0x1p+0)];
            tensor<fp32, []> var_1130 = const()[name = tensor<string, []>("op_1130"), val = tensor<fp32, []>(0x0p+0)];
            tensor<fp32, []> var_1132 = const()[name = tensor<string, []>("op_1132"), val = tensor<fp32, []>(0x1.555556p-3)];
            tensor<fp32, [32, 240, 12, 80]> var_1133 = mul(x = x_165, y = var_1132)[name = tensor<string, []>("op_1133")];
            tensor<fp32, []> var_1134 = const()[name = tensor<string, []>("op_1134"), val = tensor<fp32, []>(0x1p-1)];
            tensor<fp32, [32, 240, 12, 80]> var_1135 = add(x = var_1133, y = var_1134)[name = tensor<string, []>("op_1135")];
            tensor<fp32, [32, 240, 12, 80]> clip_16 = clip(alpha = var_1130, beta = var_1129, x = var_1135)[name = tensor<string, []>("clip_16")];
            tensor<fp32, [32, 240, 12, 80]> second_167 = mul(x = clip_16, y = x_165)[name = tensor<string, []>("second_167")];
            tensor<fp32, [32, 240, 12, 80]> x_167 = mul(x = initializers_onnx_initializer_83, y = second_167)[name = tensor<string, []>("x_167")];
            tensor<fp32, [32, 240, 12, 80]> x_169 = add(x = x_167, y = initializers_onnx_initializer_84)[name = tensor<string, []>("x_169")];
            tensor<string, []> first_205_pad_type_0 = const()[name = tensor<string, []>("first_205_pad_type_0"), val = tensor<string, []>("valid")];
            tensor<int32, [2]> first_205_strides_0 = const()[name = tensor<string, []>("first_205_strides_0"), val = tensor<int32, [2]>([1, 1])];
            tensor<int32, [4]> first_205_pad_0 = const()[name = tensor<string, []>("first_205_pad_0"), val = tensor<int32, [4]>([0, 0, 0, 0])];
            tensor<int32, [2]> first_205_dilations_0 = const()[name = tensor<string, []>("first_205_dilations_0"), val = tensor<int32, [2]>([1, 1])];
            tensor<int32, []> first_205_groups_0 = const()[name = tensor<string, []>("first_205_groups_0"), val = tensor<int32, []>(1)];
            tensor<fp32, [240, 240, 1, 1]> x_173_weight_0 = const()[name = tensor<string, []>("x_173_weight_0"), val = tensor<fp32, [240, 240, 1, 1]>(BLOBFILE(path = tensor<string, []>("@model_path/weights/weight.bin"), offset = tensor<uint64, []>(1103360)))];
            tensor<fp32, [240]> const_81 = const()[name = tensor<string, []>("const_81"), val = tensor<fp32, [240]>(BLOBFILE(path = tensor<string, []>("@model_path/weights/weight.bin"), offset = tensor<uint64, []>(1333824)))];
            tensor<fp32, [32, 240, 12, 80]> x_175 = conv(bias = const_81, dilations = first_205_dilations_0, groups = first_205_groups_0, pad = first_205_pad_0, pad_type = first_205_pad_type_0, strides = first_205_strides_0, weight = x_173_weight_0, x = x_169)[name = tensor<string, []>("x_175")];
            tensor<fp32, []> var_1167 = const()[name = tensor<string, []>("op_1167"), val = tensor<fp32, []>(0x1p+0)];
            tensor<fp32, []> var_1168 = const()[name = tensor<string, []>("op_1168"), val = tensor<fp32, []>(0x0p+0)];
            tensor<fp32, []> var_1170 = const()[name = tensor<string, []>("op_1170"), val = tensor<fp32, []>(0x1.555556p-3)];
            tensor<fp32, [32, 240, 12, 80]> var_1171 = mul(x = x_175, y = var_1170)[name = tensor<string, []>("op_1171")];
            tensor<fp32, []> var_1172 = const()[name = tensor<string, []>("op_1172"), val = tensor<fp32, []>(0x1p-1)];
            tensor<fp32, [32, 240, 12, 80]> var_1173 = add(x = var_1171, y = var_1172)[name = tensor<string, []>("op_1173")];
            tensor<fp32, [32, 240, 12, 80]> clip_17 = clip(alpha = var_1168, beta = var_1167, x = var_1173)[name = tensor<string, []>("clip_17")];
            tensor<fp32, [32, 240, 12, 80]> second_177 = mul(x = clip_17, y = x_175)[name = tensor<string, []>("second_177")];
            tensor<fp32, [32, 240, 12, 80]> x_177 = mul(x = initializers_onnx_initializer_88, y = second_177)[name = tensor<string, []>("x_177")];
            tensor<fp32, [32, 240, 12, 80]> x_179 = add(x = x_177, y = initializers_onnx_initializer_89)[name = tensor<string, []>("x_179")];
            tensor<string, []> first_217_pad_type_0 = const()[name = tensor<string, []>("first_217_pad_type_0"), val = tensor<string, []>("custom")];
            tensor<int32, [4]> first_217_pad_0 = const()[name = tensor<string, []>("first_217_pad_0"), val = tensor<int32, [4]>([2, 2, 2, 2])];
            tensor<int32, []> first_217_groups_0 = const()[name = tensor<string, []>("first_217_groups_0"), val = tensor<int32, []>(240)];
            tensor<int32, [2]> first_217_strides_0 = const()[name = tensor<string, []>("first_217_strides_0"), val = tensor<int32, [2]>([1, 1])];
            tensor<int32, [2]> first_217_dilations_0 = const()[name = tensor<string, []>("first_217_dilations_0"), val = tensor<int32, [2]>([1, 1])];
            tensor<fp32, [240, 1, 5, 5]> x_183_weight_0 = const()[name = tensor<string, []>("x_183_weight_0"), val = tensor<fp32, [240, 1, 5, 5]>(BLOBFILE(path = tensor<string, []>("@model_path/weights/weight.bin"), offset = tensor<uint64, []>(1334848)))];
            tensor<fp32, [240]> const_82 = const()[name = tensor<string, []>("const_82"), val = tensor<fp32, [240]>(BLOBFILE(path = tensor<string, []>("@model_path/weights/weight.bin"), offset = tensor<uint64, []>(1358912)))];
            tensor<fp32, [32, 240, 12, 80]> x_185 = conv(bias = const_82, dilations = first_217_dilations_0, groups = first_217_groups_0, pad = first_217_pad_0, pad_type = first_217_pad_type_0, strides = first_217_strides_0, weight = x_183_weight_0, x = x_179)[name = tensor<string, []>("x_185")];
            tensor<fp32, []> var_1207 = const()[name = tensor<string, []>("op_1207"), val = tensor<fp32, []>(0x1p+0)];
            tensor<fp32, []> var_1208 = const()[name = tensor<string, []>("op_1208"), val = tensor<fp32, []>(0x0p+0)];
            tensor<fp32, []> var_1210 = const()[name = tensor<string, []>("op_1210"), val = tensor<fp32, []>(0x1.555556p-3)];
            tensor<fp32, [32, 240, 12, 80]> var_1211 = mul(x = x_185, y = var_1210)[name = tensor<string, []>("op_1211")];
            tensor<fp32, []> var_1212 = const()[name = tensor<string, []>("op_1212"), val = tensor<fp32, []>(0x1p-1)];
            tensor<fp32, [32, 240, 12, 80]> var_1213 = add(x = var_1211, y = var_1212)[name = tensor<string, []>("op_1213")];
            tensor<fp32, [32, 240, 12, 80]> clip_18 = clip(alpha = var_1208, beta = var_1207, x = var_1213)[name = tensor<string, []>("clip_18")];
            tensor<fp32, [32, 240, 12, 80]> second_187 = mul(x = clip_18, y = x_185)[name = tensor<string, []>("second_187")];
            tensor<fp32, [32, 240, 12, 80]> x_187 = mul(x = initializers_onnx_initializer_93, y = second_187)[name = tensor<string, []>("x_187")];
            tensor<fp32, [32, 240, 12, 80]> x_189 = add(x = x_187, y = initializers_onnx_initializer_94)[name = tensor<string, []>("x_189")];
            tensor<string, []> first_229_pad_type_0 = const()[name = tensor<string, []>("first_229_pad_type_0"), val = tensor<string, []>("valid")];
            tensor<int32, [2]> first_229_strides_0 = const()[name = tensor<string, []>("first_229_strides_0"), val = tensor<int32, [2]>([1, 1])];
            tensor<int32, [4]> first_229_pad_0 = const()[name = tensor<string, []>("first_229_pad_0"), val = tensor<int32, [4]>([0, 0, 0, 0])];
            tensor<int32, [2]> first_229_dilations_0 = const()[name = tensor<string, []>("first_229_dilations_0"), val = tensor<int32, [2]>([1, 1])];
            tensor<int32, []> first_229_groups_0 = const()[name = tensor<string, []>("first_229_groups_0"), val = tensor<int32, []>(1)];
            tensor<fp32, [240, 240, 1, 1]> x_193_weight_0 = const()[name = tensor<string, []>("x_193_weight_0"), val = tensor<fp32, [240, 240, 1, 1]>(BLOBFILE(path = tensor<string, []>("@model_path/weights/weight.bin"), offset = tensor<uint64, []>(1359936)))];
            tensor<fp32, [240]> const_83 = const()[name = tensor<string, []>("const_83"), val = tensor<fp32, [240]>(BLOBFILE(path = tensor<string, []>("@model_path/weights/weight.bin"), offset = tensor<uint64, []>(1590400)))];
            tensor<fp32, [32, 240, 12, 80]> x_195 = conv(bias = const_83, dilations = first_229_dilations_0, groups = first_229_groups_0, pad = first_229_pad_0, pad_type = first_229_pad_type_0, strides = first_229_strides_0, weight = x_193_weight_0, x = x_189)[name = tensor<string, []>("x_195")];
            tensor<fp32, []> var_1245 = const()[name = tensor<string, []>("op_1245"), val = tensor<fp32, []>(0x1p+0)];
            tensor<fp32, []> var_1246 = const()[name = tensor<string, []>("op_1246"), val = tensor<fp32, []>(0x0p+0)];
            tensor<fp32, []> var_1248 = const()[name = tensor<string, []>("op_1248"), val = tensor<fp32, []>(0x1.555556p-3)];
            tensor<fp32, [32, 240, 12, 80]> var_1249 = mul(x = x_195, y = var_1248)[name = tensor<string, []>("op_1249")];
            tensor<fp32, []> var_1250 = const()[name = tensor<string, []>("op_1250"), val = tensor<fp32, []>(0x1p-1)];
            tensor<fp32, [32, 240, 12, 80]> var_1251 = add(x = var_1249, y = var_1250)[name = tensor<string, []>("op_1251")];
            tensor<fp32, [32, 240, 12, 80]> clip_19 = clip(alpha = var_1246, beta = var_1245, x = var_1251)[name = tensor<string, []>("clip_19")];
            tensor<fp32, [32, 240, 12, 80]> second_197 = mul(x = clip_19, y = x_195)[name = tensor<string, []>("second_197")];
            tensor<fp32, [32, 240, 12, 80]> x_197 = mul(x = initializers_onnx_initializer_98, y = second_197)[name = tensor<string, []>("x_197")];
            tensor<fp32, [32, 240, 12, 80]> x_199 = add(x = x_197, y = initializers_onnx_initializer_99)[name = tensor<string, []>("x_199")];
            tensor<string, []> first_241_pad_type_0 = const()[name = tensor<string, []>("first_241_pad_type_0"), val = tensor<string, []>("custom")];
            tensor<int32, [4]> first_241_pad_0 = const()[name = tensor<string, []>("first_241_pad_0"), val = tensor<int32, [4]>([2, 2, 2, 2])];
            tensor<int32, [2]> first_241_strides_0 = const()[name = tensor<string, []>("first_241_strides_0"), val = tensor<int32, [2]>([2, 1])];
            tensor<int32, []> first_241_groups_0 = const()[name = tensor<string, []>("first_241_groups_0"), val = tensor<int32, []>(240)];
            tensor<int32, [2]> first_241_dilations_0 = const()[name = tensor<string, []>("first_241_dilations_0"), val = tensor<int32, [2]>([1, 1])];
            tensor<fp32, [240, 1, 5, 5]> x_203_weight_0 = const()[name = tensor<string, []>("x_203_weight_0"), val = tensor<fp32, [240, 1, 5, 5]>(BLOBFILE(path = tensor<string, []>("@model_path/weights/weight.bin"), offset = tensor<uint64, []>(1591424)))];
            tensor<fp32, [240]> const_84 = const()[name = tensor<string, []>("const_84"), val = tensor<fp32, [240]>(BLOBFILE(path = tensor<string, []>("@model_path/weights/weight.bin"), offset = tensor<uint64, []>(1615488)))];
            tensor<fp32, [32, 240, 6, 80]> x_205 = conv(bias = const_84, dilations = first_241_dilations_0, groups = first_241_groups_0, pad = first_241_pad_0, pad_type = first_241_pad_type_0, strides = first_241_strides_0, weight = x_203_weight_0, x = x_199)[name = tensor<string, []>("x_205")];
            tensor<fp32, []> var_1285 = const()[name = tensor<string, []>("op_1285"), val = tensor<fp32, []>(0x1p+0)];
            tensor<fp32, []> var_1286 = const()[name = tensor<string, []>("op_1286"), val = tensor<fp32, []>(0x0p+0)];
            tensor<fp32, []> var_1288 = const()[name = tensor<string, []>("op_1288"), val = tensor<fp32, []>(0x1.555556p-3)];
            tensor<fp32, [32, 240, 6, 80]> var_1289 = mul(x = x_205, y = var_1288)[name = tensor<string, []>("op_1289")];
            tensor<fp32, []> var_1290 = const()[name = tensor<string, []>("op_1290"), val = tensor<fp32, []>(0x1p-1)];
            tensor<fp32, [32, 240, 6, 80]> var_1291 = add(x = var_1289, y = var_1290)[name = tensor<string, []>("op_1291")];
            tensor<fp32, [32, 240, 6, 80]> clip_20 = clip(alpha = var_1286, beta = var_1285, x = var_1291)[name = tensor<string, []>("clip_20")];
            tensor<fp32, [32, 240, 6, 80]> second_207 = mul(x = clip_20, y = x_205)[name = tensor<string, []>("second_207")];
            tensor<fp32, [32, 240, 6, 80]> x_207 = mul(x = initializers_onnx_initializer_103, y = second_207)[name = tensor<string, []>("x_207")];
            tensor<fp32, [32, 240, 6, 80]> x_209 = add(x = x_207, y = initializers_onnx_initializer_104)[name = tensor<string, []>("x_209")];
            tensor<int32, [2]> input_45_axes_0 = const()[name = tensor<string, []>("input_45_axes_0"), val = tensor<int32, [2]>([2, 3])];
            tensor<bool, []> input_45_keep_dims_0 = const()[name = tensor<string, []>("input_45_keep_dims_0"), val = tensor<bool, []>(true)];
            tensor<fp32, [32, 240, 1, 1]> input_45 = reduce_mean(axes = input_45_axes_0, keep_dims = input_45_keep_dims_0, x = x_209)[name = tensor<string, []>("input_45")];
            tensor<string, []> first_253_pad_type_0 = const()[name = tensor<string, []>("first_253_pad_type_0"), val = tensor<string, []>("valid")];
            tensor<int32, [2]> first_253_strides_0 = const()[name = tensor<string, []>("first_253_strides_0"), val = tensor<int32, [2]>([1, 1])];
            tensor<int32, [4]> first_253_pad_0 = const()[name = tensor<string, []>("first_253_pad_0"), val = tensor<int32, [4]>([0, 0, 0, 0])];
            tensor<int32, [2]> first_253_dilations_0 = const()[name = tensor<string, []>("first_253_dilations_0"), val = tensor<int32, [2]>([1, 1])];
            tensor<int32, []> first_253_groups_0 = const()[name = tensor<string, []>("first_253_groups_0"), val = tensor<int32, []>(1)];
            tensor<fp32, [60]> const_41 = const()[name = tensor<string, []>("const_41"), val = tensor<fp32, [60]>(BLOBFILE(path = tensor<string, []>("@model_path/weights/weight.bin"), offset = tensor<uint64, []>(1616512)))];
            tensor<fp32, [32, 60, 1, 1]> x_211 = conv(bias = const_41, dilations = first_253_dilations_0, groups = first_253_groups_0, pad = first_253_pad_0, pad_type = first_253_pad_type_0, strides = first_253_strides_0, weight = Conv_22_weight, x = input_45)[name = tensor<string, []>("x_211")];
            tensor<fp32, [32, 60, 1, 1]> input_49 = relu(x = x_211)[name = tensor<string, []>("input_49")];
            tensor<string, []> first_255_pad_type_0 = const()[name = tensor<string, []>("first_255_pad_type_0"), val = tensor<string, []>("valid")];
            tensor<int32, [2]> first_255_strides_0 = const()[name = tensor<string, []>("first_255_strides_0"), val = tensor<int32, [2]>([1, 1])];
            tensor<int32, [4]> first_255_pad_0 = const()[name = tensor<string, []>("first_255_pad_0"), val = tensor<int32, [4]>([0, 0, 0, 0])];
            tensor<int32, [2]> first_255_dilations_0 = const()[name = tensor<string, []>("first_255_dilations_0"), val = tensor<int32, [2]>([1, 1])];
            tensor<int32, []> first_255_groups_0 = const()[name = tensor<string, []>("first_255_groups_0"), val = tensor<int32, []>(1)];
            tensor<fp32, [240, 60, 1, 1]> var_1342_weight_0 = const()[name = tensor<string, []>("op_1342_weight_0"), val = tensor<fp32, [240, 60, 1, 1]>(BLOBFILE(path = tensor<string, []>("@model_path/weights/weight.bin"), offset = tensor<uint64, []>(1616832)))];
            tensor<fp32, [240]> const_85 = const()[name = tensor<string, []>("const_85"), val = tensor<fp32, [240]>(BLOBFILE(path = tensor<string, []>("@model_path/weights/weight.bin"), offset = tensor<uint64, []>(1674496)))];
            tensor<fp32, [32, 240, 1, 1]> var_1344 = conv(bias = const_85, dilations = first_255_dilations_0, groups = first_255_groups_0, pad = first_255_pad_0, pad_type = first_255_pad_type_0, strides = first_255_strides_0, weight = var_1342_weight_0, x = input_49)[name = tensor<string, []>("op_1344")];
            tensor<fp32, []> var_1338 = const()[name = tensor<string, []>("op_1338"), val = tensor<fp32, []>(0x1p+0)];
            tensor<fp32, []> var_1339 = const()[name = tensor<string, []>("op_1339"), val = tensor<fp32, []>(0x0p+0)];
            tensor<fp32, [32, 240, 1, 1]> clip_21 = clip(alpha = var_1339, beta = var_1338, x = var_1344)[name = tensor<string, []>("clip_21")];
            tensor<fp32, [32, 240, 6, 80]> x_215 = mul(x = x_209, y = clip_21)[name = tensor<string, []>("x_215")];
            tensor<string, []> first_257_pad_type_0 = const()[name = tensor<string, []>("first_257_pad_type_0"), val = tensor<string, []>("valid")];
            tensor<int32, [2]> first_257_strides_0 = const()[name = tensor<string, []>("first_257_strides_0"), val = tensor<int32, [2]>([1, 1])];
            tensor<int32, [4]> first_257_pad_0 = const()[name = tensor<string, []>("first_257_pad_0"), val = tensor<int32, [4]>([0, 0, 0, 0])];
            tensor<int32, [2]> first_257_dilations_0 = const()[name = tensor<string, []>("first_257_dilations_0"), val = tensor<int32, [2]>([1, 1])];
            tensor<int32, []> first_257_groups_0 = const()[name = tensor<string, []>("first_257_groups_0"), val = tensor<int32, []>(1)];
            tensor<fp32, [480, 240, 1, 1]> x_219_weight_0 = const()[name = tensor<string, []>("x_219_weight_0"), val = tensor<fp32, [480, 240, 1, 1]>(BLOBFILE(path = tensor<string, []>("@model_path/weights/weight.bin"), offset = tensor<uint64, []>(1675520)))];
            tensor<fp32, [480]> const_86 = const()[name = tensor<string, []>("const_86"), val = tensor<fp32, [480]>(BLOBFILE(path = tensor<string, []>("@model_path/weights/weight.bin"), offset = tensor<uint64, []>(2136384)))];
            tensor<fp32, [32, 480, 6, 80]> x_221 = conv(bias = const_86, dilations = first_257_dilations_0, groups = first_257_groups_0, pad = first_257_pad_0, pad_type = first_257_pad_type_0, strides = first_257_strides_0, weight = x_219_weight_0, x = x_215)[name = tensor<string, []>("x_221")];
            tensor<fp32, []> var_1371 = const()[name = tensor<string, []>("op_1371"), val = tensor<fp32, []>(0x1p+0)];
            tensor<fp32, []> var_1372 = const()[name = tensor<string, []>("op_1372"), val = tensor<fp32, []>(0x0p+0)];
            tensor<fp32, []> var_1374 = const()[name = tensor<string, []>("op_1374"), val = tensor<fp32, []>(0x1.555556p-3)];
            tensor<fp32, [32, 480, 6, 80]> var_1375 = mul(x = x_221, y = var_1374)[name = tensor<string, []>("op_1375")];
            tensor<fp32, []> var_1376 = const()[name = tensor<string, []>("op_1376"), val = tensor<fp32, []>(0x1p-1)];
            tensor<fp32, [32, 480, 6, 80]> var_1377 = add(x = var_1375, y = var_1376)[name = tensor<string, []>("op_1377")];
            tensor<fp32, [32, 480, 6, 80]> clip_22 = clip(alpha = var_1372, beta = var_1371, x = var_1377)[name = tensor<string, []>("clip_22")];
            tensor<fp32, [32, 480, 6, 80]> second_223 = mul(x = clip_22, y = x_221)[name = tensor<string, []>("second_223")];
            tensor<fp32, [32, 480, 6, 80]> x_223 = mul(x = initializers_onnx_initializer_110, y = second_223)[name = tensor<string, []>("x_223")];
            tensor<fp32, [32, 480, 6, 80]> x_225 = add(x = x_223, y = initializers_onnx_initializer_111)[name = tensor<string, []>("x_225")];
            tensor<string, []> first_269_pad_type_0 = const()[name = tensor<string, []>("first_269_pad_type_0"), val = tensor<string, []>("custom")];
            tensor<int32, [4]> first_269_pad_0 = const()[name = tensor<string, []>("first_269_pad_0"), val = tensor<int32, [4]>([2, 2, 2, 2])];
            tensor<int32, []> first_269_groups_0 = const()[name = tensor<string, []>("first_269_groups_0"), val = tensor<int32, []>(480)];
            tensor<int32, [2]> first_269_strides_0 = const()[name = tensor<string, []>("first_269_strides_0"), val = tensor<int32, [2]>([1, 1])];
            tensor<int32, [2]> first_269_dilations_0 = const()[name = tensor<string, []>("first_269_dilations_0"), val = tensor<int32, [2]>([1, 1])];
            tensor<fp32, [480, 1, 5, 5]> x_229_weight_0 = const()[name = tensor<string, []>("x_229_weight_0"), val = tensor<fp32, [480, 1, 5, 5]>(BLOBFILE(path = tensor<string, []>("@model_path/weights/weight.bin"), offset = tensor<uint64, []>(2138368)))];
            tensor<fp32, [480]> const_87 = const()[name = tensor<string, []>("const_87"), val = tensor<fp32, [480]>(BLOBFILE(path = tensor<string, []>("@model_path/weights/weight.bin"), offset = tensor<uint64, []>(2186432)))];
            tensor<fp32, [32, 480, 6, 80]> x_231 = conv(bias = const_87, dilations = first_269_dilations_0, groups = first_269_groups_0, pad = first_269_pad_0, pad_type = first_269_pad_type_0, strides = first_269_strides_0, weight = x_229_weight_0, x = x_225)[name = tensor<string, []>("x_231")];
            tensor<fp32, []> var_1411 = const()[name = tensor<string, []>("op_1411"), val = tensor<fp32, []>(0x1p+0)];
            tensor<fp32, []> var_1412 = const()[name = tensor<string, []>("op_1412"), val = tensor<fp32, []>(0x0p+0)];
            tensor<fp32, []> var_1414 = const()[name = tensor<string, []>("op_1414"), val = tensor<fp32, []>(0x1.555556p-3)];
            tensor<fp32, [32, 480, 6, 80]> var_1415 = mul(x = x_231, y = var_1414)[name = tensor<string, []>("op_1415")];
            tensor<fp32, []> var_1416 = const()[name = tensor<string, []>("op_1416"), val = tensor<fp32, []>(0x1p-1)];
            tensor<fp32, [32, 480, 6, 80]> var_1417 = add(x = var_1415, y = var_1416)[name = tensor<string, []>("op_1417")];
            tensor<fp32, [32, 480, 6, 80]> clip_23 = clip(alpha = var_1412, beta = var_1411, x = var_1417)[name = tensor<string, []>("clip_23")];
            tensor<fp32, [32, 480, 6, 80]> second_233 = mul(x = clip_23, y = x_231)[name = tensor<string, []>("second_233")];
            tensor<fp32, [32, 480, 6, 80]> x_233 = mul(x = initializers_onnx_initializer_115, y = second_233)[name = tensor<string, []>("x_233")];
            tensor<fp32, [32, 480, 6, 80]> x_235 = add(x = x_233, y = initializers_onnx_initializer_116)[name = tensor<string, []>("x_235")];
            tensor<int32, [2]> input_55_axes_0 = const()[name = tensor<string, []>("input_55_axes_0"), val = tensor<int32, [2]>([2, 3])];
            tensor<bool, []> input_55_keep_dims_0 = const()[name = tensor<string, []>("input_55_keep_dims_0"), val = tensor<bool, []>(true)];
            tensor<fp32, [32, 480, 1, 1]> input_55 = reduce_mean(axes = input_55_axes_0, keep_dims = input_55_keep_dims_0, x = x_235)[name = tensor<string, []>("input_55")];
            tensor<string, []> first_281_pad_type_0 = const()[name = tensor<string, []>("first_281_pad_type_0"), val = tensor<string, []>("valid")];
            tensor<int32, [2]> first_281_strides_0 = const()[name = tensor<string, []>("first_281_strides_0"), val = tensor<int32, [2]>([1, 1])];
            tensor<int32, [4]> first_281_pad_0 = const()[name = tensor<string, []>("first_281_pad_0"), val = tensor<int32, [4]>([0, 0, 0, 0])];
            tensor<int32, [2]> first_281_dilations_0 = const()[name = tensor<string, []>("first_281_dilations_0"), val = tensor<int32, [2]>([1, 1])];
            tensor<int32, []> first_281_groups_0 = const()[name = tensor<string, []>("first_281_groups_0"), val = tensor<int32, []>(1)];
            tensor<fp32, [120]> const_45 = const()[name = tensor<string, []>("const_45"), val = tensor<fp32, [120]>(BLOBFILE(path = tensor<string, []>("@model_path/weights/weight.bin"), offset = tensor<uint64, []>(2188416)))];
            tensor<fp32, [32, 120, 1, 1]> x_237 = conv(bias = const_45, dilations = first_281_dilations_0, groups = first_281_groups_0, pad = first_281_pad_0, pad_type = first_281_pad_type_0, strides = first_281_strides_0, weight = Conv_26_weight, x = input_55)[name = tensor<string, []>("x_237")];
            tensor<fp32, [32, 120, 1, 1]> input_59 = relu(x = x_237)[name = tensor<string, []>("input_59")];
            tensor<string, []> first_283_pad_type_0 = const()[name = tensor<string, []>("first_283_pad_type_0"), val = tensor<string, []>("valid")];
            tensor<int32, [2]> first_283_strides_0 = const()[name = tensor<string, []>("first_283_strides_0"), val = tensor<int32, [2]>([1, 1])];
            tensor<int32, [4]> first_283_pad_0 = const()[name = tensor<string, []>("first_283_pad_0"), val = tensor<int32, [4]>([0, 0, 0, 0])];
            tensor<int32, [2]> first_283_dilations_0 = const()[name = tensor<string, []>("first_283_dilations_0"), val = tensor<int32, [2]>([1, 1])];
            tensor<int32, []> first_283_groups_0 = const()[name = tensor<string, []>("first_283_groups_0"), val = tensor<int32, []>(1)];
            tensor<fp32, [480, 120, 1, 1]> var_1468_weight_0 = const()[name = tensor<string, []>("op_1468_weight_0"), val = tensor<fp32, [480, 120, 1, 1]>(BLOBFILE(path = tensor<string, []>("@model_path/weights/weight.bin"), offset = tensor<uint64, []>(2188992)))];
            tensor<fp32, [480]> const_88 = const()[name = tensor<string, []>("const_88"), val = tensor<fp32, [480]>(BLOBFILE(path = tensor<string, []>("@model_path/weights/weight.bin"), offset = tensor<uint64, []>(2419456)))];
            tensor<fp32, [32, 480, 1, 1]> var_1470 = conv(bias = const_88, dilations = first_283_dilations_0, groups = first_283_groups_0, pad = first_283_pad_0, pad_type = first_283_pad_type_0, strides = first_283_strides_0, weight = var_1468_weight_0, x = input_59)[name = tensor<string, []>("op_1470")];
            tensor<fp32, []> var_1464 = const()[name = tensor<string, []>("op_1464"), val = tensor<fp32, []>(0x1p+0)];
            tensor<fp32, []> var_1465 = const()[name = tensor<string, []>("op_1465"), val = tensor<fp32, []>(0x0p+0)];
            tensor<fp32, [32, 480, 1, 1]> clip_24 = clip(alpha = var_1465, beta = var_1464, x = var_1470)[name = tensor<string, []>("clip_24")];
            tensor<fp32, [32, 480, 6, 80]> x_241 = mul(x = x_235, y = clip_24)[name = tensor<string, []>("x_241")];
            tensor<string, []> first_285_pad_type_0 = const()[name = tensor<string, []>("first_285_pad_type_0"), val = tensor<string, []>("valid")];
            tensor<int32, [2]> first_285_strides_0 = const()[name = tensor<string, []>("first_285_strides_0"), val = tensor<int32, [2]>([1, 1])];
            tensor<int32, [4]> first_285_pad_0 = const()[name = tensor<string, []>("first_285_pad_0"), val = tensor<int32, [4]>([0, 0, 0, 0])];
            tensor<int32, [2]> first_285_dilations_0 = const()[name = tensor<string, []>("first_285_dilations_0"), val = tensor<int32, [2]>([1, 1])];
            tensor<int32, []> first_285_groups_0 = const()[name = tensor<string, []>("first_285_groups_0"), val = tensor<int32, []>(1)];
            tensor<fp32, [480, 480, 1, 1]> x_245_weight_0 = const()[name = tensor<string, []>("x_245_weight_0"), val = tensor<fp32, [480, 480, 1, 1]>(BLOBFILE(path = tensor<string, []>("@model_path/weights/weight.bin"), offset = tensor<uint64, []>(2421440)))];
            tensor<fp32, [480]> const_89 = const()[name = tensor<string, []>("const_89"), val = tensor<fp32, [480]>(BLOBFILE(path = tensor<string, []>("@model_path/weights/weight.bin"), offset = tensor<uint64, []>(3343104)))];
            tensor<fp32, [32, 480, 6, 80]> x_247 = conv(bias = const_89, dilations = first_285_dilations_0, groups = first_285_groups_0, pad = first_285_pad_0, pad_type = first_285_pad_type_0, strides = first_285_strides_0, weight = x_245_weight_0, x = x_241)[name = tensor<string, []>("x_247")];
            tensor<fp32, []> var_1497 = const()[name = tensor<string, []>("op_1497"), val = tensor<fp32, []>(0x1p+0)];
            tensor<fp32, []> var_1498 = const()[name = tensor<string, []>("op_1498"), val = tensor<fp32, []>(0x0p+0)];
            tensor<fp32, []> var_1500 = const()[name = tensor<string, []>("op_1500"), val = tensor<fp32, []>(0x1.555556p-3)];
            tensor<fp32, [32, 480, 6, 80]> var_1501 = mul(x = x_247, y = var_1500)[name = tensor<string, []>("op_1501")];
            tensor<fp32, []> var_1502 = const()[name = tensor<string, []>("op_1502"), val = tensor<fp32, []>(0x1p-1)];
            tensor<fp32, [32, 480, 6, 80]> var_1503 = add(x = var_1501, y = var_1502)[name = tensor<string, []>("op_1503")];
            tensor<fp32, [32, 480, 6, 80]> clip_25 = clip(alpha = var_1498, beta = var_1497, x = var_1503)[name = tensor<string, []>("clip_25")];
            tensor<fp32, [32, 480, 6, 80]> second_249 = mul(x = clip_25, y = x_247)[name = tensor<string, []>("second_249")];
            tensor<fp32, [32, 480, 6, 80]> x_249 = mul(x = initializers_onnx_initializer_122, y = second_249)[name = tensor<string, []>("x_249")];
            tensor<fp32, [32, 480, 6, 80]> x_251 = add(x = x_249, y = initializers_onnx_initializer_123)[name = tensor<string, []>("x_251")];
            tensor<string, []> first_297_pad_type_0 = const()[name = tensor<string, []>("first_297_pad_type_0"), val = tensor<string, []>("custom")];
            tensor<int32, [4]> first_297_pad_0 = const()[name = tensor<string, []>("first_297_pad_0"), val = tensor<int32, [4]>([2, 2, 2, 2])];
            tensor<int32, [2]> first_297_strides_0 = const()[name = tensor<string, []>("first_297_strides_0"), val = tensor<int32, [2]>([2, 1])];
            tensor<int32, []> first_297_groups_0 = const()[name = tensor<string, []>("first_297_groups_0"), val = tensor<int32, []>(480)];
            tensor<int32, [2]> first_297_dilations_0 = const()[name = tensor<string, []>("first_297_dilations_0"), val = tensor<int32, [2]>([1, 1])];
            tensor<fp32, [480, 1, 5, 5]> x_255_weight_0 = const()[name = tensor<string, []>("x_255_weight_0"), val = tensor<fp32, [480, 1, 5, 5]>(BLOBFILE(path = tensor<string, []>("@model_path/weights/weight.bin"), offset = tensor<uint64, []>(3345088)))];
            tensor<fp32, [480]> const_90 = const()[name = tensor<string, []>("const_90"), val = tensor<fp32, [480]>(BLOBFILE(path = tensor<string, []>("@model_path/weights/weight.bin"), offset = tensor<uint64, []>(3393152)))];
            tensor<fp32, [32, 480, 3, 80]> x_257 = conv(bias = const_90, dilations = first_297_dilations_0, groups = first_297_groups_0, pad = first_297_pad_0, pad_type = first_297_pad_type_0, strides = first_297_strides_0, weight = x_255_weight_0, x = x_251)[name = tensor<string, []>("x_257")];
            tensor<fp32, []> var_1537 = const()[name = tensor<string, []>("op_1537"), val = tensor<fp32, []>(0x1p+0)];
            tensor<fp32, []> var_1538 = const()[name = tensor<string, []>("op_1538"), val = tensor<fp32, []>(0x0p+0)];
            tensor<fp32, []> var_1540 = const()[name = tensor<string, []>("op_1540"), val = tensor<fp32, []>(0x1.555556p-3)];
            tensor<fp32, [32, 480, 3, 80]> var_1541 = mul(x = x_257, y = var_1540)[name = tensor<string, []>("op_1541")];
            tensor<fp32, []> var_1542 = const()[name = tensor<string, []>("op_1542"), val = tensor<fp32, []>(0x1p-1)];
            tensor<fp32, [32, 480, 3, 80]> var_1543 = add(x = var_1541, y = var_1542)[name = tensor<string, []>("op_1543")];
            tensor<fp32, [32, 480, 3, 80]> clip_26 = clip(alpha = var_1538, beta = var_1537, x = var_1543)[name = tensor<string, []>("clip_26")];
            tensor<fp32, [32, 480, 3, 80]> second_259 = mul(x = clip_26, y = x_257)[name = tensor<string, []>("second_259")];
            tensor<fp32, [32, 480, 3, 80]> x_259 = mul(x = initializers_onnx_initializer_127, y = second_259)[name = tensor<string, []>("x_259")];
            tensor<fp32, [32, 480, 3, 80]> x_261 = add(x = x_259, y = initializers_onnx_initializer_128)[name = tensor<string, []>("x_261")];
            tensor<string, []> first_309_pad_type_0 = const()[name = tensor<string, []>("first_309_pad_type_0"), val = tensor<string, []>("valid")];
            tensor<int32, [2]> first_309_strides_0 = const()[name = tensor<string, []>("first_309_strides_0"), val = tensor<int32, [2]>([1, 1])];
            tensor<int32, [4]> first_309_pad_0 = const()[name = tensor<string, []>("first_309_pad_0"), val = tensor<int32, [4]>([0, 0, 0, 0])];
            tensor<int32, [2]> first_309_dilations_0 = const()[name = tensor<string, []>("first_309_dilations_0"), val = tensor<int32, [2]>([1, 1])];
            tensor<int32, []> first_309_groups_0 = const()[name = tensor<string, []>("first_309_groups_0"), val = tensor<int32, []>(1)];
            tensor<fp32, [480, 480, 1, 1]> x_265_weight_0 = const()[name = tensor<string, []>("x_265_weight_0"), val = tensor<fp32, [480, 480, 1, 1]>(BLOBFILE(path = tensor<string, []>("@model_path/weights/weight.bin"), offset = tensor<uint64, []>(3395136)))];
            tensor<fp32, [480]> const_91 = const()[name = tensor<string, []>("const_91"), val = tensor<fp32, [480]>(BLOBFILE(path = tensor<string, []>("@model_path/weights/weight.bin"), offset = tensor<uint64, []>(4316800)))];
            tensor<fp32, [32, 480, 3, 80]> x_267 = conv(bias = const_91, dilations = first_309_dilations_0, groups = first_309_groups_0, pad = first_309_pad_0, pad_type = first_309_pad_type_0, strides = first_309_strides_0, weight = x_265_weight_0, x = x_261)[name = tensor<string, []>("x_267")];
            tensor<fp32, []> var_1575 = const()[name = tensor<string, []>("op_1575"), val = tensor<fp32, []>(0x1p+0)];
            tensor<fp32, []> var_1576 = const()[name = tensor<string, []>("op_1576"), val = tensor<fp32, []>(0x0p+0)];
            tensor<fp32, []> var_1578 = const()[name = tensor<string, []>("op_1578"), val = tensor<fp32, []>(0x1.555556p-3)];
            tensor<fp32, [32, 480, 3, 80]> var_1579 = mul(x = x_267, y = var_1578)[name = tensor<string, []>("op_1579")];
            tensor<fp32, []> var_1580 = const()[name = tensor<string, []>("op_1580"), val = tensor<fp32, []>(0x1p-1)];
            tensor<fp32, [32, 480, 3, 80]> var_1581 = add(x = var_1579, y = var_1580)[name = tensor<string, []>("op_1581")];
            tensor<fp32, [32, 480, 3, 80]> clip_27 = clip(alpha = var_1576, beta = var_1575, x = var_1581)[name = tensor<string, []>("clip_27")];
            tensor<fp32, [32, 480, 3, 80]> second_269 = mul(x = clip_27, y = x_267)[name = tensor<string, []>("second_269")];
            tensor<fp32, [32, 480, 3, 80]> x_269 = mul(x = initializers_onnx_initializer_132, y = second_269)[name = tensor<string, []>("x_269")];
            tensor<fp32, [32, 480, 3, 80]> x_271 = add(x = x_269, y = initializers_onnx_initializer_133)[name = tensor<string, []>("x_271")];
            tensor<string, []> first_321_pad_type_0 = const()[name = tensor<string, []>("first_321_pad_type_0"), val = tensor<string, []>("custom")];
            tensor<int32, [4]> first_321_pad_0 = const()[name = tensor<string, []>("first_321_pad_0"), val = tensor<int32, [4]>([2, 2, 2, 2])];
            tensor<int32, []> first_321_groups_0 = const()[name = tensor<string, []>("first_321_groups_0"), val = tensor<int32, []>(480)];
            tensor<int32, [2]> first_321_strides_0 = const()[name = tensor<string, []>("first_321_strides_0"), val = tensor<int32, [2]>([1, 1])];
            tensor<int32, [2]> first_321_dilations_0 = const()[name = tensor<string, []>("first_321_dilations_0"), val = tensor<int32, [2]>([1, 1])];
            tensor<fp32, [480, 1, 5, 5]> x_275_weight_0 = const()[name = tensor<string, []>("x_275_weight_0"), val = tensor<fp32, [480, 1, 5, 5]>(BLOBFILE(path = tensor<string, []>("@model_path/weights/weight.bin"), offset = tensor<uint64, []>(4318784)))];
            tensor<fp32, [480]> const_92 = const()[name = tensor<string, []>("const_92"), val = tensor<fp32, [480]>(BLOBFILE(path = tensor<string, []>("@model_path/weights/weight.bin"), offset = tensor<uint64, []>(4366848)))];
            tensor<fp32, [32, 480, 3, 80]> x_277 = conv(bias = const_92, dilations = first_321_dilations_0, groups = first_321_groups_0, pad = first_321_pad_0, pad_type = first_321_pad_type_0, strides = first_321_strides_0, weight = x_275_weight_0, x = x_271)[name = tensor<string, []>("x_277")];
            tensor<fp32, []> var_1615 = const()[name = tensor<string, []>("op_1615"), val = tensor<fp32, []>(0x1p+0)];
            tensor<fp32, []> var_1616 = const()[name = tensor<string, []>("op_1616"), val = tensor<fp32, []>(0x0p+0)];
            tensor<fp32, []> var_1618 = const()[name = tensor<string, []>("op_1618"), val = tensor<fp32, []>(0x1.555556p-3)];
            tensor<fp32, [32, 480, 3, 80]> var_1619 = mul(x = x_277, y = var_1618)[name = tensor<string, []>("op_1619")];
            tensor<fp32, []> var_1620 = const()[name = tensor<string, []>("op_1620"), val = tensor<fp32, []>(0x1p-1)];
            tensor<fp32, [32, 480, 3, 80]> var_1621 = add(x = var_1619, y = var_1620)[name = tensor<string, []>("op_1621")];
            tensor<fp32, [32, 480, 3, 80]> clip_28 = clip(alpha = var_1616, beta = var_1615, x = var_1621)[name = tensor<string, []>("clip_28")];
            tensor<fp32, [32, 480, 3, 80]> second_279 = mul(x = clip_28, y = x_277)[name = tensor<string, []>("second_279")];
            tensor<fp32, [32, 480, 3, 80]> x_279 = mul(x = initializers_onnx_initializer_137, y = second_279)[name = tensor<string, []>("x_279")];
            tensor<fp32, [32, 480, 3, 80]> x_281 = add(x = x_279, y = initializers_onnx_initializer_138)[name = tensor<string, []>("x_281")];
            tensor<string, []> first_333_pad_type_0 = const()[name = tensor<string, []>("first_333_pad_type_0"), val = tensor<string, []>("valid")];
            tensor<int32, [2]> first_333_strides_0 = const()[name = tensor<string, []>("first_333_strides_0"), val = tensor<int32, [2]>([1, 1])];
            tensor<int32, [4]> first_333_pad_0 = const()[name = tensor<string, []>("first_333_pad_0"), val = tensor<int32, [4]>([0, 0, 0, 0])];
            tensor<int32, [2]> first_333_dilations_0 = const()[name = tensor<string, []>("first_333_dilations_0"), val = tensor<int32, [2]>([1, 1])];
            tensor<int32, []> first_333_groups_0 = const()[name = tensor<string, []>("first_333_groups_0"), val = tensor<int32, []>(1)];
            tensor<fp32, [480, 480, 1, 1]> x_285_weight_0 = const()[name = tensor<string, []>("x_285_weight_0"), val = tensor<fp32, [480, 480, 1, 1]>(BLOBFILE(path = tensor<string, []>("@model_path/weights/weight.bin"), offset = tensor<uint64, []>(4368832)))];
            tensor<fp32, [480]> const_93 = const()[name = tensor<string, []>("const_93"), val = tensor<fp32, [480]>(BLOBFILE(path = tensor<string, []>("@model_path/weights/weight.bin"), offset = tensor<uint64, []>(5290496)))];
            tensor<fp32, [32, 480, 3, 80]> x_287 = conv(bias = const_93, dilations = first_333_dilations_0, groups = first_333_groups_0, pad = first_333_pad_0, pad_type = first_333_pad_type_0, strides = first_333_strides_0, weight = x_285_weight_0, x = x_281)[name = tensor<string, []>("x_287")];
            tensor<fp32, []> var_1653 = const()[name = tensor<string, []>("op_1653"), val = tensor<fp32, []>(0x1p+0)];
            tensor<fp32, []> var_1654 = const()[name = tensor<string, []>("op_1654"), val = tensor<fp32, []>(0x0p+0)];
            tensor<fp32, []> var_1656 = const()[name = tensor<string, []>("op_1656"), val = tensor<fp32, []>(0x1.555556p-3)];
            tensor<fp32, [32, 480, 3, 80]> var_1657 = mul(x = x_287, y = var_1656)[name = tensor<string, []>("op_1657")];
            tensor<fp32, []> var_1658 = const()[name = tensor<string, []>("op_1658"), val = tensor<fp32, []>(0x1p-1)];
            tensor<fp32, [32, 480, 3, 80]> var_1659 = add(x = var_1657, y = var_1658)[name = tensor<string, []>("op_1659")];
            tensor<fp32, [32, 480, 3, 80]> clip_29 = clip(alpha = var_1654, beta = var_1653, x = var_1659)[name = tensor<string, []>("clip_29")];
            tensor<fp32, [32, 480, 3, 80]> second_289 = mul(x = clip_29, y = x_287)[name = tensor<string, []>("second_289")];
            tensor<fp32, [32, 480, 3, 80]> x_289 = mul(x = initializers_onnx_initializer_142, y = second_289)[name = tensor<string, []>("x_289")];
            tensor<fp32, [32, 480, 3, 80]> x_291 = add(x = x_289, y = initializers_onnx_initializer_143)[name = tensor<string, []>("x_291")];
            tensor<int32, [2]> var_1674 = const()[name = tensor<string, []>("op_1674"), val = tensor<int32, [2]>([3, 2])];
            tensor<int32, [2]> var_1675 = const()[name = tensor<string, []>("op_1675"), val = tensor<int32, [2]>([3, 2])];
            tensor<string, []> input_tensor_65_pad_type_0 = const()[name = tensor<string, []>("input_tensor_65_pad_type_0"), val = tensor<string, []>("custom")];
            tensor<int32, [4]> input_tensor_65_pad_0 = const()[name = tensor<string, []>("input_tensor_65_pad_0"), val = tensor<int32, [4]>([0, 0, 0, 0])];
            tensor<bool, []> input_tensor_65_exclude_padding_from_average_0 = const()[name = tensor<string, []>("input_tensor_65_exclude_padding_from_average_0"), val = tensor<bool, []>(true)];
            tensor<bool, []> input_tensor_65_ceil_mode_0 = const()[name = tensor<string, []>("input_tensor_65_ceil_mode_0"), val = tensor<bool, []>(false)];
            tensor<fp32, [32, 480, 1, 40]> input_tensor_65 = avg_pool(ceil_mode = input_tensor_65_ceil_mode_0, exclude_padding_from_average = input_tensor_65_exclude_padding_from_average_0, kernel_sizes = var_1674, pad = input_tensor_65_pad_0, pad_type = input_tensor_65_pad_type_0, strides = var_1675, x = x_291)[name = tensor<string, []>("input_tensor_65")];
            tensor<int32, [1]> first_345_axes_0 = const()[name = tensor<string, []>("first_345_axes_0"), val = tensor<int32, [1]>([0])];
            tensor<fp32, [1, 32, 480, 1, 40]> first_345 = expand_dims(axes = first_345_axes_0, x = input_tensor_65)[name = tensor<string, []>("first_345")];
            tensor<int32, [1]> input_73_axes_0 = const()[name = tensor<string, []>("input_73_axes_0"), val = tensor<int32, [1]>([0])];
            tensor<fp32, [32, 480, 1, 40]> input_73 = squeeze(axes = input_73_axes_0, x = first_345)[name = tensor<string, []>("input_73")];
            tensor<string, []> input_75_pad_type_0 = const()[name = tensor<string, []>("input_75_pad_type_0"), val = tensor<string, []>("custom")];
            tensor<int32, [4]> input_75_pad_0 = const()[name = tensor<string, []>("input_75_pad_0"), val = tensor<int32, [4]>([0, 0, 1, 1])];
            tensor<int32, [2]> input_75_strides_0 = const()[name = tensor<string, []>("input_75_strides_0"), val = tensor<int32, [2]>([1, 1])];
            tensor<int32, [2]> input_75_dilations_0 = const()[name = tensor<string, []>("input_75_dilations_0"), val = tensor<int32, [2]>([1, 1])];
            tensor<int32, []> input_75_groups_0 = const()[name = tensor<string, []>("input_75_groups_0"), val = tensor<int32, []>(1)];
            tensor<fp32, [60, 480, 1, 3]> const_54 = const()[name = tensor<string, []>("const_54"), val = tensor<fp32, [60, 480, 1, 3]>(BLOBFILE(path = tensor<string, []>("@model_path/weights/weight.bin"), offset = tensor<uint64, []>(5292480)))];
            tensor<fp32, [60]> const_55 = const()[name = tensor<string, []>("const_55"), val = tensor<fp32, [60]>(BLOBFILE(path = tensor<string, []>("@model_path/weights/weight.bin"), offset = tensor<uint64, []>(5638144)))];
            tensor<fp32, [32, 60, 1, 40]> input_77 = conv(bias = const_55, dilations = input_75_dilations_0, groups = input_75_groups_0, pad = input_75_pad_0, pad_type = input_75_pad_type_0, strides = input_75_strides_0, weight = const_54, x = input_73)[name = tensor<string, []>("input_77")];
            tensor<fp32, [32, 60, 1, 40]> input_79 = silu(x = input_77)[name = tensor<string, []>("input_79")];
            tensor<string, []> input_81_pad_type_0 = const()[name = tensor<string, []>("input_81_pad_type_0"), val = tensor<string, []>("valid")];
            tensor<int32, [2]> input_81_strides_0 = const()[name = tensor<string, []>("input_81_strides_0"), val = tensor<int32, [2]>([1, 1])];
            tensor<int32, [4]> input_81_pad_0 = const()[name = tensor<string, []>("input_81_pad_0"), val = tensor<int32, [4]>([0, 0, 0, 0])];
            tensor<int32, [2]> input_81_dilations_0 = const()[name = tensor<string, []>("input_81_dilations_0"), val = tensor<int32, [2]>([1, 1])];
            tensor<int32, []> input_81_groups_0 = const()[name = tensor<string, []>("input_81_groups_0"), val = tensor<int32, []>(1)];
            tensor<fp32, [120, 60, 1, 1]> const_56 = const()[name = tensor<string, []>("const_56"), val = tensor<fp32, [120, 60, 1, 1]>(BLOBFILE(path = tensor<string, []>("@model_path/weights/weight.bin"), offset = tensor<uint64, []>(5638464)))];
            tensor<fp32, [120]> const_57 = const()[name = tensor<string, []>("const_57"), val = tensor<fp32, [120]>(BLOBFILE(path = tensor<string, []>("@model_path/weights/weight.bin"), offset = tensor<uint64, []>(5667328)))];
            tensor<fp32, [32, 120, 1, 40]> input_83 = conv(bias = const_57, dilations = input_81_dilations_0, groups = input_81_groups_0, pad = input_81_pad_0, pad_type = input_81_pad_type_0, strides = input_81_strides_0, weight = const_56, x = input_79)[name = tensor<string, []>("input_83")];
            tensor<fp32, [32, 120, 1, 40]> input_tensor_67 = silu(x = input_83)[name = tensor<string, []>("input_tensor_67")];
            tensor<int32, [3]> var_1775 = const()[name = tensor<string, []>("op_1775"), val = tensor<int32, [3]>([32, 120, -1])];
            tensor<fp32, [32, 120, 40]> input_tensor_69 = reshape(shape = var_1775, x = input_tensor_67)[name = tensor<string, []>("input_tensor_69")];
            tensor<int32, [3]> var_1780 = const()[name = tensor<string, []>("op_1780"), val = tensor<int32, [3]>([0, 2, 1])];
            tensor<int32, [1]> second_299_axes_0 = const()[name = tensor<string, []>("second_299_axes_0"), val = tensor<int32, [1]>([-1])];
            tensor<bool, []> second_299_keep_dims_0 = const()[name = tensor<string, []>("second_299_keep_dims_0"), val = tensor<bool, []>(true)];
            tensor<fp32, [32, 40, 120]> x_299 = transpose(perm = var_1780, x = input_tensor_69)[name = tensor<string, []>("transpose_15")];
            tensor<fp32, [32, 40, 1]> second_299 = reduce_mean(axes = second_299_axes_0, keep_dims = second_299_keep_dims_0, x = x_299)[name = tensor<string, []>("second_299")];
            tensor<fp32, [32, 40, 120]> input_tensor_73 = sub(x = x_299, y = second_299)[name = tensor<string, []>("input_tensor_73")];
            tensor<fp32, [32, 40, 120]> input_tensor_75 = pow(x = input_tensor_73, y = initializers_onnx_initializer_153)[name = tensor<string, []>("input_tensor_75")];
            tensor<int32, [1]> first_347_axes_0 = const()[name = tensor<string, []>("first_347_axes_0"), val = tensor<int32, [1]>([-1])];
            tensor<bool, []> first_347_keep_dims_0 = const()[name = tensor<string, []>("first_347_keep_dims_0"), val = tensor<bool, []>(true)];
            tensor<fp32, [32, 40, 1]> first_347 = reduce_mean(axes = first_347_axes_0, keep_dims = first_347_keep_dims_0, x = input_tensor_75)[name = tensor<string, []>("first_347")];
            tensor<fp32, [32, 40, 1]> input_tensor_77 = add(x = first_347, y = initializers_onnx_initializer_154)[name = tensor<string, []>("input_tensor_77")];
            tensor<fp32, [32, 40, 1]> second_303 = sqrt(x = input_tensor_77)[name = tensor<string, []>("second_303")];
            tensor<fp32, [32, 40, 120]> first_349 = real_div(x = input_tensor_73, y = second_303)[name = tensor<string, []>("first_349")];
            tensor<fp32, [32, 40, 120]> first_351 = mul(x = first_349, y = initializers_onnx_initializer_155)[name = tensor<string, []>("first_351")];
            tensor<fp32, [32, 40, 120]> x_301 = add(x = first_351, y = initializers_onnx_initializer_156)[name = tensor<string, []>("x_301")];
            tensor<fp32, [360, 120]> x_305_weight_0 = const()[name = tensor<string, []>("x_305_weight_0"), val = tensor<fp32, [360, 120]>(BLOBFILE(path = tensor<string, []>("@model_path/weights/weight.bin"), offset = tensor<uint64, []>(5667904)))];
            tensor<fp32, [360]> x_305_bias_0 = const()[name = tensor<string, []>("x_305_bias_0"), val = tensor<fp32, [360]>(BLOBFILE(path = tensor<string, []>("@model_path/weights/weight.bin"), offset = tensor<uint64, []>(5840768)))];
            tensor<fp32, [32, 40, 360]> x_305 = linear(bias = x_305_bias_0, weight = x_305_weight_0, x = x_301)[name = tensor<string, []>("x_305")];
            tensor<int32, [5]> var_1823 = const()[name = tensor<string, []>("op_1823"), val = tensor<int32, [5]>([32, -1, 3, 8, 15])];
            tensor<fp32, [32, 40, 3, 8, 15]> input_tensor_81 = reshape(shape = var_1823, x = x_305)[name = tensor<string, []>("input_tensor_81")];
            tensor<int32, [5]> var_1830 = const()[name = tensor<string, []>("op_1830"), val = tensor<int32, [5]>([2, 0, 3, 1, 4])];
            tensor<int32, [5]> result_5_begin_0 = const()[name = tensor<string, []>("result_5_begin_0"), val = tensor<int32, [5]>([0, 0, 0, 0, 0])];
            tensor<int32, [5]> result_5_end_0 = const()[name = tensor<string, []>("result_5_end_0"), val = tensor<int32, [5]>([1, 32, 8, 40, 15])];
            tensor<bool, [5]> result_5_end_mask_0 = const()[name = tensor<string, []>("result_5_end_mask_0"), val = tensor<bool, [5]>([false, true, true, true, true])];
            tensor<fp32, [3, 32, 8, 40, 15]> x_307 = transpose(perm = var_1830, x = input_tensor_81)[name = tensor<string, []>("transpose_14")];
            tensor<fp32, [1, 32, 8, 40, 15]> result_5 = slice_by_index(begin = result_5_begin_0, end = result_5_end_0, end_mask = result_5_end_mask_0, x = x_307)[name = tensor<string, []>("result_5")];
            tensor<int32, [1]> x_309_axes_0 = const()[name = tensor<string, []>("x_309_axes_0"), val = tensor<int32, [1]>([0])];
            tensor<fp32, [32, 8, 40, 15]> x_309 = squeeze(axes = x_309_axes_0, x = result_5)[name = tensor<string, []>("x_309")];
            tensor<fp32, [32, 8, 40, 15]> input_tensor_83 = mul(x = x_309, y = initializers_onnx_initializer_164)[name = tensor<string, []>("input_tensor_83")];
            tensor<int32, [5]> result_7_begin_0 = const()[name = tensor<string, []>("result_7_begin_0"), val = tensor<int32, [5]>([1, 0, 0, 0, 0])];
            tensor<int32, [5]> result_7_end_0 = const()[name = tensor<string, []>("result_7_end_0"), val = tensor<int32, [5]>([2, 32, 8, 40, 15])];
            tensor<bool, [5]> result_7_end_mask_0 = const()[name = tensor<string, []>("result_7_end_mask_0"), val = tensor<bool, [5]>([false, true, true, true, true])];
            tensor<fp32, [1, 32, 8, 40, 15]> result_7 = slice_by_index(begin = result_7_begin_0, end = result_7_end_0, end_mask = result_7_end_mask_0, x = x_307)[name = tensor<string, []>("result_7")];
            tensor<int32, [1]> input_tensor_85_axes_0 = const()[name = tensor<string, []>("input_tensor_85_axes_0"), val = tensor<int32, [1]>([0])];
            tensor<fp32, [32, 8, 40, 15]> input_tensor_85 = squeeze(axes = input_tensor_85_axes_0, x = result_7)[name = tensor<string, []>("input_tensor_85")];
            tensor<int32, [5]> result_9_begin_0 = const()[name = tensor<string, []>("result_9_begin_0"), val = tensor<int32, [5]>([2, 0, 0, 0, 0])];
            tensor<int32, [5]> result_9_end_0 = const()[name = tensor<string, []>("result_9_end_0"), val = tensor<int32, [5]>([1, 32, 8, 40, 15])];
            tensor<bool, [5]> result_9_end_mask_0 = const()[name = tensor<string, []>("result_9_end_mask_0"), val = tensor<bool, [5]>([true, true, true, true, true])];
            tensor<fp32, [1, 32, 8, 40, 15]> result_9 = slice_by_index(begin = result_9_begin_0, end = result_9_end_0, end_mask = result_9_end_mask_0, x = x_307)[name = tensor<string, []>("result_9")];
            tensor<int32, [1]> y_5_axes_0 = const()[name = tensor<string, []>("y_5_axes_0"), val = tensor<int32, [1]>([0])];
            tensor<fp32, [32, 8, 40, 15]> y_5 = squeeze(axes = y_5_axes_0, x = result_9)[name = tensor<string, []>("y_5")];
            tensor<bool, []> input_tensor_87_transpose_x_1 = const()[name = tensor<string, []>("input_tensor_87_transpose_x_1"), val = tensor<bool, []>(false)];
            tensor<bool, []> input_tensor_87_transpose_y_1 = const()[name = tensor<string, []>("input_tensor_87_transpose_y_1"), val = tensor<bool, []>(true)];
            tensor<fp32, [32, 8, 40, 40]> input_tensor_87 = matmul(transpose_x = input_tensor_87_transpose_x_1, transpose_y = input_tensor_87_transpose_y_1, x = input_tensor_83, y = input_tensor_85)[name = tensor<string, []>("input_tensor_87")];
            tensor<int32, []> var_1897 = const()[name = tensor<string, []>("op_1897"), val = tensor<int32, []>(-1)];
            tensor<fp32, [32, 8, 40, 40]> result_11 = softmax(axis = var_1897, x = input_tensor_87)[name = tensor<string, []>("result_11")];
            tensor<bool, []> input_tensor_91_transpose_x_0 = const()[name = tensor<string, []>("input_tensor_91_transpose_x_0"), val = tensor<bool, []>(false)];
            tensor<bool, []> input_tensor_91_transpose_y_0 = const()[name = tensor<string, []>("input_tensor_91_transpose_y_0"), val = tensor<bool, []>(false)];
            tensor<fp32, [32, 8, 40, 15]> input_tensor_91 = matmul(transpose_x = input_tensor_91_transpose_x_0, transpose_y = input_tensor_91_transpose_y_0, x = result_11, y = y_5)[name = tensor<string, []>("input_tensor_91")];
            tensor<int32, [4]> var_1917 = const()[name = tensor<string, []>("op_1917"), val = tensor<int32, [4]>([0, 2, 1, 3])];
            tensor<int32, [3]> var_1927 = const()[name = tensor<string, []>("op_1927"), val = tensor<int32, [3]>([32, -1, 120])];
            tensor<fp32, [32, 40, 8, 15]> input_tensor_93 = transpose(perm = var_1917, x = input_tensor_91)[name = tensor<string, []>("transpose_13")];
            tensor<fp32, [32, 40, 120]> x_319 = reshape(shape = var_1927, x = input_tensor_93)[name = tensor<string, []>("x_319")];
            tensor<fp32, [120, 120]> x_321_weight_0 = const()[name = tensor<string, []>("x_321_weight_0"), val = tensor<fp32, [120, 120]>(BLOBFILE(path = tensor<string, []>("@model_path/weights/weight.bin"), offset = tensor<uint64, []>(5842304)))];
            tensor<fp32, [120]> x_321_bias_0 = const()[name = tensor<string, []>("x_321_bias_0"), val = tensor<fp32, [120]>(BLOBFILE(path = tensor<string, []>("@model_path/weights/weight.bin"), offset = tensor<uint64, []>(5899968)))];
            tensor<fp32, [32, 40, 120]> x_321 = linear(bias = x_321_bias_0, weight = x_321_weight_0, x = x_319)[name = tensor<string, []>("x_321")];
            tensor<fp32, [32, 40, 120]> x_325 = add(x = x_299, y = x_321)[name = tensor<string, []>("x_325")];
            tensor<int32, [1]> second_317_axes_0 = const()[name = tensor<string, []>("second_317_axes_0"), val = tensor<int32, [1]>([-1])];
            tensor<bool, []> second_317_keep_dims_0 = const()[name = tensor<string, []>("second_317_keep_dims_0"), val = tensor<bool, []>(true)];
            tensor<fp32, [32, 40, 1]> second_317 = reduce_mean(axes = second_317_axes_0, keep_dims = second_317_keep_dims_0, x = x_325)[name = tensor<string, []>("second_317")];
            tensor<fp32, [32, 40, 120]> input_tensor_97 = sub(x = x_325, y = second_317)[name = tensor<string, []>("input_tensor_97")];
            tensor<fp32, [32, 40, 120]> input_tensor_99 = pow(x = input_tensor_97, y = initializers_onnx_initializer_176)[name = tensor<string, []>("input_tensor_99")];
            tensor<int32, [1]> first_359_axes_0 = const()[name = tensor<string, []>("first_359_axes_0"), val = tensor<int32, [1]>([-1])];
            tensor<bool, []> first_359_keep_dims_0 = const()[name = tensor<string, []>("first_359_keep_dims_0"), val = tensor<bool, []>(true)];
            tensor<fp32, [32, 40, 1]> first_359 = reduce_mean(axes = first_359_axes_0, keep_dims = first_359_keep_dims_0, x = input_tensor_99)[name = tensor<string, []>("first_359")];
            tensor<fp32, [32, 40, 1]> input_tensor_101 = add(x = first_359, y = initializers_onnx_initializer_177)[name = tensor<string, []>("input_tensor_101")];
            tensor<fp32, [32, 40, 1]> second_321 = sqrt(x = input_tensor_101)[name = tensor<string, []>("second_321")];
            tensor<fp32, [32, 40, 120]> first_361 = real_div(x = input_tensor_97, y = second_321)[name = tensor<string, []>("first_361")];
            tensor<fp32, [32, 40, 120]> first_363 = mul(x = first_361, y = initializers_onnx_initializer_178)[name = tensor<string, []>("first_363")];
            tensor<fp32, [32, 40, 120]> x_329 = add(x = first_363, y = initializers_onnx_initializer_179)[name = tensor<string, []>("x_329")];
            tensor<fp32, [240, 120]> x_333_weight_0 = const()[name = tensor<string, []>("x_333_weight_0"), val = tensor<fp32, [240, 120]>(BLOBFILE(path = tensor<string, []>("@model_path/weights/weight.bin"), offset = tensor<uint64, []>(5900544)))];
            tensor<fp32, [240]> x_333_bias_0 = const()[name = tensor<string, []>("x_333_bias_0"), val = tensor<fp32, [240]>(BLOBFILE(path = tensor<string, []>("@model_path/weights/weight.bin"), offset = tensor<uint64, []>(6015808)))];
            tensor<fp32, [32, 40, 240]> x_333 = linear(bias = x_333_bias_0, weight = x_333_weight_0, x = x_329)[name = tensor<string, []>("x_333")];
            tensor<fp32, [32, 40, 240]> x_335 = silu(x = x_333)[name = tensor<string, []>("x_335")];
            tensor<fp32, [120, 240]> x_339_weight_0 = const()[name = tensor<string, []>("x_339_weight_0"), val = tensor<fp32, [120, 240]>(BLOBFILE(path = tensor<string, []>("@model_path/weights/weight.bin"), offset = tensor<uint64, []>(6016832)))];
            tensor<fp32, [120]> x_339_bias_0 = const()[name = tensor<string, []>("x_339_bias_0"), val = tensor<fp32, [120]>(BLOBFILE(path = tensor<string, []>("@model_path/weights/weight.bin"), offset = tensor<uint64, []>(6132096)))];
            tensor<fp32, [32, 40, 120]> x_339 = linear(bias = x_339_bias_0, weight = x_339_weight_0, x = x_335)[name = tensor<string, []>("x_339")];
            tensor<fp32, [32, 40, 120]> x_343 = add(x = x_325, y = x_339)[name = tensor<string, []>("x_343")];
            tensor<int32, [1]> second_335_axes_0 = const()[name = tensor<string, []>("second_335_axes_0"), val = tensor<int32, [1]>([-1])];
            tensor<bool, []> second_335_keep_dims_0 = const()[name = tensor<string, []>("second_335_keep_dims_0"), val = tensor<bool, []>(true)];
            tensor<fp32, [32, 40, 1]> second_335 = reduce_mean(axes = second_335_axes_0, keep_dims = second_335_keep_dims_0, x = x_343)[name = tensor<string, []>("second_335")];
            tensor<fp32, [32, 40, 120]> input_tensor_105 = sub(x = x_343, y = second_335)[name = tensor<string, []>("input_tensor_105")];
            tensor<fp32, [32, 40, 120]> input_tensor_107 = pow(x = input_tensor_105, y = initializers_onnx_initializer_184)[name = tensor<string, []>("input_tensor_107")];
            tensor<int32, [1]> first_369_axes_0 = const()[name = tensor<string, []>("first_369_axes_0"), val = tensor<int32, [1]>([-1])];
            tensor<bool, []> first_369_keep_dims_0 = const()[name = tensor<string, []>("first_369_keep_dims_0"), val = tensor<bool, []>(true)];
            tensor<fp32, [32, 40, 1]> first_369 = reduce_mean(axes = first_369_axes_0, keep_dims = first_369_keep_dims_0, x = input_tensor_107)[name = tensor<string, []>("first_369")];
            tensor<fp32, [32, 40, 1]> input_tensor_109 = add(x = first_369, y = initializers_onnx_initializer_185)[name = tensor<string, []>("input_tensor_109")];
            tensor<fp32, [32, 40, 1]> second_339 = sqrt(x = input_tensor_109)[name = tensor<string, []>("second_339")];
            tensor<fp32, [32, 40, 120]> first_371 = real_div(x = input_tensor_105, y = second_339)[name = tensor<string, []>("first_371")];
            tensor<fp32, [32, 40, 120]> first_373 = mul(x = first_371, y = initializers_onnx_initializer_186)[name = tensor<string, []>("first_373")];
            tensor<fp32, [32, 40, 120]> x_347 = add(x = first_373, y = initializers_onnx_initializer_187)[name = tensor<string, []>("x_347")];
            tensor<fp32, [360, 120]> x_351_weight_0 = const()[name = tensor<string, []>("x_351_weight_0"), val = tensor<fp32, [360, 120]>(BLOBFILE(path = tensor<string, []>("@model_path/weights/weight.bin"), offset = tensor<uint64, []>(6132672)))];
            tensor<fp32, [360]> x_351_bias_0 = const()[name = tensor<string, []>("x_351_bias_0"), val = tensor<fp32, [360]>(BLOBFILE(path = tensor<string, []>("@model_path/weights/weight.bin"), offset = tensor<uint64, []>(6305536)))];
            tensor<fp32, [32, 40, 360]> x_351 = linear(bias = x_351_bias_0, weight = x_351_weight_0, x = x_347)[name = tensor<string, []>("x_351")];
            tensor<int32, [5]> var_2025 = const()[name = tensor<string, []>("op_2025"), val = tensor<int32, [5]>([32, -1, 3, 8, 15])];
            tensor<fp32, [32, 40, 3, 8, 15]> input_tensor_113 = reshape(shape = var_2025, x = x_351)[name = tensor<string, []>("input_tensor_113")];
            tensor<int32, [5]> var_2032 = const()[name = tensor<string, []>("op_2032"), val = tensor<int32, [5]>([2, 0, 3, 1, 4])];
            tensor<int32, [5]> result_13_begin_0 = const()[name = tensor<string, []>("result_13_begin_0"), val = tensor<int32, [5]>([0, 0, 0, 0, 0])];
            tensor<int32, [5]> result_13_end_0 = const()[name = tensor<string, []>("result_13_end_0"), val = tensor<int32, [5]>([1, 32, 8, 40, 15])];
            tensor<bool, [5]> result_13_end_mask_0 = const()[name = tensor<string, []>("result_13_end_mask_0"), val = tensor<bool, [5]>([false, true, true, true, true])];
            tensor<fp32, [3, 32, 8, 40, 15]> x_353 = transpose(perm = var_2032, x = input_tensor_113)[name = tensor<string, []>("transpose_12")];
            tensor<fp32, [1, 32, 8, 40, 15]> result_13 = slice_by_index(begin = result_13_begin_0, end = result_13_end_0, end_mask = result_13_end_mask_0, x = x_353)[name = tensor<string, []>("result_13")];
            tensor<int32, [1]> x_355_axes_0 = const()[name = tensor<string, []>("x_355_axes_0"), val = tensor<int32, [1]>([0])];
            tensor<fp32, [32, 8, 40, 15]> x_355 = squeeze(axes = x_355_axes_0, x = result_13)[name = tensor<string, []>("x_355")];
            tensor<fp32, [32, 8, 40, 15]> input_tensor_115 = mul(x = x_355, y = initializers_onnx_initializer_195)[name = tensor<string, []>("input_tensor_115")];
            tensor<int32, [5]> result_15_begin_0 = const()[name = tensor<string, []>("result_15_begin_0"), val = tensor<int32, [5]>([1, 0, 0, 0, 0])];
            tensor<int32, [5]> result_15_end_0 = const()[name = tensor<string, []>("result_15_end_0"), val = tensor<int32, [5]>([2, 32, 8, 40, 15])];
            tensor<bool, [5]> result_15_end_mask_0 = const()[name = tensor<string, []>("result_15_end_mask_0"), val = tensor<bool, [5]>([false, true, true, true, true])];
            tensor<fp32, [1, 32, 8, 40, 15]> result_15 = slice_by_index(begin = result_15_begin_0, end = result_15_end_0, end_mask = result_15_end_mask_0, x = x_353)[name = tensor<string, []>("result_15")];
            tensor<int32, [1]> input_tensor_117_axes_0 = const()[name = tensor<string, []>("input_tensor_117_axes_0"), val = tensor<int32, [1]>([0])];
            tensor<fp32, [32, 8, 40, 15]> input_tensor_117 = squeeze(axes = input_tensor_117_axes_0, x = result_15)[name = tensor<string, []>("input_tensor_117")];
            tensor<int32, [5]> result_17_begin_0 = const()[name = tensor<string, []>("result_17_begin_0"), val = tensor<int32, [5]>([2, 0, 0, 0, 0])];
            tensor<int32, [5]> result_17_end_0 = const()[name = tensor<string, []>("result_17_end_0"), val = tensor<int32, [5]>([1, 32, 8, 40, 15])];
            tensor<bool, [5]> result_17_end_mask_0 = const()[name = tensor<string, []>("result_17_end_mask_0"), val = tensor<bool, [5]>([true, true, true, true, true])];
            tensor<fp32, [1, 32, 8, 40, 15]> result_17 = slice_by_index(begin = result_17_begin_0, end = result_17_end_0, end_mask = result_17_end_mask_0, x = x_353)[name = tensor<string, []>("result_17")];
            tensor<int32, [1]> y_17_axes_0 = const()[name = tensor<string, []>("y_17_axes_0"), val = tensor<int32, [1]>([0])];
            tensor<fp32, [32, 8, 40, 15]> y_17 = squeeze(axes = y_17_axes_0, x = result_17)[name = tensor<string, []>("y_17")];
            tensor<bool, []> input_tensor_119_transpose_x_1 = const()[name = tensor<string, []>("input_tensor_119_transpose_x_1"), val = tensor<bool, []>(false)];
            tensor<bool, []> input_tensor_119_transpose_y_1 = const()[name = tensor<string, []>("input_tensor_119_transpose_y_1"), val = tensor<bool, []>(true)];
            tensor<fp32, [32, 8, 40, 40]> input_tensor_119 = matmul(transpose_x = input_tensor_119_transpose_x_1, transpose_y = input_tensor_119_transpose_y_1, x = input_tensor_115, y = input_tensor_117)[name = tensor<string, []>("input_tensor_119")];
            tensor<int32, []> var_2099 = const()[name = tensor<string, []>("op_2099"), val = tensor<int32, []>(-1)];
            tensor<fp32, [32, 8, 40, 40]> result_19 = softmax(axis = var_2099, x = input_tensor_119)[name = tensor<string, []>("result_19")];
            tensor<bool, []> input_tensor_123_transpose_x_0 = const()[name = tensor<string, []>("input_tensor_123_transpose_x_0"), val = tensor<bool, []>(false)];
            tensor<bool, []> input_tensor_123_transpose_y_0 = const()[name = tensor<string, []>("input_tensor_123_transpose_y_0"), val = tensor<bool, []>(false)];
            tensor<fp32, [32, 8, 40, 15]> input_tensor_123 = matmul(transpose_x = input_tensor_123_transpose_x_0, transpose_y = input_tensor_123_transpose_y_0, x = result_19, y = y_17)[name = tensor<string, []>("input_tensor_123")];
            tensor<int32, [4]> var_2119 = const()[name = tensor<string, []>("op_2119"), val = tensor<int32, [4]>([0, 2, 1, 3])];
            tensor<int32, [3]> var_2129 = const()[name = tensor<string, []>("op_2129"), val = tensor<int32, [3]>([32, -1, 120])];
            tensor<fp32, [32, 40, 8, 15]> input_tensor_125 = transpose(perm = var_2119, x = input_tensor_123)[name = tensor<string, []>("transpose_11")];
            tensor<fp32, [32, 40, 120]> x_365 = reshape(shape = var_2129, x = input_tensor_125)[name = tensor<string, []>("x_365")];
            tensor<fp32, [120, 120]> x_367_weight_0 = const()[name = tensor<string, []>("x_367_weight_0"), val = tensor<fp32, [120, 120]>(BLOBFILE(path = tensor<string, []>("@model_path/weights/weight.bin"), offset = tensor<uint64, []>(6307072)))];
            tensor<fp32, [120]> x_367_bias_0 = const()[name = tensor<string, []>("x_367_bias_0"), val = tensor<fp32, [120]>(BLOBFILE(path = tensor<string, []>("@model_path/weights/weight.bin"), offset = tensor<uint64, []>(6364736)))];
            tensor<fp32, [32, 40, 120]> x_367 = linear(bias = x_367_bias_0, weight = x_367_weight_0, x = x_365)[name = tensor<string, []>("x_367")];
            tensor<fp32, [32, 40, 120]> x_371 = add(x = x_343, y = x_367)[name = tensor<string, []>("x_371")];
            tensor<int32, [1]> second_353_axes_0 = const()[name = tensor<string, []>("second_353_axes_0"), val = tensor<int32, [1]>([-1])];
            tensor<bool, []> second_353_keep_dims_0 = const()[name = tensor<string, []>("second_353_keep_dims_0"), val = tensor<bool, []>(true)];
            tensor<fp32, [32, 40, 1]> second_353 = reduce_mean(axes = second_353_axes_0, keep_dims = second_353_keep_dims_0, x = x_371)[name = tensor<string, []>("second_353")];
            tensor<fp32, [32, 40, 120]> input_tensor_129 = sub(x = x_371, y = second_353)[name = tensor<string, []>("input_tensor_129")];
            tensor<fp32, [32, 40, 120]> input_tensor_131 = pow(x = input_tensor_129, y = initializers_onnx_initializer_207)[name = tensor<string, []>("input_tensor_131")];
            tensor<int32, [1]> first_381_axes_0 = const()[name = tensor<string, []>("first_381_axes_0"), val = tensor<int32, [1]>([-1])];
            tensor<bool, []> first_381_keep_dims_0 = const()[name = tensor<string, []>("first_381_keep_dims_0"), val = tensor<bool, []>(true)];
            tensor<fp32, [32, 40, 1]> first_381 = reduce_mean(axes = first_381_axes_0, keep_dims = first_381_keep_dims_0, x = input_tensor_131)[name = tensor<string, []>("first_381")];
            tensor<fp32, [32, 40, 1]> input_tensor_133 = add(x = first_381, y = initializers_onnx_initializer_208)[name = tensor<string, []>("input_tensor_133")];
            tensor<fp32, [32, 40, 1]> second_357 = sqrt(x = input_tensor_133)[name = tensor<string, []>("second_357")];
            tensor<fp32, [32, 40, 120]> first_383 = real_div(x = input_tensor_129, y = second_357)[name = tensor<string, []>("first_383")];
            tensor<fp32, [32, 40, 120]> first_385 = mul(x = first_383, y = initializers_onnx_initializer_209)[name = tensor<string, []>("first_385")];
            tensor<fp32, [32, 40, 120]> x_375 = add(x = first_385, y = initializers_onnx_initializer_210)[name = tensor<string, []>("x_375")];
            tensor<fp32, [240, 120]> x_379_weight_0 = const()[name = tensor<string, []>("x_379_weight_0"), val = tensor<fp32, [240, 120]>(BLOBFILE(path = tensor<string, []>("@model_path/weights/weight.bin"), offset = tensor<uint64, []>(6365312)))];
            tensor<fp32, [240]> x_379_bias_0 = const()[name = tensor<string, []>("x_379_bias_0"), val = tensor<fp32, [240]>(BLOBFILE(path = tensor<string, []>("@model_path/weights/weight.bin"), offset = tensor<uint64, []>(6480576)))];
            tensor<fp32, [32, 40, 240]> x_379 = linear(bias = x_379_bias_0, weight = x_379_weight_0, x = x_375)[name = tensor<string, []>("x_379")];
            tensor<fp32, [32, 40, 240]> x_381 = silu(x = x_379)[name = tensor<string, []>("x_381")];
            tensor<fp32, [120, 240]> x_385_weight_0 = const()[name = tensor<string, []>("x_385_weight_0"), val = tensor<fp32, [120, 240]>(BLOBFILE(path = tensor<string, []>("@model_path/weights/weight.bin"), offset = tensor<uint64, []>(6481600)))];
            tensor<fp32, [120]> x_385_bias_0 = const()[name = tensor<string, []>("x_385_bias_0"), val = tensor<fp32, [120]>(BLOBFILE(path = tensor<string, []>("@model_path/weights/weight.bin"), offset = tensor<uint64, []>(6596864)))];
            tensor<fp32, [32, 40, 120]> x_385 = linear(bias = x_385_bias_0, weight = x_385_weight_0, x = x_381)[name = tensor<string, []>("x_385")];
            tensor<fp32, [32, 40, 120]> x_389 = add(x = x_371, y = x_385)[name = tensor<string, []>("x_389")];
            tensor<int32, [1]> second_371_axes_0 = const()[name = tensor<string, []>("second_371_axes_0"), val = tensor<int32, [1]>([-1])];
            tensor<bool, []> second_371_keep_dims_0 = const()[name = tensor<string, []>("second_371_keep_dims_0"), val = tensor<bool, []>(true)];
            tensor<fp32, [32, 40, 1]> second_371 = reduce_mean(axes = second_371_axes_0, keep_dims = second_371_keep_dims_0, x = x_389)[name = tensor<string, []>("second_371")];
            tensor<fp32, [32, 40, 120]> input_tensor_137 = sub(x = x_389, y = second_371)[name = tensor<string, []>("input_tensor_137")];
            tensor<fp32, [32, 40, 120]> input_tensor_139 = pow(x = input_tensor_137, y = initializers_onnx_initializer_215)[name = tensor<string, []>("input_tensor_139")];
            tensor<int32, [1]> first_391_axes_0 = const()[name = tensor<string, []>("first_391_axes_0"), val = tensor<int32, [1]>([-1])];
            tensor<bool, []> first_391_keep_dims_0 = const()[name = tensor<string, []>("first_391_keep_dims_0"), val = tensor<bool, []>(true)];
            tensor<fp32, [32, 40, 1]> first_391 = reduce_mean(axes = first_391_axes_0, keep_dims = first_391_keep_dims_0, x = input_tensor_139)[name = tensor<string, []>("first_391")];
            tensor<fp32, [32, 40, 1]> input_tensor_141 = add(x = first_391, y = initializers_onnx_initializer_216)[name = tensor<string, []>("input_tensor_141")];
            tensor<fp32, [32, 40, 1]> second_375 = sqrt(x = input_tensor_141)[name = tensor<string, []>("second_375")];
            tensor<fp32, [32, 40, 120]> first_393 = real_div(x = input_tensor_137, y = second_375)[name = tensor<string, []>("first_393")];
            tensor<fp32, [32, 40, 120]> first_395 = mul(x = first_393, y = initializers_onnx_initializer_217)[name = tensor<string, []>("first_395")];
            tensor<fp32, [32, 40, 120]> x_393 = add(x = first_395, y = initializers_onnx_initializer_218)[name = tensor<string, []>("x_393")];
            tensor<int32, [4]> var_2233 = const()[name = tensor<string, []>("op_2233"), val = tensor<int32, [4]>([32, 1, 40, 120])];
            tensor<fp32, [32, 1, 40, 120]> input_tensor_147 = reshape(shape = var_2233, x = x_393)[name = tensor<string, []>("input_tensor_147")];
            tensor<int32, [4]> var_2239 = const()[name = tensor<string, []>("op_2239"), val = tensor<int32, [4]>([0, 3, 1, 2])];
            tensor<string, []> input_91_pad_type_0 = const()[name = tensor<string, []>("input_91_pad_type_0"), val = tensor<string, []>("valid")];
            tensor<int32, [2]> input_91_strides_0 = const()[name = tensor<string, []>("input_91_strides_0"), val = tensor<int32, [2]>([1, 1])];
            tensor<int32, [4]> input_91_pad_0 = const()[name = tensor<string, []>("input_91_pad_0"), val = tensor<int32, [4]>([0, 0, 0, 0])];
            tensor<int32, [2]> input_91_dilations_0 = const()[name = tensor<string, []>("input_91_dilations_0"), val = tensor<int32, [2]>([1, 1])];
            tensor<int32, []> input_91_groups_0 = const()[name = tensor<string, []>("input_91_groups_0"), val = tensor<int32, []>(1)];
            tensor<fp32, [480, 120, 1, 1]> const_58 = const()[name = tensor<string, []>("const_58"), val = tensor<fp32, [480, 120, 1, 1]>(BLOBFILE(path = tensor<string, []>("@model_path/weights/weight.bin"), offset = tensor<uint64, []>(6597440)))];
            tensor<fp32, [480]> const_59 = const()[name = tensor<string, []>("const_59"), val = tensor<fp32, [480]>(BLOBFILE(path = tensor<string, []>("@model_path/weights/weight.bin"), offset = tensor<uint64, []>(6827904)))];
            tensor<fp32, [32, 120, 1, 40]> input_89 = transpose(perm = var_2239, x = input_tensor_147)[name = tensor<string, []>("transpose_10")];
            tensor<fp32, [32, 480, 1, 40]> input_93 = conv(bias = const_59, dilations = input_91_dilations_0, groups = input_91_groups_0, pad = input_91_pad_0, pad_type = input_91_pad_type_0, strides = input_91_strides_0, weight = const_58, x = input_89)[name = tensor<string, []>("input_93")];
            tensor<fp32, [32, 480, 1, 40]> x_403 = silu(x = input_93)[name = tensor<string, []>("x_403")];
            tensor<int32, []> var_2271 = const()[name = tensor<string, []>("op_2271"), val = tensor<int32, []>(1)];
            tensor<bool, []> x_409_interleave_0 = const()[name = tensor<string, []>("x_409_interleave_0"), val = tensor<bool, []>(false)];
            tensor<fp32, [32, 960, 1, 40]> x_409 = concat(axis = var_2271, interleave = x_409_interleave_0, values = (input_73, x_403))[name = tensor<string, []>("x_409")];
            tensor<string, []> input_97_pad_type_0 = const()[name = tensor<string, []>("input_97_pad_type_0"), val = tensor<string, []>("custom")];
            tensor<int32, [4]> input_97_pad_0 = const()[name = tensor<string, []>("input_97_pad_0"), val = tensor<int32, [4]>([0, 0, 1, 1])];
            tensor<int32, [2]> input_97_strides_0 = const()[name = tensor<string, []>("input_97_strides_0"), val = tensor<int32, [2]>([1, 1])];
            tensor<int32, [2]> input_97_dilations_0 = const()[name = tensor<string, []>("input_97_dilations_0"), val = tensor<int32, [2]>([1, 1])];
            tensor<int32, []> input_97_groups_0 = const()[name = tensor<string, []>("input_97_groups_0"), val = tensor<int32, []>(1)];
            tensor<fp32, [60, 960, 1, 3]> const_60 = const()[name = tensor<string, []>("const_60"), val = tensor<fp32, [60, 960, 1, 3]>(BLOBFILE(path = tensor<string, []>("@model_path/weights/weight.bin"), offset = tensor<uint64, []>(6829888)))];
            tensor<fp32, [60]> const_61 = const()[name = tensor<string, []>("const_61"), val = tensor<fp32, [60]>(BLOBFILE(path = tensor<string, []>("@model_path/weights/weight.bin"), offset = tensor<uint64, []>(7521152)))];
            tensor<fp32, [32, 60, 1, 40]> input_99 = conv(bias = const_61, dilations = input_97_dilations_0, groups = input_97_groups_0, pad = input_97_pad_0, pad_type = input_97_pad_type_0, strides = input_97_strides_0, weight = const_60, x = x_409)[name = tensor<string, []>("input_99")];
            tensor<fp32, [32, 60, 1, 40]> input_101 = silu(x = input_99)[name = tensor<string, []>("input_101")];
            tensor<string, []> input_103_pad_type_0 = const()[name = tensor<string, []>("input_103_pad_type_0"), val = tensor<string, []>("valid")];
            tensor<int32, [2]> input_103_strides_0 = const()[name = tensor<string, []>("input_103_strides_0"), val = tensor<int32, [2]>([1, 1])];
            tensor<int32, [4]> input_103_pad_0 = const()[name = tensor<string, []>("input_103_pad_0"), val = tensor<int32, [4]>([0, 0, 0, 0])];
            tensor<int32, [2]> input_103_dilations_0 = const()[name = tensor<string, []>("input_103_dilations_0"), val = tensor<int32, [2]>([1, 1])];
            tensor<int32, []> input_103_groups_0 = const()[name = tensor<string, []>("input_103_groups_0"), val = tensor<int32, []>(1)];
            tensor<fp32, [120, 60, 1, 1]> const_62 = const()[name = tensor<string, []>("const_62"), val = tensor<fp32, [120, 60, 1, 1]>(BLOBFILE(path = tensor<string, []>("@model_path/weights/weight.bin"), offset = tensor<uint64, []>(7521472)))];
            tensor<fp32, [120]> const_63 = const()[name = tensor<string, []>("const_63"), val = tensor<fp32, [120]>(BLOBFILE(path = tensor<string, []>("@model_path/weights/weight.bin"), offset = tensor<uint64, []>(7550336)))];
            tensor<fp32, [32, 120, 1, 40]> input = conv(bias = const_63, dilations = input_103_dilations_0, groups = input_103_groups_0, pad = input_103_pad_0, pad_type = input_103_pad_type_0, strides = input_103_strides_0, weight = const_62, x = input_101)[name = tensor<string, []>("input")];
            tensor<fp32, [32, 120, 1, 40]> result_21 = silu(x = input)[name = tensor<string, []>("result_21")];
            tensor<int32, [1]> input_tensor_149_axes_0 = const()[name = tensor<string, []>("input_tensor_149_axes_0"), val = tensor<int32, [1]>([2])];
            tensor<fp32, [32, 120, 40]> input_tensor_149 = squeeze(axes = input_tensor_149_axes_0, x = result_21)[name = tensor<string, []>("input_tensor_149")];
            tensor<int32, [3]> var_2325 = const()[name = tensor<string, []>("op_2325"), val = tensor<int32, [3]>([0, 2, 1])];
            tensor<fp32, [438, 120]> x_weight_0 = const()[name = tensor<string, []>("x_weight_0"), val = tensor<fp32, [438, 120]>(BLOBFILE(path = tensor<string, []>("@model_path/weights/weight.bin"), offset = tensor<uint64, []>(7550912)))];
            tensor<fp32, [438]> x_bias_0 = const()[name = tensor<string, []>("x_bias_0"), val = tensor<fp32, [438]>(BLOBFILE(path = tensor<string, []>("@model_path/weights/weight.bin"), offset = tensor<uint64, []>(7761216)))];
            tensor<fp32, [32, 40, 120]> x_411 = transpose(perm = var_2325, x = input_tensor_149)[name = tensor<string, []>("transpose_9")];
            tensor<fp32, [32, 40, 438]> x_1 = linear(bias = x_bias_0, weight = x_weight_0, x = x_411)[name = tensor<string, []>("x")];
            tensor<int32, []> var_2333 = const()[name = tensor<string, []>("op_2333"), val = tensor<int32, []>(-1)];
            tensor<fp32, [32, 40, 438]> result = softmax(axis = var_2333, x = x_1)[name = tensor<string, []>("result")];
            tensor<int32, [3]> var_2342 = const()[name = tensor<string, []>("op_2342"), val = tensor<int32, [3]>([32, 40, 438])];
            tensor<fp32, [32, 40, 438]> var_2343 = reshape(shape = var_2342, x = result)[name = tensor<string, []>("op_2343")];
        } -> (var_2343);
}